js/models/fingering_transformer_left.onnx (onnx, 501130 bytes, 41 tensors)

input_proj.bias f4 [64]
000000 4e 3b 39 3d 3d 0a 06 3d 10 5f 97 bd c2 70 79 be
       0.045222573 0.032724608 -0.073911786 -0.2435942
000010 21 69 68 3e 18 95 25 be 3a 9b 80 3e dd 4b 9d 3d
       0.22696353 -0.16170156 0.25118428 0.076804854
000020 96 43 f0 bd ab 75 55 be 0d 30 95 bd 71 0e 3f 3e
       -0.11731641 -0.20845668 -0.072845556 0.18657853
000030 c7 c8 3c be 9a f0 14 be 48 13 32 be d2 b2 84 be
       -0.18435965 -0.14544907 -0.17390168 -0.2591768
000040 da f2 6a 3d d8 f4 9b be df 60 34 bc 15 97 2d be
       0.057360508 -0.30460238 -0.011009424 -0.16952164
000050 10 b2 99 3e 40 39 e9 be 6d ad 26 3e fd e9 a8 be
       0.30018663 -0.4555149 0.16277094 -0.3299102
000060 17 53 4f be b5 99 9e bd 97 87 2a 3e 23 72 b0 be
       -0.2024654 -0.07744161 0.16653286 -0.3446208
000070 a2 cb 74 3e 9d eb 8f be 8d e7 67 3e 86 de bf be
       0.23905805 -0.28109446 0.22646923 -0.3747446
000080 1b b0 43 3d 2a 2b 91 3b 1e 79 a0 bd c8 d5 87 bd
       0.04777537 0.0044301944 -0.07835601 -0.066325724
000090 73 43 95 3d 90 1c 50 3d 11 0e bd bd d1 09 9d be
       0.072882555 0.05080849 -0.092311986 -0.30671552
0000a0 96 5c 9c 3e 9c 81 21 3b aa 41 d4 bd ff fd 46 be
       0.30539387 0.0024643904 -0.10364087 -0.1943283
0000b0 64 80 54 3d 73 75 04 3d 8d 3d f7 bd 7b a3 3f 3d
       0.051880255 0.03233857 -0.12072287 0.046786766
0000c0 b1 93 05 3e e3 86 39 3d e8 3c c4 bc 18 a0 9a be
       0.13044621 0.045294654 -0.023954824 -0.30200267
0000d0 a2 aa 9b 3e 60 ca 8a be 99 2b 78 3e 1b 08 f6 3d
       0.3040362 -0.27107525 0.24235381 0.12013265
0000e0 a3 e7 44 be 32 d0 9b be ea 71 2c 3e 90 f1 68 be
       -0.19228987 -0.30432278 0.1684033 -0.22748399
0000f0 46 be 81 3e 2e ce 17 be 64 84 68 3e a5 59 81 be
       0.2534048 -0.14824745 0.22706753 -0.25263706

pos_encoder.pe f4 [1, 50, 64]
000000 00 00 00 00 00 00 80 3f 00 00 00 00 00 00 80 3f
       0.0 1.0 0.0 1.0
000010 00 00 00 00 00 00 80 3f 00 00 00 00 00 00 80 3f
       0.0 1.0 0.0 1.0
000020 00 00 00 00 00 00 80 3f 00 00 00 00 00 00 80 3f
       0.0 1.0 0.0 1.0
000030 00 00 00 00 00 00 80 3f 00 00 00 00 00 00 80 3f
       0.0 1.0 0.0 1.0
000040 00 00 00 00 00 00 80 3f 00 00 00 00 00 00 80 3f
       0.0 1.0 0.0 1.0
000050 00 00 00 00 00 00 80 3f 00 00 00 00 00 00 80 3f
       0.0 1.0 0.0 1.0
000060 00 00 00 00 00 00 80 3f 00 00 00 00 00 00 80 3f
       0.0 1.0 0.0 1.0
000070 00 00 00 00 00 00 80 3f 00 00 00 00 00 00 80 3f
       0.0 1.0 0.0 1.0
000080 00 00 00 00 00 00 80 3f 00 00 00 00 00 00 80 3f
       0.0 1.0 0.0 1.0
000090 00 00 00 00 00 00 80 3f 00 00 00 00 00 00 80 3f
       0.0 1.0 0.0 1.0
0000a0 00 00 00 00 00 00 80 3f 00 00 00 00 00 00 80 3f
       0.0 1.0 0.0 1.0
0000b0 00 00 00 00 00 00 80 3f 00 00 00 00 00 00 80 3f
       0.0 1.0 0.0 1.0
0000c0 00 00 00 00 00 00 80 3f 00 00 00 00 00 00 80 3f
       0.0 1.0 0.0 1.0
0000d0 00 00 00 00 00 00 80 3f 00 00 00 00 00 00 80 3f
       0.0 1.0 0.0 1.0
0000e0 00 00 00 00 00 00 80 3f 00 00 00 00 00 00 80 3f
       0.0 1.0 0.0 1.0
0000f0 00 00 00 00 00 00 80 3f 00 00 00 00 00 00 80 3f
       0.0 1.0 0.0 1.0
000100 a4 6a 57 3f 41 51 0a 3f ce 7a 2e 3f b0 54 3b 3f
       0.84147096 0.54030234 0.68156135 0.731761
000110 ba 7d 08 3f 0e 94 58 3f f0 90 d1 3e c7 92 69 3f
       0.53316844 0.84600914 0.4093089 0.9123959
000120 3e 39 9f 3e 6b 4e 73 3f 25 8f 70 3e f1 d5 78 3f
       0.3109836 0.9504153 0.23492105 0.9720145
000130 3a 23 35 3e 83 f6 7b 3f f3 25 08 3e 28 ba 7d 3f
       0.17689219 0.9842302 0.13295726 0.99112177
000140 76 75 cc 3d 98 b8 7e 3f 36 6f 99 3d d1 47 7f 3f
       0.099833414 0.9950042 0.07491915 0.9971896
000150 ae 36 66 3d 68 98 7f 3f fb ac 2c 3d bd c5 7f 3f
       0.05620449 0.9984193 0.042157155 0.999111
000160 5b 81 01 3d 3c df 7f 3f a5 3e c2 3c 93 ed 7f 3f
       0.031617504 0.99950004 0.023711512 0.99971884
000170 43 ab 91 3c a3 f5 7f 3f 49 7a 5a 3c 2c fa 7f 3f
       0.01778186 0.99984187 0.013334819 0.99991107
000180 57 d6 23 3c b9 fc 7f 3f 16 b9 f5 3b 28 fe 7f 3f
       0.009999833 0.99995 0.0074988706 0.99997187
000190 5a 44 b8 3b f7 fe 7f 3f 5a 2e 8a 3b 6b ff 7f 3f
       0.0056233825 0.9999842 0.0042169513 0.9999911
0001a0 1c 3e 4f 3b ac ff 7f 3f 04 69 1b 3b d1 ff 7f 3f
       0.0031622713 0.999995 0.0023713717 0.9999972
0001b0 20 15 e9 3a e6 ff 7f 3f 8b c9 ae 3a f1 ff 7f 3f
       0.0017782785 0.99999845 0.0013335211 0.9999991
0001c0 6d 12 83 3a f8 ff 7f 3f 89 94 44 3a fb ff 7f 3f
       0.0009999998 0.9999995 0.000749894 0.9999997
0001d0 13 6a 13 3a fe ff 7f 3f 22 17 dd 39 ff ff 7f 3f
       0.0005623411 0.9999999 0.0004216964 0.99999994
0001e0 60 cb a5 39 ff ff 7f 3f 0d a8 78 39 00 00 80 3f
       0.0003162278 0.99999994 0.00023713727 1.0
0001f0 53 77 3a 39 00 00 80 3f 6d d4 0b 39 00 00 80 3f
       0.00017782794 1.0 0.00013335208 1.0
000200 b7 c7 68 3f 33 11 d5 be d9 5a 7f 3f 53 4d 91 3d
       0.9092974 -0.41614684 0.99748 0.070948265
000210 0a f2 66 3f b2 e8 dc 3e 11 35 3f 3f 03 39 2a 3f
       0.9021307 0.43146282 0.7469035 0.6649324
000220 1b 54 17 3f ec 7b 4e 3f b5 d3 e9 3e 69 be 63 3f
       0.5911271 0.8065784 0.45669332 0.8896242
000230 f6 47 b2 3e a6 fa 6f 3f 82 f0 86 3e f5 f2 76 3f
       0.34820527 0.93741834 0.26355368 0.96464473
000240 f8 6f 4b 3e a5 e5 7a 3f d3 00 19 3e 4f 20 7d 3f
       0.19866931 0.9800666 0.1494172 0.98877424
000250 86 d9 e5 3d f3 61 7e 3f af 85 ac 3d 0e 17 7f 3f
       0.1122313 0.9936821 0.084239356 0.99644554
000260 c8 70 81 3d f9 7c 7f 3f aa 30 42 3d 4f b6 7f 3f
       0.063203394 0.9980007 0.04740969 0.99887556
000270 5d a5 11 3d 8e d6 7f 3f 50 75 da 3c b1 e8 7f 3f
       0.035558093 0.9993676 0.026667267 0.99964434
000280 3e d4 a3 3c e5 f2 7f 3f 51 b7 75 3c a1 f8 7f 3f
       0.019998666 0.9998 0.014997319 0.9998875
000290 9b 43 38 3c db fb 7f 3f 0a 2e 0a 3c ab fd 7f 3f
       0.011246587 0.99993676 0.008433828 0.9999644
0002a0 d8 3d cf 3b b1 fe 7f 3f e8 68 9b 3b 43 ff 7f 3f
       0.006324511 0.99998003 0.0047427304 0.99998873
0002b0 08 15 69 3b 96 ff 7f 3f 80 c9 2e 3b c4 ff 7f 3f
       0.0035565514 0.9999937 0.0026670396 0.9999964
0002c0 68 12 03 3b df ff 7f 3f 85 94 c4 3a ed ff 7f 3f
       0.0019999985 0.99999803 0.0014997876 0.99999887
0002d0 12 6a 93 3a f5 ff 7f 3f 20 17 5d 3a fa ff 7f 3f
       0.0011246821 0.99999934 0.0008433927 0.99999964
0002e0 5f cb 25 3a fd ff 7f 3f 0c a8 f8 39 fe ff 7f 3f
       0.0006324555 0.9999998 0.0004742745 0.9999999
0002f0 53 77 ba 39 ff ff 7f 3f 6d d4 8b 39 00 00 80 3f
       0.00035565588 0.99999994 0.00026670416 1.0
000300 c3 81 10 3e 26 70 7d bf de 3c 47 3f ce bf 20 bf
       0.14112 -0.9899925 0.7782725 -0.6279267
000310 d7 45 7e 3f ab 7f ed bd 64 21 74 3f 63 18 9a 3e
       0.9932532 -0.11596616 0.9536345 0.3009673
000320 c2 09 50 3f 58 2f 15 3f b7 24 27 3f a2 e7 41 3f
       0.8126489 0.58275366 0.652904 0.7574407
000330 6c 2f 02 3f 29 6d 5c 3f a7 68 c7 3e 37 c9 6b 3f
       0.5085361 0.86104065 0.3894703 0.92103904
000340 6c 4e 97 3e ef 90 74 3f e2 6d 64 3e 92 8c 79 3f
       0.2955202 0.9553365 0.22307542 0.9748012
000350 d7 ee 2b 3e 9e 5d 7c 3f 2c 33 01 3e 43 f4 7d 3f
       0.16790329 0.9858035 0.12617177 0.9920084
000360 c0 ff c1 3d 4f d9 7e 3f 06 93 91 3d 3a 5a 7f 3f
       0.094726086 0.99550337 0.071081206 0.9974705
000370 4f 69 5a 3d c3 a2 7f 3f c5 d1 23 3d 90 cb 7f 3f
       0.053323086 0.9985773 0.039994974 0.99919987
000380 1f b9 f5 3c 83 e2 7f 3f 47 47 b8 3c 6b ef 7f 3f
       0.0299955 0.99955004 0.022494925 0.999747
000390 c6 31 8a 3c ad f6 7f 3f 46 44 4f 3c c2 fa 7f 3f
       0.016869437 0.9998577 0.012650555 0.99992
0003a0 0d 6e 1b 3c 0d fd 7f 3f 14 1d e9 3b 58 fe 7f 3f
       0.009486687 0.999955 0.007114062 0.9999747
0003b0 a8 cf ae 3b 11 ff 7f 3f 13 17 83 3b 7a ff 7f 3f
       0.005334813 0.99998575 0.0040005534 0.999992
0003c0 92 9b 44 3b b5 ff 7f 3f 60 6f 13 3b d6 ff 7f 3f
       0.0029999954 0.9999955 0.0022496805 0.9999975
0003d0 17 1f dd 3a e8 ff 7f 3f 57 d1 a5 3a f3 ff 7f 3f
       0.0016870227 0.99999857 0.0012650889 0.9999992
0003e0 0e b1 78 3a f9 ff 7f 3f 09 7e 3a 3a fc ff 7f 3f
       0.00094868324 0.9999996 0.00071141176 0.99999976
0003f0 7e d9 0b 3a fe ff 7f 3f a4 be d1 39 ff ff 7f 3f
       0.0005334838 0.9999999 0.00040005625 0.99999994

transformer.layers.0.self_attn.in_proj_bias f4 [192]
000000 9e 7c 4e 3d 6c cf 82 bc 22 a7 92 bc 8e ca 34 bc
       0.050411813 -0.015968047 -0.01790196 -0.011034621
000010 6e 4b 35 bd 61 d9 3f 3d 94 a3 e5 bd 92 66 8b 3d
       -0.04426139 0.046838168 -0.11212841 0.06806673
000020 67 25 0f 3c 94 74 f6 3a 43 c8 fc 3c 9a b9 df bc
       0.008736945 0.0018803054 0.030857211 -0.027310181
000030 6f b9 99 3c b4 27 0d bb b0 78 1c 3c 12 12 bb bd
       0.01876518 -0.0021538557 0.0095502585 -0.09134306
000040 3b f0 e5 3d 63 18 17 3d 90 2d d3 bd b5 1d 04 be
       0.11227461 0.03688849 -0.10311425 -0.12901957
000050 56 6d 98 bd f6 cb ae bd 4d cc 9c 3c 56 98 bb bd
       -0.07442729 -0.08534996 0.019140387 -0.09159915
000060 dd a6 b4 3d 68 08 4a 3d 12 9f d1 bd 8d b7 8d bd
       0.08820889 0.049324423 -0.102354184 -0.06919775
000070 4c 0f cb bd a2 4b af bd 33 e4 08 3e ff 00 10 be
       -0.09915027 -0.08559348 0.13368301 -0.1406288
000080 91 a5 eb 3a 29 a3 4f bd 9a 8c c7 3c 07 81 1c bc
       0.001797842 -0.05069271 0.024359036 -0.009552247
000090 39 f8 98 3b 23 e7 31 3c 88 89 9c bc 19 c6 aa 3c
       0.0046682623 0.01085833 -0.019108549 0.020846413
0000a0 a4 f5 57 bc ce a5 85 3d 9a 29 e3 bc 6f a9 be 3b
       -0.013181124 0.06525765 -0.027729798 0.005818538
0000b0 f3 fe 55 bc 20 60 c4 3c ca 94 cb bc 65 e4 58 3c
       -0.013061273 0.023971617 -0.024851222 0.013238047
0000c0 fc 05 c7 3d 0e e7 11 be 82 4a 1e 3e 01 16 ab 3d
       0.09717938 -0.14248297 0.1545811 0.08353806
0000d0 07 4b 84 bc cc 0d 68 3d 5b 5b 13 be a4 5c 2c bc
       -0.016149057 0.056653783 -0.14390318 -0.010520134
0000e0 fc 36 58 3d db 9b a7 3d b9 d8 b8 bd 64 e5 93 3c
       0.052786812 0.08184024 -0.090257116 0.018053718
0000f0 69 bf 98 bd f0 cc bf 3d 0b fa b6 3d e3 44 25 3e
       -0.074583836 0.093652606 0.08934411 0.1613956
000100 11 18 54 3a f8 6d 3d 3a 35 36 1c ba ae 8d e6 b9
       0.00080907444 0.00072261645 -0.0005959005 -0.00043974578
000110 76 8c 1f ba 62 87 69 b9 03 7a 3c 38 c7 9d 1a 3b
       -0.0006086299 -0.00022271046 4.4936325e-05 0.0023592578
000120 ce 38 1e 3b 1b 03 65 3a 7f 24 fd 39 f7 bf f9 b9
       0.0024142745 0.00087361195 0.00048283112 -0.00047636006
000130 1c 83 d6 b8 5e 37 3e bb 5c 11 51 39 56 4f d6 bb
       -0.00010228736 -0.00290247 0.0001993826 -0.0065402193
000140 16 4a 04 3c 1e 96 14 3b 16 d0 5c b9 66 2b 70 3a
       0.008074304 0.0022672485 -0.00021058353 0.00091617403
000150 30 88 db 3b 79 80 91 ba 27 68 a1 b9 43 75 0f 3a
       0.0066995844 -0.001110091 -0.00030785913 0.00054724904
000160 35 9b 02 3b 30 7c 94 39 94 a7 b8 b9 dc 58 e0 b8
       0.0019928936 0.00028321287 -0.0003522007 -0.00010697704
000170 7e e7 9b bb 09 99 2b bb 3b 83 67 3b bc 15 ba 3a
       -0.0047578206 -0.0026183745 0.0035326022 0.0014197151
000180 86 a8 80 b9 a8 c3 61 3a 91 de 31 3b 2f 64 17 bb
       -0.00024539622 0.0008612224 0.0027140717 -0.0023100486
000190 0e 1e 1a b9 ae 72 a2 b9 d6 eb 56 39 47 a3 82 ba
       -0.0001469778 -0.0003098449 0.00020496486 -0.0009966873
0001a0 02 33 a9 38 46 5f 84 ba fc 34 17 bb 09 81 23 ba
       8.068049e-05 -0.0010099194 -0.0023072353 -0.0006237184
0001b0 3e 5c 4f b5 85 af 21 3b 84 4a 67 ba 45 c0 b8 3a
       -7.724774e-07 0.0024671268 -0.00088230544 0.0014095387
0001c0 67 a1 87 b7 8b a9 1a bc c6 6e 0a bc ca cd 0d 3b
       -1.6168413e-05 -0.009439836 -0.008449262 0.0021637552
0001d0 85 5f a1 3a ce 3b 44 3b 38 dd 89 b7 6e 56 a9 ba
       0.0012311792 0.0029942873 -1.6434686e-05 -0.0012919435
0001e0 75 51 a0 3a d7 40 30 3a 23 0e 55 bb 0a bf e6 ba
       0.0012231307 0.0006723529 -0.0032509647 -0.0017604541
0001f0 36 2c 08 bb d0 df e0 3a 20 f8 38 bb b9 1c cf 39
       -0.0020778305 0.0017156545 -0.0028224066 0.00039503517
000200 4c 44 c1 bc 0a 9d 87 3c d5 9b 73 bc ac 1e 53 3b
       -0.023592137 0.016554374 -0.014868696 0.0032214327
000210 51 45 58 3c d0 3b 39 bb a1 be 84 bb c3 87 37 bb
       0.01320012 -0.002826441 -0.004051045 -0.0028004504
000220 03 72 d3 3b 5b 5d c1 3a 8b c0 44 3b cb 33 7c bb
       0.0064528002 0.0014752554 0.003002199 -0.003848302
000230 db 34 5e 3c 57 4c 1d 3c 2b 15 67 ba e0 14 e4 3c
       0.013562406 0.00960072 -0.0008815105 0.027841985
000240 1f 9d 11 3c 60 a2 31 bb 3c 54 21 bb e2 d0 77 3b
       0.008887558 -0.002710484 -0.0024616858 0.0037813713
000250 6b e0 d8 bc b4 17 cd 3b 96 9e 4c 3c 55 75 18 bb
       -0.026474198 0.006258929 0.012488982 -0.0023263295
000260 55 45 bf 3a f3 2e d5 3a 97 5f da bb 00 07 34 3b
       0.0014592806 0.0016264602 -0.006664227 0.0027469993
000270 81 c0 5a 3c b9 2b f1 bb a6 68 e6 bb 53 ba a2 3c
       0.013351561 -0.0073599485 -0.007031518 0.019864237
000280 d5 34 80 bb 09 ee 64 3c 71 b1 af 3b 96 c3 d9 3b
       -0.003912548 0.013972768 0.005361729 0.00664563
000290 16 38 59 3b af 80 f0 bc ac 55 a3 3c 5b 48 cf bb
       0.0033145002 -0.029358236 0.019938312 -0.006325764
0002a0 be f2 be 3b 27 9a 8a bc 27 1b 60 3c 78 44 24 bb
       0.005827277 -0.016919209 0.013678349 -0.0025065225
0002b0 31 7e 4c 3b b9 3a d9 bc 4e 68 a9 3c b6 5f 3e ba
       0.0031203146 -0.026517259 0.02067962 -0.0007262187
0002c0 98 99 6c 3c 37 42 71 3c ca 5a a3 bb 96 7b 12 bb
       0.0144409165 0.0147252595 -0.004985188 -0.0022351495
0002d0 c1 1c b0 3b 3d 52 b7 bb 6d 2e ca bb 73 8a 95 3c
       0.0053745215 -0.0055945204 -0.006170085 0.018254494
0002e0 a7 6b c7 3b ee b8 9d 3c 76 41 06 bc ec 21 43 3c
       0.006085831 0.01925322 -0.008194318 0.011909943
0002f0 60 df b6 3b 43 eb 8c 3c 9d 0b a9 3b 04 bd cd 3b
       0.0055808276 0.017202025 0.005158855 0.006278636

transformer.layers.0.self_attn.out_proj.weight f4 [64, 64]
000000 65 26 e2 bc db 11 52 3d 02 3e 3b bc df 11 76 3a
       -0.027606199 0.05128656 -0.011428358 0.0009386818
000010 a9 6c d2 bb 41 40 e6 3c 14 70 5d bc 67 cd ef bb
       -0.0064216447 0.02810681 -0.013515491 -0.007318187
000020 d7 2b 89 3d cb 85 59 3d 72 4b b4 3c 17 2b 0b 3c
       0.06697815 0.05310611 0.022008631 0.00849416
000030 37 b1 59 bb ed 9e 35 3d 9f ae b4 3c 92 c5 67 bc
       -0.00332172 0.044341017 0.022055922 -0.0141462255
000040 1a 3f d2 3b 38 d4 7d 3a 46 66 f9 bc 88 dc bc bc
       0.0064162137 0.0009682807 -0.030444276 -0.023054376
000050 e6 d1 af bb 80 3c a8 b9 f4 c8 da 3b df 0f db bb
       -0.005365598 -0.00032088533 0.0066767875 -0.0066852416
000060 d2 b5 c7 3c b2 07 a4 3c 29 a9 a2 3b 2e 8f 26 bc
       0.02437869 0.0200232 0.004964013 -0.010165973
000070 95 eb dd bb ec 14 5a 3b d2 aa 86 3a 28 16 ba 3b
       -0.0067724683 0.003327663 0.0010274297 0.0056789108
000080 9c e2 3a 3c ef 57 14 bb 28 f0 6b bc 10 b5 87 bc
       0.011406567 -0.002263542 -0.014400519 -0.01656583
000090 1f 0e 98 3c d6 f2 7e bc b7 4e cf bb 6c 35 8b bc
       0.018561421 -0.015560826 -0.006326522 -0.016993247
0000a0 5e 16 a3 bb a6 30 dc 3b 2c d2 81 3c 4c d4 83 3d
       -0.0049770316 0.0067196665 0.015847288 0.06436977
0000b0 11 f2 71 3c df 08 4b bd 4c 76 8b b9 cd e0 72 3d
       0.014767186 -0.049569007 -0.00026600284 0.059296418
0000c0 ca 70 c7 bc ab 5d d5 bc 24 e0 41 bd 00 d2 b8 3b
       -0.024345774 -0.02604564 -0.047332898 0.0056402683
0000d0 18 da 45 3d 94 c9 54 bb 9c 54 ef bb 8c b1 4a 3c
       0.048303694 -0.0032468783 -0.0073037874 0.012371432
0000e0 a3 ad 8a 3c 96 f5 1a bd 75 8d fa bc 42 3a 2f bc
       0.0169285 -0.037831865 -0.03058503 -0.010695042
0000f0 cb 40 a3 bb 46 bb 82 bc 1c 98 a7 3b 23 b6 19 bd
       -0.004982089 -0.01595844 0.0051145684 -0.037527215
000100 2e f8 39 3c 6e e6 13 bd 88 c8 2a bc 4b 8a 8f 3c
       0.011350675 -0.036108427 -0.010423787 0.017521998
000110 3d 76 87 3c 5e 5b 5f bc 6e e4 09 3c 24 33 11 bd
       0.016535873 -0.0136326235 0.008416278 -0.035449162
000120 44 40 21 3c a2 a8 a1 bc c2 ef 08 bd fe ec 71 3b
       0.009841982 -0.01973373 -0.033431776 0.003691494
000130 f7 a0 88 bb 0f e6 c9 bc 4c d0 0e bb 4a db 1f 3c
       -0.004169579 -0.024645833 -0.0021791635 0.009756872
000140 b5 6f 64 3c be a3 0a 3b e4 29 86 3b 67 95 0c 3d
       0.013942649 0.0021154727 0.004094349 0.03432217
000150 1b 61 c6 3c 9c 42 2e 3d cc 8f 98 3c 88 a2 57 bb
       0.024216225 0.042543992 0.018623255 -0.0032903273
000160 a4 68 60 bc 79 8e 78 bc b3 94 0f 3d d8 ec ba bc
       -0.013696823 -0.015170687 0.03505392 -0.022818014
000170 c8 8c 76 3c d5 31 f4 3c 78 80 94 3c e3 40 27 bc
       0.015048213 0.029808918 0.018127665 -0.010208341
000180 c1 e0 4d 3d 85 d3 53 3b 5f 15 02 bc 2c 5d c7 bc
       0.05026317 0.003232212 -0.007939666 -0.02433642
000190 a1 68 6c 3a ee 71 be bc ae 91 31 3d 69 87 05 3d
       0.00090182765 -0.023247685 0.04335182 0.03259984
0001a0 00 26 1c 3d b8 23 5a 3d b0 be 2a 3c ff 7e 42 3b
       0.038122177 0.05325672 0.01042144 0.0029677746
0001b0 85 54 e5 bc d0 c6 ce 3c a7 47 1d 3d 19 67 47 3c
       -0.027994404 0.025241286 0.03839841 0.0121705765
0001c0 2b 35 ae bc e2 46 78 bb 90 dd 27 3d 9a 89 65 3b
       -0.021265587 -0.0037884046 0.040982783 0.0035024644
0001d0 b7 81 1a bd f2 02 32 3b 41 2c fb 3c 28 eb 52 3c
       -0.037721362 0.00271624 0.03066075 0.012873448
0001e0 23 38 44 bc e0 81 24 bd da c4 de 3c 60 6e 2a 3d
       -0.011976275 -0.04016292 0.027193476 0.041609168
0001f0 78 96 ec bc 17 e1 83 bb 8c 52 98 3d ed bc 27 bd
       -0.028880343 -0.0040246355 0.074376196 -0.040951658
000200 77 4e e9 bc 2c a7 89 3d 56 dc 0d bc 6d f5 53 bc
       -0.028479798 0.06721339 -0.008658489 -0.012936932
000210 7d c2 db 3d 5e d2 2f bc 7f 5d 39 bd 39 55 46 3c
       0.10730455 -0.010731308 -0.04525518 0.01210528
000220 f7 94 26 bd 50 7f d4 bd 9b 5e ca 3d 6f 04 71 3d
       -0.040669408 -0.103758454 0.09881326 0.05884212
000230 57 a6 6e 3d 3d e3 96 3d 7f f2 31 bc 39 2c ff 3c
       0.058264103 0.07367561 -0.010861038 0.031149017
000240 26 60 2f bd ac b4 a4 3d 52 9e 3c 3c 9a 9f ae bb
       -0.042816304 0.08042273 0.011512356 -0.0053290846
000250 4b 73 15 ba 96 51 90 bd 2a 7d 2c 3c 54 5f 11 bd
       -0.0005701079 -0.07046811 0.010527888 -0.035491303
000260 f8 f4 82 3d 98 7f d7 bb 2a 47 7a 3d 08 ec 64 3c
       0.0639438 -0.0065764897 0.061103024 0.01397229
000270 6c c2 dd 3c 98 eb b5 ba fe 6e 18 3c fb 6f a2 bb
       0.027070247 -0.0013879417 0.009303806 -0.004957197
000280 4f 35 9d bd 57 c1 e0 3c 8e cd 8f bd 7c f3 8e bd
       -0.076761834 0.027435942 -0.07021628 -0.06980035
000290 da 6f 9e bc ab e8 1c 3d 22 0d 47 bd 01 bd 9a bc
       -0.019340444 0.038307827 -0.04859651 -0.018888952
0002a0 78 59 03 bd 55 0e 11 3d dd 8b 02 3d 67 f8 9c bd
       -0.032067746 0.03541406 0.031871665 -0.076645665
0002b0 e8 54 7c 3c e9 af 64 bd eb c5 dc 3a a8 5f bc 3b
       0.015401103 -0.055831823 0.0016843652 0.005748708
0002c0 bf 81 32 3d da 0a ee ba 37 2b 83 bb 66 cf dc 3b
       0.043580767 -0.0018161193 -0.0040029543 0.006738591
0002d0 e0 9b cb 3c f6 83 21 3d 35 32 f5 bd e8 25 58 bd
       0.0248546 0.03943249 -0.11972467 -0.052770525
0002e0 94 1e b1 bd 47 4a 26 bd e2 59 e0 bc ee b1 70 3d
       -0.086484104 -0.04059818 -0.02738661 0.058763437
0002f0 a6 60 88 3d 3c e6 01 bd 12 09 cd 3c da 73 90 ba
       0.06659059 -0.03171371 0.02502874 -0.0011020855
000300 29 6c b2 bb 33 6a eb 3c ca 56 27 bd fc b8 ea 3c
       -0.0054450226 0.028737163 -0.040854253 0.02865266
000310 b4 05 3e 38 d6 cd 38 bc 49 a2 0c bd 0c 1e c9 bd
       4.530484e-05 -0.011279544 -0.034334455 -0.09820184
000320 12 e6 00 3e e2 a0 3d bd 59 62 a8 bd 02 cd 53 3d
       0.12587765 -0.046296008 -0.08221883 0.051709183
000330 f3 45 71 3d 9b 24 99 3d 7e 0f fa 3c 54 d5 8a bd
       0.0589046 0.07477685 0.030524965 -0.0677897
000340 b7 bd f0 bc 66 ca 57 3c 54 38 8a 3c 85 15 2a bc
       -0.029387338 0.013170814 0.016872562 -0.010381107
000350 a1 65 13 3d 01 d9 78 bd fd 7b 02 bd 2f 04 bd 3d
       0.035985593 -0.060753826 -0.031856526 0.092293136
000360 b9 c4 53 bd d5 e6 eb bc 70 de 01 3d 9d 60 1c bc
       -0.05170128 -0.028796593 0.031706274 -0.009544519
000370 74 f9 3e 3c e0 a3 7e 3d 03 8b 28 3d e4 3c 2a 3d
       0.011656154 0.062168002 0.041148197 0.041561976
000380 b5 dd b1 3d 7c 6d 16 bd ab 04 80 bb fe 5b bd 3d
       0.086848654 -0.036725506 -0.0039068065 0.09246062
000390 3f 40 20 bd b2 be 85 bb fa ec 9b 3d 23 fa 4a 3d
       -0.03912377 -0.0040815705 0.07613559 0.049554955
0003a0 16 a5 e4 bb 20 f8 55 bd 19 d4 5a 3c 4d 08 ab 3d
       -0.0069776876 -0.052238584 0.013356232 0.083511926
0003b0 c8 40 42 bb 5e b1 9e bd fb 30 44 3d 5f dc 83 bd
       -0.0029640663 -0.07748674 0.047898274 -0.06438517
0003c0 74 71 08 3b 4b a7 3a bd 3d f4 01 be b2 f1 93 3d
       0.0020819576 -0.0455697 -0.12690826 0.07223834
0003d0 95 b0 05 3e d1 19 d3 3c e6 39 10 be a8 01 8b bd
       0.13055642 0.025769146 -0.14084587 -0.06787425
0003e0 53 6c 98 bc e8 25 9b 3d 72 bf 69 bd fe 01 fa bc
       -0.01860634 0.075755894 -0.057067342 -0.030518528
0003f0 fb a1 18 3e da 06 75 bc 3d 21 d8 bd 62 3e f5 bd
       0.1490554 -0.014955247 -0.10553215 -0.11974789

transformer.layers.0.self_attn.out_proj.bias f4 [64]
000000 fc 38 03 bb 9e d0 ab ba 4d 82 86 3c 69 ca 57 3b
       -0.002002298 -0.0013108437 0.016419554 0.0032927042
000010 f0 1f 47 3a 39 b9 38 3d 65 3c 93 3b 47 bf 5f 3c
       0.00075960066 0.045098517 0.0044932836 0.013656444
000020 de 72 26 ba c1 cc 86 3b b3 fe fe ba 8f 32 c5 3b
       -0.0006349514 0.004113764 -0.0019454568 0.00601799
000030 8f 06 0a 3b 84 b5 d6 ba 9d 5a 97 3b e0 83 29 bd
       0.0021061038 -0.0016381 0.0046189562 -0.04138553
000040 d3 41 8a bb ba ae d3 bb 20 7e b2 3c ae 9b 27 bb
       -0.0042192726 -0.006460038 0.021788657 -0.002557497
000050 13 b5 fd 3b 5e 50 c5 39 d6 7a 97 3b 68 1f 0c 3c
       0.007742533 0.00037634646 0.0046227975 0.00855241
000060 0c 5b 2a b6 a5 74 63 bb 40 36 01 36 c7 3a 8a bb
       -2.538497e-06 -0.0034706977 1.9254076e-06 -0.0042184326
000070 6b d1 2b 3c 26 47 a3 bb 02 5f 81 3a 7f 9d 65 3c
       0.010486941 -0.004982847 0.0009870233 0.014014601
000080 d7 14 58 3b 2e da 3f bc 94 b7 73 3c 7a 0c 0a 3a
       0.0032971406 -0.011709733 0.014875311 0.00052661414
000090 96 ba 0a 3c b7 07 fe bb 36 7b 01 3c c9 e5 5a 3c
       0.008467337 -0.0077523845 0.007902911 0.013360449
0000a0 83 f3 50 3a ce 53 e2 ba 5e ec 15 3d e4 11 57 bc
       0.00079708564 -0.0017267407 0.03660237 -0.013126824
0000b0 ee b7 b5 3a f3 29 8a bb a8 36 e3 3b 2a 6f 42 39
       0.001386402 -0.0042164265 0.0069340058 0.00018542694
0000c0 46 73 a6 3a 8e 57 b4 bb 90 3a 57 3b 02 66 9c bb
       0.0012699149 -0.0055036014 0.0032841302 -0.0047729025
0000d0 74 2e 66 bc 4d 5d 81 3b 5a 7b a5 39 dc fa dc 3b
       -0.014049161 0.00394789 0.00031563157 0.006743772
0000e0 25 26 c8 3b 18 74 81 bb b8 84 0f b9 b5 12 83 b9
       0.006108063 -0.003950607 -0.00013686984 -0.00025000205
0000f0 da 2a 78 3b 74 10 dd ba 2e e2 0c 39 16 de 04 bc
       0.0037867338 -0.0016865865 0.00013435699 -0.00810959

transformer.layers.0.linear1.bias f4 [128]
000000 d7 ef 12 be 17 c6 da bc 65 fc 73 bd aa fe ab bd
       -0.14349304 -0.026705785 -0.059566874 -0.08398183
000010 9b 58 00 be 2a fd b1 bc a7 d2 11 be 96 79 2d be
       -0.125338 -0.021727163 -0.14240514 -0.16940913
000020 b1 6c 1e be 6f d1 e8 bc 78 6d e6 bd b9 02 b4 bd
       -0.1547115 -0.028420178 -0.11251348 -0.08789582
000030 5d a3 a1 bd 5d 08 a8 bc 6d 3e ca bd f8 a5 0b 3b
       -0.07892487 -0.0205118 -0.09875188 0.0021308642
000040 b4 69 08 be c0 28 ec bd 54 f6 24 3a 74 c6 62 be
       -0.13321573 -0.1153121 0.0006292809 -0.22146016
000050 91 84 ba bd 8f 5c 97 bd 38 46 70 be 72 ab 58 bd
       -0.09107316 -0.07390701 -0.23464286 -0.052897878
000060 47 70 da bd 0e 7d 23 be 20 32 a6 ba 95 45 47 bd
       -0.106659465 -0.15965673 -0.0012679733 -0.048650343
000070 a6 db 3a be cf ff b4 bc 8d 1c 05 be bb f6 28 3c
       -0.18247852 -0.022094635 -0.12999173 0.010312731
000080 46 d9 67 bd 54 ac 2a bd 9b 62 6c bd 72 44 d6 3c
       -0.056603692 -0.04166825 -0.057711225 0.026155684
000090 91 b2 b5 bd c1 0c 8e bd 7b 8e 64 be eb 37 9f bd
       -0.088719495 -0.06936026 -0.22319977 -0.077743374
0000a0 42 2a 59 bd 45 45 87 bd e1 4d 98 bd dc 61 b2 bd
       -0.053018816 -0.06605009 -0.07436729 -0.087100714
0000b0 6f 8d 05 bd d4 49 57 be ab 1c 7d bd 7b 4c be bd
       -0.032605585 -0.21024257 -0.061794918 -0.09291931
0000c0 41 da cf bd f4 9f 96 bd 8f c4 1a 3d fd ce b6 bd
       -0.101490505 -0.073547274 0.03778511 -0.08926199
0000d0 f7 60 06 bc 3f 49 e7 bd 19 82 10 be 0a f6 fe bd
       -0.008201829 -0.112932675 -0.14112128 -0.12449272
0000e0 77 db f3 bc fd 16 30 be 9e aa 85 bd 1f f4 25 be
       -0.029767735 -0.1719627 -0.06526683 -0.16206406
0000f0 39 97 d4 bc b5 23 9c bd 34 b3 be bb 58 a2 0a be
       -0.025951015 -0.07623998 -0.0058197025 -0.13538492
000100 15 16 9e bd f1 16 0a 3d 28 53 f3 bd 56 20 e8 3c
       -0.077190556 0.033713285 -0.11881095 0.028335731
000110 e1 6a 38 3d 85 5f a0 bd 8e 1a a1 bd 8a 62 8d bd
       0.045023803 -0.07830719 -0.07866393 -0.069035605
000120 12 83 29 be 25 af 1a 3b 8a 0b a1 bd 31 21 90 bd
       -0.16553906 0.002360293 -0.07863529 -0.07037581
000130 b5 9b 9c 3c 7f a9 c4 bd 2e 50 53 bc 24 57 91 bd
       0.019117216 -0.09602641 -0.012897534 -0.07096699
000140 53 b4 2f bb 91 e6 d4 bd 94 23 b7 bd 35 bd db bd
       -0.0026810362 -0.103955396 -0.08942333 -0.10729448
000150 67 bd 73 3d a1 5c 3e be 6a 87 fc 3c 72 e8 c4 bd
       0.0595068 -0.18590023 0.03082629 -0.09614648
000160 ba 4c 07 be 46 01 ea bd 2f 39 fa bd c6 5e e0 bd
       -0.13212863 -0.11426024 -0.12217938 -0.109555766
000170 87 fc eb bc 9f 46 65 be e7 68 d1 bd 51 19 12 be
       -0.028806938 -0.22390221 -0.10225087 -0.1426747
000180 63 13 bf bc 70 24 e7 bd 25 49 09 bd 2f 00 b6 bd
       -0.023324674 -0.11286247 -0.03351702 -0.08886754
000190 b1 73 a4 bc 1d 3b 51 bd 65 9b c7 bd 91 9a de bd
       -0.020074697 -0.051081765 -0.09746436 -0.10869325
0001a0 5d 23 f4 3c 80 e9 82 bd 4f f7 2b bd 84 6e cc bd
       0.029802019 -0.06392193 -0.0419839 -0.09982017
0001b0 bc 2e 09 be b9 b3 5d bd 4f 1a dd bd 87 aa 52 bc
       -0.13396734 -0.054126475 -0.107960336 -0.01285804
0001c0 59 7d c5 bc 69 48 cb 3c b8 b8 fd bd c9 12 b5 bd
       -0.024107622 0.024814801 -0.12388748 -0.088414736
0001d0 1a 9e 37 bd b8 8e cc bc 65 3b 08 bd 21 c1 9a bd
       -0.04482851 -0.024970397 -0.033259768 -0.07556368
0001e0 ff da a2 bd f9 d6 33 3d 99 7c 29 3c dd 65 a2 bd
       -0.079519264 0.043906186 0.010344648 -0.07929585
0001f0 f6 13 85 bd 52 51 e3 bd cf bc d6 bc 3e 07 db bc
       -0.06497948 -0.11099495 -0.026213078 -0.026736852

transformer.layers.0.linear2.bias f4 [64]
000000 4e c9 46 bc dd 72 87 3d f2 74 15 3d 21 a4 e3 3d
       -0.012132956 0.06613705 0.03648848 0.111152895
000010 f7 ac 56 bd 2b 9a b4 3d fe f9 21 bd 19 c9 32 3d
       -0.052411046 0.08818468 -0.03954505 0.043648813
000020 a9 11 0c bd 00 3e c7 ba 01 c9 41 3c a0 de cb 3c
       -0.03419653 -0.0015200973 0.011827708 0.02488643
000030 22 a6 1c bd 97 e3 13 3d be f7 5d 3d 80 ec 8f bd
       -0.038244374 0.03610572 0.054191343 -0.07027531
000040 60 47 3d be 00 e1 17 3e 46 3f 16 be 3f 43 66 bc
       -0.18484259 0.14831924 -0.14672574 -0.014054119
000050 0f a2 a6 3d d6 a6 07 3b 7e fd 84 3d ed 62 b7 3d
       0.08136379 0.0020698807 0.06493662 0.089544155
000060 27 d1 21 bd b8 a1 59 bd 3a 7a e8 3c 8e 10 71 bd
       -0.039506104 -0.053132743 0.028378595 -0.05885368
000070 71 13 14 3e 9c 3a 64 bc 09 3a 7d 3b 6c fc 99 3b
       0.14460541 -0.013929989 0.0038639328 0.0046992805
000080 56 38 6c 3c f9 fc 6f 3b ef 73 ef 3d e0 c7 a9 3c
       0.014417728 0.003661929 0.116920345 0.02072519
000090 f0 14 6d bd 08 b5 e6 3c 9e bd 54 3c ea 01 1a bd
       -0.057881296 0.028162494 0.012984661 -0.03759948
0000a0 aa 3b f7 bc aa ab 62 3c c8 e2 ae 3c dc 23 76 3c
       -0.030179817 0.013834873 0.021348372 0.015023198
0000b0 c7 a9 12 3c 95 d0 82 bb 2b 96 01 3c ab af 3d bd
       0.008951611 -0.00399215 0.007909338 -0.04631011
0000c0 cb 44 f2 3b d9 ea 0d bd 41 af 00 3e 3d 1c 11 3d
       0.0073934547 -0.034647796 0.12566854 0.03542732
0000d0 39 3e c8 3c f4 68 81 bd 9a 0a 3b bb d9 84 76 bd
       0.024443733 -0.06318846 -0.0028540255 -0.060185287
0000e0 bc 1a 69 3d fe f1 83 bd 78 91 49 bd 0d b7 59 bd
       0.05691026 -0.06442641 -0.049210995 -0.053153086
0000f0 e1 df a4 3d a9 46 54 bc 8c d3 1d 3c ef 20 aa 3c
       0.08050514 -0.0129563 0.009632956 0.020767657

transformer.layers.0.norm1.weight f4 [64]
000000 fc 74 75 3f 54 69 39 3f 81 e7 2e 3f 3d cd ca 3e
       0.9588163 0.7242634 0.68321997 0.3960971
000010 3a 14 44 3f aa d0 a0 3e f2 19 49 3f 88 0c f6 3e
       0.76593363 0.31409198 0.78555214 0.48056436
000020 83 b6 56 3f ea 55 34 3f aa e8 67 3f 17 93 39 3f
       0.8387224 0.70443594 0.9058939 0.72490066
000030 fe 2a 40 3f c0 5d 5e 3f 97 9a 18 3f 9f 1d 15 3f
       0.750656 0.868618 0.59610885 0.58248323
000040 08 ae 5e 3f 71 30 73 3f 47 c9 13 3f 53 af 87 3f
       0.869843 0.9499579 0.57729 1.060038
000050 7b af 17 3f 48 8b 9f 3f 34 bd 39 3f 18 e4 14 3f
       0.59252137 1.246438 0.72554326 0.58160543
000060 cb 21 20 3f db 55 45 3f d3 8f 40 3f 2a 19 8a 3f
       0.62551564 0.7708413 0.7521946 1.078893
000070 80 f4 1a 3f 59 78 74 3f 4a 5a a8 3f 40 f6 10 3f
       0.6052933 0.95496136 1.3152554 0.5662575
000080 35 bf 0f 3f 42 8a 2f 3f 1a 4b 17 3f 3e 2b 69 3f
       0.56151134 0.6857034 0.5909897 0.9108161
000090 09 3c 42 3f 2d dd 46 3f f8 96 41 3f e5 c4 24 3f
       0.75872856 0.7768124 0.75620985 0.6436294
0000a0 38 6a 81 3f 36 1f 45 3f c0 c6 ee 3e d9 4e f4 3e
       1.011054 0.7700075 0.4663601 0.47716406
0000b0 65 ab 75 3f 46 7b 36 3f a3 8c 52 3f 7a 25 29 3f
       0.9596465 0.7128185 0.82245845 0.6607281
0000c0 59 b9 5a 3f b8 d8 38 3f f3 4d 30 3f e0 c3 2b 3f
       0.8543907 0.72205687 0.6886894 0.67095757
0000d0 fb 22 1a 3f a1 6f 1a 3f 7c b5 be 3f 93 3e 36 3f
       0.60209626 0.6032658 1.4899135 0.7118923
0000e0 13 c8 3f 3f ea ec 3b 3f 9f 79 81 3f 43 2e 49 3f
       0.74914664 0.7340838 1.0115241 0.78586215
0000f0 cc b0 30 3f d1 97 65 3f 02 12 6f 3f 4e e8 0e 3f
       0.6901977 0.8968478 0.9338685 0.5582322

transformer.layers.0.norm1.bias f4 [64]
000000 b0 11 50 3d c3 da 86 3d 68 55 37 3e b4 7a 58 3e
       0.050798118 0.06584694 0.17903674 0.21140558
000010 5a 77 a2 bc 4e b5 33 3e 6a 27 41 bd c2 ed 8d 3b
       -0.019832302 0.17549631 -0.04715673 0.0043313215
000020 38 f5 3f bc 45 6f 0b 3d 96 63 b2 ba b6 63 d4 bd
       -0.01171618 0.03404166 -0.0013610001 -0.10370581
000030 0d 18 69 bd 6d 19 c2 3b 92 d5 23 3c ae c7 79 be
       -0.056907702 0.005923441 0.00999965 -0.24392578
000040 8a 53 ac bc bc 55 13 bd 95 e0 2c 3e eb f0 5c bd
       -0.021035928 -0.035970435 0.16882546 -0.053940695
000050 58 45 28 3d ee 8b 09 bd 07 c8 d5 3d 59 cc 8a bd
       0.041081756 -0.033580713 0.10438543 -0.067772575
000060 2b 3d 25 3e ef 9c e1 bd 55 c9 55 3d 23 8a 6e bd
       0.16136615 -0.11016261 0.05219396 -0.058237206
000070 9c 29 c9 3d 31 ed e3 bc 07 f8 21 bc b3 26 b1 bc
       0.098223895 -0.027823063 -0.0098857945 -0.021624899
000080 71 2b 47 3e 70 c4 db bd 96 93 c4 3d b1 95 aa bc
       0.19450165 -0.10730827 0.09598462 -0.020823332
000090 4e 49 be 3d 05 fe a6 bd cf 59 93 3d 74 32 05 be
       0.092913255 -0.08153919 0.07194864 -0.13007528
0000a0 3b da ed bb 62 b4 7c bd c6 ab 82 3e 7e a0 a0 be
       -0.007258681 -0.061695464 0.25521678 -0.31372446
0000b0 6c d2 75 3d 33 7e 0f be 74 db 2c 3c 26 c0 33 be
       0.060015127 -0.14012985 0.010550369 -0.17553768
0000c0 ac 55 a7 3d ab 02 bf bd d5 07 fe 3d 94 99 8c bd
       0.081706375 -0.09326681 0.124038376 -0.0686523
0000d0 49 62 9d 3d 66 ba 4a be 15 e6 52 3c d1 b9 f4 bd
       0.07684762 -0.19797668 0.012872239 -0.11949504
0000e0 16 f0 b3 3d 5c 4c a4 bd de 32 81 3d bb 67 a7 bc
       0.08786027 -0.08022377 0.0630853 -0.020435205
0000f0 4c 3b 0c 3e 12 02 9f 39 1b 39 60 3d d7 50 1f be
       0.13694495 0.00030328386 0.05474196 -0.15558182

transformer.layers.0.norm2.weight f4 [64]
000000 e3 eb 73 3f c8 86 7d 3f d1 b9 43 3f 1d 7d 26 3f
       0.9528181 0.99033785 0.7645541 0.6503466
000010 99 5c 7d 3f 53 c7 51 3f 60 ca 54 3f 84 4f e2 3e
       0.9896942 0.8194477 0.831213 0.4420129
000020 b7 c5 5b 3f 5a 8b 4e 3f 33 5b 5d 3f 1e 1c 52 3f
       0.85848564 0.80681384 0.86467284 0.82074153
000030 d4 8a 3d 3f 54 61 23 3f 6d af 36 3f e7 f7 51 3f
       0.7403996 0.63820386 0.7136143 0.82018894
000040 19 1a 32 3f 39 d9 3f 3f ad 6a 46 3f 06 36 84 3f
       0.6957107 0.7494083 0.77506524 1.0328987
000050 df 62 3f 3f c9 d9 94 3f dc 2e 6e 3f 14 09 33 3f
       0.7476024 1.1628963 0.9304025 0.6993573
000060 0a 50 5d 3f 03 a6 4c 3f 59 cd 50 3f bb 9c 79 3f
       0.86450255 0.79940814 0.81563336 0.97504777
000070 eb 19 31 3f 25 87 65 3f 7e 4b 8f 3f bc 7e 37 3f
       0.6918017 0.8965934 1.1194913 0.71677756
000080 ce 07 38 3f c1 21 49 3f 5d 3b 3d 3f 8c 7e 5e 3f
       0.7188691 0.7856713 0.73918706 0.86911845
000090 6b 6a 4f 3f c7 85 60 3f cd fa 4b 3f 06 0a 37 3f
       0.81021756 0.8770413 0.79679567 0.7149967
0000a0 47 e7 79 3f f1 98 4e 3f 31 37 54 3f 06 3f 52 3f
       0.97618526 0.8070212 0.82896715 0.82127416
0000b0 85 62 72 3f 52 90 3e 3f 9f 81 49 3f 8f 8a 1f 3f
       0.9468158 0.74438965 0.7871341 0.623208
0000c0 a6 72 5a 3f 17 d5 40 3f d5 30 23 3f 5a 33 3e 3f
       0.8533119 0.7532515 0.63746387 0.74297106
0000d0 68 09 52 3f 55 35 30 3f 52 c3 a0 3f cf 14 43 3f
       0.820456 0.6883138 1.2559607 0.76203626
0000e0 5b 56 51 3f 30 49 4d 3f e4 be 73 3f 1f 04 4b 3f
       0.81772393 0.801898 0.9521315 0.79303163
0000f0 ea 9c 55 3f e7 a2 5c 3f 40 48 5a 3f 74 db 53 3f
       0.83442557 0.8618607 0.85266495 0.82756734

transformer.layers.0.norm2.bias f4 [64]
000000 22 c7 a1 bd 2e 80 0f 3d e8 6c 00 3e cc c4 b3 3d
       -0.0789931 0.03503435 0.12541544 0.087777704
000010 4c 36 0d bc a3 37 09 3d 46 9e 58 bc 28 ef 8b 3d
       -0.008618902 0.033500325 -0.013221329 0.06832725
000020 3c 2a 88 3c 85 77 c7 3c df 5f 6e 3c bb 5f 9d bd
       0.016621701 0.024348984 0.014549225 -0.07684275
000030 5c ad 0d bd 7b 69 5b 3d 32 45 3a bd b3 bc c3 bd
       -0.034589157 0.05356739 -0.045476146 -0.09557476
000040 b6 f2 b0 bd 65 56 88 bb 93 96 a0 3d 90 42 33 bd
       -0.086400434 -0.0041606897 0.0784122 -0.04376465
000050 75 8c 2d bd e7 fb 04 bd e8 2b 8f 3d 65 33 05 be
       -0.04237028 -0.032466795 0.06990796 -0.13007887
000060 cc 8e d6 3c bb b8 c6 bd 01 d7 0d 3d c1 62 d8 3a
       0.026191138 -0.09703203 0.03462887 0.0016508923
000070 c0 5c 70 3d 22 f3 75 3d b1 29 e1 bc e0 c5 68 3b
       0.058682203 0.060046323 -0.0274857 0.0035518333
000080 2c 34 f9 3d 28 24 f2 bd f6 27 84 ba c2 d3 e9 3b
       0.12168154 -0.118233025 -0.001008271 0.007135839
000090 d5 51 b0 3d 68 4d a6 bd 0a 1c 7f 3c db ef b0 bd
       0.08609358 -0.08120233 0.01557065 -0.08639499
0000a0 16 b0 1c 3c 91 c4 86 bc 27 b2 89 3d a3 8a ac bd
       0.0095634665 -0.016451152 0.06723433 -0.0842488
0000b0 cf fe 4f 3d 54 e2 b7 bd 3b bf ff 3b d4 85 19 be
       0.050780114 -0.089787155 0.007804779 -0.14992458
0000c0 7c 1b 88 3d c7 0f 79 bd 5e 95 22 3d 8f 1c 62 bd
       0.06645867 -0.060806062 0.03969323 -0.055203017
0000d0 dc 83 c5 3d af 42 62 bd 75 92 8b 3c 74 9e 34 3d
       0.09644291 -0.055239376 0.01703761 0.044096425
0000e0 87 0d 23 3c 89 cb 92 bd f0 b4 83 3d 90 40 36 bc
       0.009951956 -0.071677275 0.064309955 -0.011123791
0000f0 6c d3 94 3d 06 a8 39 3b c0 ed 81 3d b0 df a3 bd
       0.07266888 0.002832891 0.06344175 -0.080016494

transformer.layers.1.self_attn.in_proj_bias f4 [192]
000000 9d 18 e4 bc 28 f2 f5 bd 3e cf 73 3e ac da 43 3d
       -0.027843768 -0.12009078 0.23809525 0.047815964
000010 d4 e6 35 bc 06 bc 9e 3e e5 25 e9 bd a0 38 85 3e
       -0.011102397 0.31002825 -0.11384181 0.26019764
000020 7b eb 3f 3e 3a 97 5c 3d 58 8a d4 bd 33 ed 3b be
       0.18742172 0.05385516 -0.103779495 -0.18352203
000030 39 9d 4b 3e 6b c0 1b 3e 87 c9 94 bd b9 b8 57 be
       0.19884194 0.1521012 -0.07265001 -0.2106656
000040 7f 48 61 3e 8b b7 29 3e b9 10 13 be d1 c5 02 be
       0.22000311 0.16573922 -0.14361848 -0.12770773
000050 e2 c4 e8 bd 8b 28 e9 3d 8f 10 5d 3e ab 6b df bd
       -0.113656774 0.11384686 0.21588348 -0.10909208
000060 98 22 11 be e9 87 49 3e ff b7 90 bd b3 86 9a bd
       -0.14173353 0.19680752 -0.070663445 -0.07545223
000070 8f 0b 77 3e af 9e d7 bd 41 63 ae 3d cc 99 09 bd
       0.24125503 -0.10528313 0.08515025 -0.033593938
000080 04 91 b4 bd d3 66 d3 bd e2 32 e8 bc 9d 8e e0 bd
       -0.08816722 -0.103223465 -0.028344575 -0.10964701
000090 55 6d b3 3c 95 07 81 bc 54 9e af 3c c4 11 74 3d
       0.02190272 -0.015750686 0.021437801 0.059587255
0000a0 e0 ea d9 bd 50 fd 2b 3e 27 70 5c 3d 44 83 bc bd
       -0.10640502 0.1679585 0.053817894 -0.092047244
0000b0 08 97 6a 3d 0a 98 21 3e a3 b0 32 bd 97 f1 92 bd
       0.05727294 0.15780655 -0.043625485 -0.07174986
0000c0 de 76 3e bd 25 7f 9c bd 35 e0 c0 3d 45 63 0e 3e
       -0.04650008 -0.076414384 0.09417764 0.13905056
0000d0 38 31 fa bb 48 80 eb bd d3 e5 16 bd c0 d2 1f 3e
       -0.007635262 -0.11499077 -0.03684027 0.15607738
0000e0 22 26 64 be 24 c0 e0 3d 95 64 e5 bd dc e7 a2 3b
       -0.22280172 0.10974148 -0.11200825 0.0049714874
0000f0 18 9e 93 bb 20 b3 1e 3e 3e 8e 18 be 7e 48 e4 bd
       -0.00450493 0.15498018 -0.14898011 -0.11146639
000100 31 b6 25 3b ea b9 c0 ba c7 96 9d 3b 06 f4 46 3b
       0.0025285596 -0.0014703844 0.004809234 0.0030357852
000110 4e e7 45 3b bd eb b1 3b 76 d1 ca 3b 4b f5 c5 3b
       0.0030197683 0.0054297135 0.0061895205 0.006041204
000120 f9 cf ed ba f6 ed 2f bc 60 3a 93 3b ff d6 4e bc
       -0.0018143646 -0.010737887 0.004493043 -0.012624501
000130 86 50 69 3b 1b 37 a2 bb 1a a9 89 3b 61 41 0a bc
       0.0035600974 -0.0049504167 0.0042010667 -0.008438439
000140 82 48 b4 3c db d3 18 3c c8 84 9d 3b b0 84 17 bb
       0.02200723 0.009327854 0.0048070885 -0.002311986
000150 14 4e 05 bb 26 9d f4 3b 13 32 74 bb aa 9e f9 3a
       -0.0020340728 0.0074650226 -0.0037261292 0.0019044478
000160 f9 54 8e 3b f1 2d 72 bc b0 c7 12 3c 63 3f d9 ba
       0.0043436256 -0.014781461 0.008958742 -0.0016574677
000170 c9 5e cf bb 91 73 65 bb 5e e6 93 bb 8f 8f a9 3b
       -0.006328438 -0.003501151 -0.004513546 0.005174584
000180 55 00 df 39 d7 df 71 bb b9 11 80 3a 17 b2 b2 3b
       0.00042534122 -0.00369071 0.0009770907 0.005453359
000190 eb ab 50 bb ea 05 46 bb 2d ef 10 bb 00 20 4a bb
       -0.0031840752 -0.0030215927 -0.0022115216 -0.0030841827
0001a0 71 aa d8 bb 78 0d a1 bb 04 e5 53 3b 3f 96 e2 ba
       -0.006612115 -0.0049149357 0.003233255 -0.0017287208
0001b0 2e e9 90 3a d9 f6 ab 3b 66 fe 17 ba b3 7a 9e 3a
       0.0011055821 0.0052479324 -0.0005798101 0.001209101
0001c0 a2 55 a7 bb c4 1f 7f ba 21 1e 0a bc 0d af d0 bb
       -0.005106644 -0.00097322115 -0.008430035 -0.006368524
0001d0 e7 be 46 3c 7b 05 a9 bc 06 a2 12 3c 41 d8 4d bb
       0.012130476 -0.020632496 0.008949762 -0.0031409415
0001e0 f6 8f a8 bc 69 e4 21 3c 56 bf 5a bc ab ec 3e 3a
       -0.020576458 0.009881117 -0.013351282 0.0007283191
0001f0 21 d4 e5 3b 6e 56 cf bb f2 eb 76 bc 38 54 e3 bb
       0.007013813 -0.006327442 -0.015070902 -0.00693753
000200 ce 09 f9 bb 2c 7d fe 3a 59 f4 72 3c d0 bb 96 3c
       -0.0076000458 0.0019415966 0.014828765 0.018400103
000210 2c a3 87 3c b7 ad 27 bd 15 72 9f bc 6b e8 36 3c
       0.016557299 -0.04093715 -0.019463578 0.011163811
000220 46 08 f5 3c db 34 35 bd f9 50 22 bd 1f a8 61 bc
       0.029911172 -0.04423986 -0.039628003 -0.013772993
000230 a9 d5 99 3c 83 78 8a bb 90 1f a3 3c 77 1d 8c 3b
       0.018778639 -0.004225792 0.019912511 0.0042759734
000240 82 72 6a 3d ec b1 b2 bb 7e 05 0e bb 2b 95 69 ba
       0.05723811 -0.005453339 -0.0021670754 -0.00089104724
000250 ab 46 1c bd cf 3d ac 3c 69 e4 08 bd d4 95 02 bc
       -0.03815333 0.021025566 -0.033420954 -0.007970292
000260 a5 e0 f8 3b ed f3 e6 bc 94 5a be 3c 3d 5d d7 bc
       0.007595139 -0.028192485 0.02323655 -0.026289577
000270 59 1e 81 bc 2f 57 59 3c 68 3b 84 3d 38 0b 47 3d
       -0.015761541 0.013265415 0.06456643 0.048594683
000280 a2 2e 42 bc 7a d4 17 bc 9f 1b c8 3c 87 80 01 bb
       -0.011851938 -0.009266967 0.024427233 -0.0019760446
000290 47 96 bd bc cf 8c c6 3c be 8c 37 3c 4b 60 1c bc
       -0.023142947 0.024237065 0.011202989 -0.009544442
0002a0 46 4f 07 3d 24 1d 41 ba 88 4c a9 3c 5f 5c f5 bb
       0.033034585 -0.0007366708 0.020666376 -0.007487818
0002b0 a7 ce 10 3d d7 ad 13 bd c8 e4 a6 3c 6b 9a 57 ba
       0.03535333 -0.03605446 0.020372763 -0.0008224609
0002c0 8b 66 10 bc 0a 4b 19 3d e8 61 18 bd a6 43 30 bd
       -0.008813511 0.03742508 -0.037202746 -0.043033265
0002d0 9e 36 ca 3c 1b 55 f2 3c 24 eb ad 3c a4 ee 26 bc
       0.024684247 0.029581597 0.021230288 -0.010188732
0002e0 be 1a b2 3c 18 1e 24 3d 7a 4c f3 bc b7 97 a2 bb
       0.021741267 0.040067762 -0.029699553 -0.0049619335
0002f0 74 70 02 bd a0 1a 6f 3c a1 36 b8 bc 7c 43 bd 3c
       -0.031845525 0.01459375 -0.022486987 0.023103468

transformer.layers.1.self_attn.out_proj.weight f4 [64, 64]
000000 91 2c b9 bd 58 86 c2 bd a0 3a 8c 3d aa c3 3a 3d
       -0.090417035 -0.0949828 0.06847119 0.045596756
000010 6a 60 85 3d 43 d4 89 bc a2 01 85 3d e8 5f a1 bd
       0.0651253 -0.016824847 0.06494452 -0.07879621
000020 1b 22 05 be 24 14 fa bb 89 bd 46 3d 43 42 50 bd
       -0.13001291 -0.0076317955 0.0485206 -0.050844442
000030 c1 8a ae 3c ae 04 f0 bc 7f a0 4b 3a c3 3d b2 bd
       0.021306397 -0.029299106 0.0007767751 -0.08703186
000040 05 36 d4 3d b5 cd e8 3c 4b ee 17 bc a4 f7 4c 3d
       0.10361866 0.028418401 -0.009273122 0.050040856
000050 29 ff eb bc 86 e3 24 3d 7e ec 5e 3c 91 33 47 bd
       -0.028808193 0.040256046 0.013606189 -0.048633162
000060 37 96 54 3d 9a c6 5f 3d ea c8 32 3d e8 f1 8c bc
       0.05190107 0.05463276 0.043648638 -0.017205194
000070 ab 8c 58 bd e1 f8 c6 3d 50 48 82 3d b4 75 8a bb
       -0.052868526 0.09715439 0.06361449 -0.004225457
000080 ff 90 4d be 37 95 2d 3d d4 4f 9c bc cb 88 17 bd
       -0.20074843 0.04237863 -0.019081034 -0.03699569
000090 f3 f4 94 3c 83 1f be bc d2 02 44 bd ff 97 45 bb
       0.018183207 -0.023208385 -0.047854252 -0.0030150411
0000a0 f9 e2 bd bd 6a 4a 3f 3d f0 a9 c9 bd 82 51 93 bc
       -0.09271807 0.046701826 -0.09846866 -0.017983202
0000b0 38 7f 92 bd aa 49 13 3d 99 3a e0 3d d9 bd 0e 3d
       -0.07153171 0.035958923 0.109486766 0.03484902
0000c0 eb fe 11 bd 81 78 a8 bc 6d 0b 1a bd 69 77 e7 bd
       -0.0356435 -0.020565273 -0.037608553 -0.113020726
0000d0 81 2a c1 3d 92 88 d2 bd 20 bb 3e bd 61 38 ed 3d
       0.09431935 -0.10279955 -0.046565175 0.11583019
0000e0 b7 7a 59 3d 37 6e a6 3c 74 92 8f 3d 92 f4 18 3d
       0.053095546 0.020316226 0.070103556 0.037342615
0000f0 00 8f 15 bc 4e f1 55 bd 4e 04 ae 3c b7 99 bb bb
       -0.009128332 -0.05223208 0.021242287 -0.0057251113
000100 cb e3 0a bd 3b 46 a3 3d 90 c3 29 3e e3 87 e9 3b
       -0.033908647 0.0797238 0.16578507 0.0071267947
000110 23 72 9a 3d b3 6e 37 3b 61 2e 27 bd 62 25 9c bd
       0.07541301 0.0027989566 -0.040815715 -0.07624318
000120 cf 31 8c 3d 77 7c 8f 3c 18 5f d5 3d 2a e0 0c 3d
       0.06845438 0.017515404 0.10418528 0.034393467
000130 3b d4 67 bc f2 d1 3c be 1e a9 8b 3d d7 9b e1 bd
       -0.014149721 -0.18439463 0.06819366 -0.11016052
000140 45 59 d6 3c ab a2 72 3c 2c 2e 89 bd 7c b6 70 3d
       0.026165614 0.014809291 -0.0669826 0.05876778
000150 d2 5e b5 3b a8 30 3a 3c 31 f7 f0 bc 62 35 08 bd
       0.005534985 0.01136414 -0.029414745 -0.033254035
000160 46 14 81 3d 25 b3 55 3d cd 59 d2 3b 5b 1c a8 bd
       0.06302695 0.0521728 0.0064193965 -0.082085334
000170 49 06 29 3d a9 37 dd bd 00 c5 31 bc e6 30 5f bd
       0.04126576 -0.10801632 -0.010850191 -0.054489993
000180 13 22 96 bc 91 d1 34 bc d3 39 b4 bd b7 6c 6e bd
       -0.018326795 -0.011036293 -0.088000916 -0.058209147
000190 e5 4c 74 bd 71 16 14 3e 94 da 0d 3d 4b 27 77 bb
       -0.059643645 0.14461686 0.03463228 -0.003771263
0001a0 5b 95 0a be 71 57 88 3d 7a 39 05 3d 98 07 88 bd
       -0.13533537 0.06657303 0.032525517 -0.066420734
0001b0 05 9f 98 bd 33 15 e4 3d 5b 6e 1d bd 06 d7 af 3d
       -0.074522056 0.11136856 -0.03843532 0.08585934
0001c0 d7 aa 85 3c 5c b6 71 3d 78 c7 9d 3d 6d c3 99 bd
       0.016316814 0.059011802 0.07704061 -0.07507978
0001d0 56 51 f6 3c 7d ff cf 3c 76 14 c4 bd 41 6b 18 3d
       0.03006808 0.025390381 -0.09574215 0.03721166
0001e0 45 33 b7 bd af 98 c7 bd e1 ac e8 bd e1 18 31 bd
       -0.08945326 -0.09745919 -0.11361099 -0.043236617
0001f0 31 10 47 be 80 00 8c 3d c1 f1 83 bd cc fb 59 bd
       -0.1943977 0.06836033 -0.06442595 -0.053218648
000200 77 ab e3 3d bc ca 9e 3c b9 57 2b 3e 6e ce 33 3e
       0.11116689 0.01938378 0.16732682 0.17559215
000210 66 96 8d bd 47 bc 05 3d 99 0d d5 bd 94 8b ac 3d
       -0.06913452 0.03265026 -0.10402984 0.0842506
000220 42 5d ca 3d 24 bb 52 be ad 6f 5f bd 8a 00 e7 3d
       0.09881069 -0.20579201 -0.05454986 0.112794
000230 f2 9a 06 bd ca f9 27 3d e1 a9 0d 3d 2f 22 c4 bd
       -0.03286261 0.0410097 0.034585837 -0.095768325
000240 e7 12 52 3c 91 9f b0 3d ee 6e 56 3b 2d ff d1 3c
       0.0128218895 0.08624185 0.0032719928 0.025634373
000250 23 ec 82 bc b5 a9 bf bd fd e9 09 3e 15 63 cd bd
       -0.01598174 -0.09358541 0.13468166 -0.10028664
000260 a1 19 a3 3d 06 aa 21 bd cd 85 dd bc 28 96 76 3c
       0.07963873 -0.039468788 -0.02704134 0.0150504485
000270 94 25 d5 bd e1 99 0a be dc dc 84 bd dd f5 01 be
       -0.10407558 -0.13535263 -0.06487438 -0.12691446
000280 5d c8 f9 bd e6 1c 95 bc ac 3c 27 bd d3 4e 7e 3d
       -0.121964194 -0.018202256 -0.040829346 0.06208689
000290 f7 fd 08 be 08 6a cf 3d 32 c1 98 3d bb 9c 01 bd
       -0.1337813 0.10127646 0.07458724 -0.03164361
0002a0 02 03 8c bc b7 a8 88 3d 0b 0f 10 bb 44 59 b0 bd
       -0.017091278 0.06672805 -0.0021981623 -0.08610776
0002b0 93 d6 03 bd a6 82 52 3b 36 cc 1d be b0 92 ba bd
       -0.032187056 0.003212133 -0.15409932 -0.0911001
0002c0 89 9e 14 3c ef b4 21 3e f9 05 08 3e 5a be 9c 3d
       0.009071001 0.15791677 0.13283528 0.07653494
0002d0 31 68 a2 3d df 4d 51 3d 5f 9b 48 bd f9 bd 59 bd
       0.07930029 0.051099654 -0.0489763 -0.053159688
0002e0 b5 79 bf bd 7e 9d 76 bc 84 46 6e 3b 9a 7a d2 bc
       -0.09349386 -0.0150521975 0.0036357949 -0.025693227
0002f0 ee 3e 39 bd 8a 19 76 3d eb e5 22 bc a1 be 17 3e
       -0.04522603 0.06008295 -0.009942512 0.14818813
000300 9f cd f4 bd d9 f6 be bd a3 ba 4f bd 7d 2f 9c be
       -0.119532816 -0.09324426 -0.0507151 -0.3050498
000310 29 bd 1a 3e dd f7 a9 3e 1b bb 40 bd 7f d7 f0 bd
       0.15111221 0.33196917 -0.047053438 -0.117598526
000320 9d a2 41 bd 65 88 80 3e 47 6a bd 3d 2a 2e 57 be
       -0.04727422 0.2510406 0.092487864 -0.21013704
000330 0d 5f 30 3d 24 40 ab 3d ff c3 22 bd 9f 11 5c 3d
       0.043059397 0.08361843 -0.039737698 0.053727742
000340 c4 37 60 be f5 98 33 be c3 d7 0d 3c 3c 4e 48 bd
       -0.21896273 -0.17538817 0.008657399 -0.048902735
000350 15 0f a3 3d 09 f8 d4 bc 8a 03 92 3d fe ac 94 3d
       0.07961861 -0.025997179 0.07129581 0.07259558
000360 85 c9 6a 3d ad 2e 8e 3d d4 04 0a be ba 3d 3c bc
       0.05732109 0.069424964 -0.13478404 -0.011489326
000370 f5 ce 2a 3d 2d d5 cd 3d 42 26 e0 3d 72 f5 b3 bc
       0.041701276 0.10050426 0.10944797 -0.021967623
000380 9c 07 4f 3e 8f 43 49 bd 7f 87 60 bd 7a 2b 26 3d
       0.20217746 -0.049136695 -0.05481672 0.040568806
000390 9b 8a 0a be 5a 2e af 3d 48 42 b4 3d dd 4d cc 3d
       -0.13529436 0.08553763 0.08801705 0.09975789
0003a0 3e eb df 3d a9 93 00 3e 72 4f 69 3d 08 e2 cb 3c
       0.10933541 0.12556328 0.05696053 0.024888054
0003b0 a5 95 ec 3d 56 56 0e bd 15 6e 92 3d 41 86 80 3d
       0.1155198 -0.034750305 0.07149903 0.06275607
0003c0 76 80 49 bd 6d d7 73 be 20 0c 03 3d 3d 39 8b bd
       -0.049194776 -0.23812647 0.031993985 -0.06798027
0003d0 e1 8c 14 3e 51 a8 48 bd e5 df a8 3b e4 8c bb bb
       0.14506866 -0.048988644 0.0051536434 -0.0057235826
0003e0 c4 6d b0 bc 9a 34 a9 3d 4d 21 25 3d cf 37 15 3e
       -0.021536715 0.08261986 0.04031496 0.1457207
0003f0 b1 f8 bd bd cb 41 56 3d 2d 16 86 3c 32 9a 72 3e
       -0.0927595 0.05230884 0.016367996 0.23691633

transformer.layers.1.self_attn.out_proj.bias f4 [64]
000000 43 8b 00 be 64 1f d3 3a 34 99 94 bc c9 f0 19 bc
       -0.12553124 0.0016107378 -0.01813946 -0.009395787
000010 63 4d 46 bd bb d4 3f bd f5 5a 1e 3d 63 b2 da bd
       -0.048413645 -0.046833735 0.038660962 -0.10678556
000020 47 ca b1 3c 3a 01 fc 3b 45 aa 84 bc 93 86 96 bd
       0.021702899 0.007690576 -0.016194472 -0.07349887
000030 d9 0a ad bc 37 d5 c7 3c 53 ca 31 3c 87 d6 9a bb
       -0.021123337 0.024393661 0.0108514605 -0.0047252807
000040 ed 26 90 3d 54 b1 9a bd f5 0e 01 3d f0 c2 49 bd
       0.070386745 -0.07553354 0.031508405 -0.049258173
000050 88 a0 95 bb 30 a2 bd 3d bf 05 57 3b a5 de 17 3d
       -0.004566256 0.092594504 0.0032809821 0.037077565
000060 52 fc 79 3d 68 f0 04 3d 27 12 1f bd 7e cc 88 3c
       0.061031647 0.03245583 -0.03883567 0.016699072
000070 ea 0a 89 bd 9f 64 8d bd fd 3c 33 bd 01 27 99 bd
       -0.06691535 -0.069039576 -0.043759335 -0.074781425
000080 32 81 fe ba 1e 73 16 3d 76 48 54 3d 54 ef 9a 3c
       -0.0019417165 0.036730878 0.051826917 0.018912949
000090 bb ee 7e 3d c3 26 52 be 74 e4 4b bd e2 2d 09 3d
       0.06223939 -0.20522599 -0.049778417 0.033491023
0000a0 05 4a 30 3b 37 d5 ab 3d 32 7f 70 bb 52 cb 0f 3d
       0.0026899588 0.08390277 -0.0036696908 0.03510601
0000b0 9e 3d ae 3c 30 4b f2 ba 09 08 8c bc 88 e3 d8 3d
       0.021269616 -0.0018485542 -0.017093675 0.10590273
0000c0 64 58 f1 bb 24 3c 74 3d 8e 8c 0c bd 8e 8e 48 bd
       -0.0073652733 0.059627667 -0.03431373 -0.048964076
0000d0 5d cf fe bc 49 ff db 3d 40 d2 3c 3d 09 08 8d 3d
       -0.031104738 0.10742051 0.046098948 0.06886298
0000e0 8d 79 4d 3c 87 48 be bc c1 80 b4 3c ff 35 cc 3d
       0.012541187 -0.023227943 0.02203405 0.099712364
0000f0 e7 40 47 bc 0c ca c7 3d 2a fd 9d bd ee 16 89 bd
       -0.01216147 0.09755334 -0.07714303 -0.066938266
