js/models/fingering_transformer_right.onnx (onnx, 501130 bytes, 41 tensors)

input_proj.bias f4 [64]
00000000: e231 cb3d b09f 353e 2c8e 1e3c 039b 433e
00000010: 454c 153e c707 5c3e 7d3e fbbd 5bec b8bd
00000020: 6a0e f33d 43fa 15bd 9778 5b3e 1546 84be
00000030: f511 93be 9b0a c9be 8c6d 9b3c 0780 5abe
00000040: 1f4b 4abe 45c1 b9be 8592 39bd 7eae e9be
00000050: 79d9 973d 2788 b6be f6f1 ea3d 46ac 61be
00000060: bc81 d23d 010f 69be 944e cabd c62a c4bd
00000070: e3ab 1cbe 69d3 3abe 9a97 4bbd c90b 07be
00000080: 56aa 543e 722d 5cbd 18e2 6c3e 4c7b 7dbe
00000090: 1223 ecbb 642c 88be c8b9 9c3d 3ec2 83be
000000a0: 4e88 0f3e 919d 2b3c 0c64 debc 12c7 323d
000000b0: fa19 fe3d 4bb4 6fbe d7f5 39be f670 98be
000000c0: 5f5b 7d3e 4e72 d2be f4e0 a93d 1797 dcbe
000000d0: ba8c 3f3e 8e68 67be d2da b63d 8c79 2dbe
000000e0: 84c8 edbd 680f 59be 590c 943e 688f bbbe
000000f0: a779 ee3c bfab 73be 3f76 adbd 7336 96be
0.09921624 0.17736697 0.009677451 0.19102101 0.14579876 0.21487342 -0.12267778 -0.09029456
0.11867984 -0.03661562 0.2143272 -0.25834718 -0.28724638 -0.39265904 0.018973134 -0.21337901
-0.19755219 -0.36280265 -0.045305748 -0.4564094 0.074145265 -0.3565075 0.11471932 -0.22038373
0.10278651 -0.2275963 -0.09878269 -0.09578471 -0.15299945 -0.18244709 -0.049705125 -0.1318809
0.20768103 -0.053754278 0.23133123 -0.24754065 -0.007206329 -0.26596367 0.076526225 -0.25734133
0.1401684 0.0104745785 -0.027147315 0.04364688 0.124072984 -0.2340862 -0.18160187 -0.29773682
0.24741887 -0.41102833 0.082948595 -0.43084022 0.18706027 -0.22598478 0.089284554 -0.16940898
-0.11610511 -0.21197283 0.2891567 -0.36632848 0.029110743 -0.23795985 -0.08469819 -0.29338416

pos_encoder.pe f4 [1, 50, 64]
00000000: 0000 0000 0000 803f 0000 0000 0000 803f
00000010: 0000 0000 0000 803f 0000 0000 0000 803f
00000020: 0000 0000 0000 803f 0000 0000 0000 803f
00000030: 0000 0000 0000 803f 0000 0000 0000 803f
00000040: 0000 0000 0000 803f 0000 0000 0000 803f
00000050: 0000 0000 0000 803f 0000 0000 0000 803f
00000060: 0000 0000 0000 803f 0000 0000 0000 803f
00000070: 0000 0000 0000 803f 0000 0000 0000 803f
00000080: 0000 0000 0000 803f 0000 0000 0000 803f
00000090: 0000 0000 0000 803f 0000 0000 0000 803f
000000a0: 0000 0000 0000 803f 0000 0000 0000 803f
000000b0: 0000 0000 0000 803f 0000 0000 0000 803f
000000c0: 0000 0000 0000 803f 0000 0000 0000 803f
000000d0: 0000 0000 0000 803f 0000 0000 0000 803f
000000e0: 0000 0000 0000 803f 0000 0000 0000 803f
000000f0: 0000 0000 0000 803f 0000 0000 0000 803f
00000100: a46a 573f 4151 0a3f ce7a 2e3f b054 3b3f
00000110: ba7d 083f 0e94 583f f090 d13e c792 693f
00000120: 3e39 9f3e 6b4e 733f 258f 703e f1d5 783f
00000130: 3a23 353e 83f6 7b3f f325 083e 28ba 7d3f
00000140: 7675 cc3d 98b8 7e3f 366f 993d d147 7f3f
00000150: ae36 663d 6898 7f3f fbac 2c3d bdc5 7f3f
00000160: 5b81 013d 3cdf 7f3f a53e c23c 93ed 7f3f
00000170: 43ab 913c a3f5 7f3f 497a 5a3c 2cfa 7f3f
00000180: 57d6 233c b9fc 7f3f 16b9 f53b 28fe 7f3f
00000190: 5a44 b83b f7fe 7f3f 5a2e 8a3b 6bff 7f3f
000001a0: 1c3e 4f3b acff 7f3f 0469 1b3b d1ff 7f3f
000001b0: 2015 e93a e6ff 7f3f 8bc9 ae3a f1ff 7f3f
000001c0: 6d12 833a f8ff 7f3f 8994 443a fbff 7f3f
000001d0: 136a 133a feff 7f3f 2217 dd39 ffff 7f3f
000001e0: 60cb a539 ffff 7f3f 0da8 7839 0000 803f
000001f0: 5377 3a39 0000 803f 6dd4 0b39 0000 803f
00000200: b7c7 683f 3311 d5be d95a 7f3f 534d 913d
00000210: 0af2 663f b2e8 dc3e 1135 3f3f 0339 2a3f
00000220: 1b54 173f ec7b 4e3f b5d3 e93e 69be 633f
00000230: f647 b23e a6fa 6f3f 82f0 863e f5f2 763f
00000240: f86f 4b3e a5e5 7a3f d300 193e 4f20 7d3f
00000250: 86d9 e53d f361 7e3f af85 ac3d 0e17 7f3f
00000260: c870 813d f97c 7f3f aa30 423d 4fb6 7f3f
00000270: 5da5 113d 8ed6 7f3f 5075 da3c b1e8 7f3f
00000280: 3ed4 a33c e5f2 7f3f 51b7 753c a1f8 7f3f
00000290: 9b43 383c dbfb 7f3f 0a2e 0a3c abfd 7f3f
000002a0: d83d cf3b b1fe 7f3f e868 9b3b 43ff 7f3f
000002b0: 0815 693b 96ff 7f3f 80c9 2e3b c4ff 7f3f
000002c0: 6812 033b dfff 7f3f 8594 c43a edff 7f3f
000002d0: 126a 933a f5ff 7f3f 2017 5d3a faff 7f3f
000002e0: 5fcb 253a fdff 7f3f 0ca8 f839 feff 7f3f
000002f0: 5377 ba39 ffff 7f3f 6dd4 8b39 0000 803f
00000300: c381 103e 2670 7dbf de3c 473f cebf 20bf
00000310: d745 7e3f ab7f edbd 6421 743f 6318 9a3e
00000320: c209 503f 582f 153f b724 273f a2e7 413f
00000330: 6c2f 023f 296d 5c3f a768 c73e 37c9 6b3f
00000340: 6c4e 973e ef90 743f e26d 643e 928c 793f
00000350: d7ee 2b3e 9e5d 7c3f 2c33 013e 43f4 7d3f
00000360: c0ff c13d 4fd9 7e3f 0693 913d 3a5a 7f3f
00000370: 4f69 5a3d c3a2 7f3f c5d1 233d 90cb 7f3f
00000380: 1fb9 f53c 83e2 7f3f 4747 b83c 6bef 7f3f
00000390: c631 8a3c adf6 7f3f 4644 4f3c c2fa 7f3f
000003a0: 0d6e 1b3c 0dfd 7f3f 141d e93b 58fe 7f3f
000003b0: a8cf ae3b 11ff 7f3f 1317 833b 7aff 7f3f
000003c0: 929b 443b b5ff 7f3f 606f 133b d6ff 7f3f
000003d0: 171f dd3a e8ff 7f3f 57d1 a53a f3ff 7f3f
000003e0: 0eb1 783a f9ff 7f3f 097e 3a3a fcff 7f3f
000003f0: 7ed9 0b3a feff 7f3f a4be d139 ffff 7f3f
0.0 1.0 0.0 1.0 0.0 1.0 0.0 1.0
0.0 1.0 0.0 1.0 0.0 1.0 0.0 1.0
0.0 1.0 0.0 1.0 0.0 1.0 0.0 1.0
0.0 1.0 0.0 1.0 0.0 1.0 0.0 1.0
0.0 1.0 0.0 1.0 0.0 1.0 0.0 1.0
0.0 1.0 0.0 1.0 0.0 1.0 0.0 1.0
0.0 1.0 0.0 1.0 0.0 1.0 0.0 1.0
0.0 1.0 0.0 1.0 0.0 1.0 0.0 1.0
0.84147096 0.54030234 0.68156135 0.731761 0.53316844 0.84600914 0.4093089 0.9123959
0.3109836 0.9504153 0.23492105 0.9720145 0.17689219 0.9842302 0.13295726 0.99112177
0.099833414 0.9950042 0.07491915 0.9971896 0.05620449 0.9984193 0.042157155 0.999111
0.031617504 0.99950004 0.023711512 0.99971884 0.01778186 0.99984187 0.013334819 0.99991107
0.009999833 0.99995 0.0074988706 0.99997187 0.0056233825 0.9999842 0.0042169513 0.9999911
0.0031622713 0.999995 0.0023713717 0.9999972 0.0017782785 0.99999845 0.0013335211 0.9999991
0.0009999998 0.9999995 0.000749894 0.9999997 0.0005623411 0.9999999 0.0004216964 0.99999994
0.0003162278 0.99999994 0.00023713727 1.0 0.00017782794 1.0 0.00013335208 1.0
0.9092974 -0.41614684 0.99748 0.070948265 0.9021307 0.43146282 0.7469035 0.6649324
0.5911271 0.8065784 0.45669332 0.8896242 0.34820527 0.93741834 0.26355368 0.96464473
0.19866931 0.9800666 0.1494172 0.98877424 0.1122313 0.9936821 0.084239356 0.99644554
0.063203394 0.9980007 0.04740969 0.99887556 0.035558093 0.9993676 0.026667267 0.99964434
0.019998666 0.9998 0.014997319 0.9998875 0.011246587 0.99993676 0.008433828 0.9999644
0.006324511 0.99998003 0.0047427304 0.99998873 0.0035565514 0.9999937 0.0026670396 0.9999964
0.0019999985 0.99999803 0.0014997876 0.99999887 0.0011246821 0.99999934 0.0008433927 0.99999964
0.0006324555 0.9999998 0.0004742745 0.9999999 0.00035565588 0.99999994 0.00026670416 1.0
0.14112 -0.9899925 0.7782725 -0.6279267 0.9932532 -0.11596616 0.9536345 0.3009673
0.8126489 0.58275366 0.652904 0.7574407 0.5085361 0.86104065 0.3894703 0.92103904
0.2955202 0.9553365 0.22307542 0.9748012 0.16790329 0.9858035 0.12617177 0.9920084
0.094726086 0.99550337 0.071081206 0.9974705 0.053323086 0.9985773 0.039994974 0.99919987
0.0299955 0.99955004 0.022494925 0.999747 0.016869437 0.9998577 0.012650555 0.99992
0.009486687 0.999955 0.007114062 0.9999747 0.005334813 0.99998575 0.0040005534 0.999992
0.0029999954 0.9999955 0.0022496805 0.9999975 0.0016870227 0.99999857 0.0012650889 0.9999992
0.00094868324 0.9999996 0.00071141176 0.99999976 0.0005334838 0.9999999 0.00040005625 0.99999994

transformer.layers.0.self_attn.in_proj_bias f4 [192]
00000000: d4ac 943b 562d debd 12c5 273d b383 633c
00000010: bc60 5abd 83c1 d93d 2249 3c3c 80f5 03be
00000020: a08a 41bc 3f48 503d f443 aa3d 366e b2bd
00000030: a6f5 743d 2a4b 1dbe caad 8e3d 7e2a ad3d
00000040: 9c5b 3bbe 8b6a d63c c79c 4a3e a75b 3dbd
00000050: 0147 12be 8996 6cbe 55f7 09be 619c d8bd
00000060: baa7 abbe b822 24be c2d2 26be f1dd a23d
00000070: 3b54 ddbe ae62 35be 811e 00be 15e5 fb3d
00000080: fe5b 103d 99b1 73bd 2b8e 833d 33ed abbd
00000090: 8c21 213d 1bc7 d13d 5c97 7a3d f55e fcbc
000000a0: ae5d b9bd 525a fc3c 5183 b13c 7cfe f13d
000000b0: 06f5 3a3d 9127 90bc 9e0e 93bd 9b00 bebd
000000c0: 1972 e0bb e683 e8bc 1ff9 0abc e478 c73d
000000d0: ebb9 2fbd 0852 b0bd 8645 8cb9 a254 313c
000000e0: cc78 b73c 0ac9 36bd bac0 9ebd bb86 463d
000000f0: 0652 bdbc b641 cbbc c69b 133c 73c3 9a3c
00000100: 5c17 d33a d5b4 aebb ac7b 6dbb 6b5a 8f3b
00000110: dcf3 cdba 12eb 253c e621 d8b9 1326 94bb
00000120: 0839 533b efc5 44ba b5cf 5f3b 5d93 26bc
00000130: 5827 1e3b 194b dbbb 1e1d 9c3a a8d1 733c
00000140: 90d3 97bc c6ee 75bb 4920 b93c 0da8 f0bb
00000150: a8f4 8fbc b7e5 d0bc 556f 2cbc 4f1f 72bc
00000160: 52b3 17bd 14f8 c4bc 1aaf bcbc fe5a c63b
00000170: 7d06 aebc b801 43bc 5080 8cbc e418 393c
00000180: 591a 81b9 8718 0dbb f4ec b439 0136 b03a
00000190: 7661 6f39 acca 4a3b 1467 30bb ebbc 00ba
000001a0: c418 d83a daa3 b639 6096 c53a 15bd 8fbb
000001b0: 7acb 8b38 de36 8b38 d61f 413a a3d1 15bb
000001c0: e00a f53a 380e a63b fe2c 1fba 0e7f 16bc
000001d0: 9f2a e03a fadc 463b 26c5 47ba fdb4 8f37
000001e0: edaf 43b9 17f6 5738 eb61 f5ba b9ed f0ba
000001f0: 63dc 963a 2789 263a 7beb 1039 e83a 463b
00000200: 633f ab3c 3542 49bc 97c3 c43b 046e c0bc
00000210: 1350 c8bb 19ce 36bc dcd1 833c 76e8 faba
00000220: 2593 35bc 6a1f 0a3c 6920 82bb ce82 a8bc
00000230: 0cca 593b 90d6 e4ba 2450 a8bb 0760 9cbb
00000240: 7f00 8fbc c800 61bb 3320 283c 91b3 123c
00000250: c774 9b3c 7d0f 173c c2a2 1fbc 353d 10bc
00000260: b93a 813b c20f 623b 9e40 803c 8a63 82bc
00000270: b5cf 44ba e8f6 0abb c313 3e3c 62f8 65bc
00000280: 6656 ef3b 50f3 afbb 9829 86bc 491c 71bc
00000290: 7455 e53a 0123 5bbc ceb9 a73b adfe 4dbb
000002a0: b8ff 253b 37f0 6f3c 2556 2a3a 5998 f73a
000002b0: 87e8 da3c 9e93 453c a7fd 57bc a2ce 1fbb
000002c0: c81a fdbb 5a3b 64bb 15b6 893b 3a5d 6b39
000002d0: 82c3 663b c030 153b 9675 6dbc 583b 29bc
000002e0: 78af 4fbc d2d8 59bb b261 afbb cdef f5bb
000002f0: ef6f f1bb 4263 8d3b 47a4 4d3b 8398 2d3b
0.0045372043 -0.10848491 0.040959425 0.01388638 -0.05331491 0.106326126 0.011492046 -0.1288662
-0.011812836 0.05085015 0.08313742 -0.08712427 0.05980458 -0.15360704 0.069667414 0.0845537
-0.18296665 0.02617385 0.19786368 -0.046229985 -0.14284898 -0.231043 -0.13473256 -0.10576702
-0.33526403 -0.16028869 -0.16291335 0.07952488 -0.43228325 -0.17713425 -0.12511636 0.12299553
0.03524398 -0.059495542 0.06423601 -0.083948515 0.039338633 0.102430545 0.061179504 -0.030806998
-0.09051071 0.030804787 0.021669062 0.11816117 0.04564383 -0.017596992 -0.071805224 -0.09277459
-0.006849539 -0.028383207 -0.008482247 0.09739855 -0.042901915 -0.08609396 -0.0002675468 0.010823401
0.022396468 -0.04462532 -0.077516034 0.048468333 -0.0231104 -0.024811607 0.009009307 0.018892026
0.0016104984 -0.0053316155 -0.0036237044 0.0043747923 -0.0015712935 0.010126846 -0.00041223987 -0.0045211404
0.0032230038 -0.0007506301 0.0034150903 -0.01016697 0.0024132337 -0.006692302 0.0011910533 0.014881529
-0.018533498 -0.0037526353 0.022598403 -0.007344252 -0.017572716 -0.025500162 -0.0105245905 -0.014777972
-0.037036248 -0.024044074 -0.023032714 0.0060533276 -0.021243328 -0.011902265 -0.017151028 0.011297438
-0.00024624428 -0.0021529512 0.0003450882 0.0013443829 0.00022829123 0.0030943556 -0.0026916908 -0.00049109635
0.0016486873 0.00034835824 0.0015074722 -0.004386554 6.665937e-05 6.638256e-05 0.00073671096 -0.002286055
0.0018695258 0.005067613 -0.0006072073 -0.009185566 0.0017102546 0.0030344115 -0.0007620625 1.7131208e-05
-0.00018662187 5.1489184e-05 -0.0018721198 -0.0018381394 0.0011509772 0.0006352835 0.00013820633 0.0030247513
0.020904249 -0.012283851 0.0060047614 -0.02348996 -0.006113061 -0.011157536 0.01609128 -0.0019142765
-0.011082445 0.008430341 -0.0039711487 -0.020570185 0.0033232002 -0.0017458964 -0.0051365066 -0.0047721895
-0.017456291 -0.003433274 0.010261583 0.008953945 0.018976582 0.009220001 -0.009743394 -0.008803655
0.003943768 0.0034494256 0.015655812 -0.015916605 -0.00075077574 -0.0021204296 0.011601391 -0.01403627
0.0073040007 -0.0053695813 -0.016377255 -0.014716216 0.001749678 -0.013375045 0.005118585 -0.0031432316
0.0025329422 0.014644674 0.0006497822 0.0018890008 0.026722206 0.01205912 -0.013183034 -0.0024384637
-0.00772414 -0.0034825415 0.004202614 0.00022446076 0.0035211747 0.0022764653 -0.014493367 -0.01032909
-0.012676112 -0.0033240807 -0.0053522224 -0.007505393 -0.00736808 0.004314811 0.0031378435 0.002648861

transformer.layers.0.self_attn.out_proj.weight f4 [64, 64]
00000000: 1e98 febc 497a 77bb 49ca 06bd 2819 6f3b
00000010: 27e0 28bc 3d28 073d a183 6bbc 6494 353d
00000020: 837a 41bd 1bda 6c3c 3adc a23c 2979 f3bb
00000030: fe4a 3e3c 203d 1bbc db11 4b3c 1261 ad3c
00000040: 5b11 03bd f968 483c 6e10 71bc ce6b 8f3d
00000050: 842b b63b 39cf 11bc a871 cb3b 10aa 61b9
00000060: fe2b acbb 9c97 62bb be14 483d 4d35 6b3b
00000070: f89f 2c39 ed57 193b 93c0 5bbb d707 ce3c
00000080: 548b 06bc 4315 c23b 3c31 283c d7be 4cbb
00000090: 8450 38bc f295 af3c d351 e33c a1e0 56bc
000000a0: 32a2 dd3c 73a7 5f3c 55db 6dbc 7e62 b33c
000000b0: 540b 703c aa00 a8bc a06f 903b 2ab3 6e3d
000000c0: 30ed 42bc 4bdc 56b7 28d8 fd3b 34f6 a2bc
000000d0: 62a7 f3bc e645 933c 8689 9b3c 17f2 2f3a
000000e0: d1e0 f23c 4b7e 28bc 6360 bd3c c8ac 063d
000000f0: b090 8e3c 8466 2abd fb83 923b 121a 34bc
00000100: 95a4 2dba 11ad ac3c 9538 963c 47ed a6bb
00000110: b558 5f3d a4cf 163b f8fa 8d3b 00d5 ea3c
00000120: 171e ce3d 96ef 93bb 2cef a8bc 2635 50bb
00000130: 262a ab3b c428 823b 5cc2 afbc 04f2 153c
00000140: ddc7 eabc 8eb9 383b bfcf 47bc 2028 ecbb
00000150: aa23 4e3c 68cd f9bb e72b 6fbc 7015 4e3b
00000160: 8662 22bc ea48 a1b9 d118 523c bc92 c73b
00000170: b358 edbb fdaf bebb b370 85bc 9204 8c3c
00000180: 620d 2b3c d3b2 d1bc dc6a 93bd ce6b d73c
00000190: 15d3 0abd 7ebc 753d 2ffc 293d b3e0 423c
000001a0: f8aa 8c3d ce76 01be 1001 88bc ad14 34bc
000001b0: e08c 213c 0db0 d03d 1b81 39bb 8b95 563d
000001c0: f22b 70bc 41e9 1cbc 4da2 1c3c 7de9 fc3b
000001d0: aa74 29bd 7d08 8d3c b9ef e03c a597 263b
000001e0: 95dc b03c 46ce d6bb 9b54 843c d32a 55bb
000001f0: f0e1 003d 7832 2bbd c140 3abc 2a6e 07ba
00000200: f059 f63c 0886 5cbc d5d3 213d 249a 123d
00000210: 36be 1f3c bef3 3d3d d202 b93d b96b 733c
00000220: c1e2 eb3b cc69 51bc c49c 813c 21fd 493c
00000230: 6de1 51bc 6807 01bc ef71 193d ddab 343d
00000240: 7f35 9fbc 9d7e 16bd d77a a43c 9313 6bbc
00000250: b874 dcbb 56b0 503c 718a b8bc 7c4c 843c
00000260: 415d 1b3d 19ec 2d3d 1beb 163c 46dd c0bc
00000270: 2e6b c5bd 3f8e c5bc 4292 fcbc c788 14bb
00000280: 1fff d0bb e9c3 c0bc b5ec 77bd e974 57bd
00000290: aa6d f03b 263c d43c 79f2 b5bb 277f a6bb
000002a0: f280 3b3d 18f9 62bd ad11 563c b8d8 e6bc
000002b0: b0df 313d 0a4c 483d 47ff 09bc 6ab2 093c
000002c0: 2793 963c 660c f73a 9009 cbbb 0fe5 423d
000002d0: ba64 70bd cc9a 46bc 4ca4 043d ac0f 39bc
000002e0: ac10 15bc 0b7e c9bb ed77 c23a 6650 423c
000002f0: 3d4b e43c 2431 b33c 8065 2b3c 3c81 47bc
00000300: e97b 54bd ca05 b6bb 0c09 17be dddc 8dbd
00000310: 5a35 12bd 9872 a73c 0ab0 8e3d 5214 e5bc
00000320: 12e0 b7be 31fe 6bbd b78d ab3d 1808 6c3d
00000330: f584 083c edd3 0a3d 3366 79bc 37c1 a23c
00000340: a66e 9a3d 76c6 8ebe bf6d a9bc 3ce4 c33d
00000350: 5164 63bd afb5 df3d c02e 7abd 178b e2bd
00000360: fe6b 5ebd 0a8a 02bd 274e 33be 6407 46bd
00000370: 45c4 8f3c 610d 3f3a 7bc2 8cbd 6f13 c3bd
00000380: 31f0 83bb e103 fe3d e4d6 543e 5775 6ebd
00000390: 6755 973a 381a 74bd cd24 6f3c edf4 1a3e
000003a0: 089e 6e3d 36d6 eeba 93bc 64bd b5e7 353e
000003b0: bf15 be3c f1d8 96bd 46ab 013c 5c78 a53d
000003c0: fcfe b7bd 25f6 feba e5b3 c7bc 958b 93bd
000003d0: 8362 6d3d 9d9d 0c3d 99a4 bf3d e055 923c
000003e0: 511d 043d 7b4d fabb 60c4 d33b 99d7 c5ba
000003f0: 9631 033d 0ed0 64bd 7886 3ebc 5db9 cfbc
-0.031078395 -0.0037762097 -0.032907758 0.00364835 -0.010307348 0.03299736 -0.0143746445 0.04433097
-0.047235977 0.014456297 0.019880403 -0.007430215 0.011614559 -0.009475023 0.012394394 0.02116445
-0.031998973 0.012232059 -0.01471339 0.07002984 0.0055593867 -0.008899503 0.0062086172 -0.00021521025
-0.0052542677 -0.003457523 0.048847906 0.0035889924 0.00016462791 0.0023398355 -0.0033531531 0.025150223
-0.008211929 0.0059229448 0.010265645 -0.003124168 -0.011249665 0.021433804 0.027748978 -0.013115079
0.02705488 0.013650763 -0.014517625 0.02189755 0.014651138 -0.02050813 0.004407838 0.058276333
-0.01189737 -1.2806685e-05 0.007746715 -0.01989279 -0.0297429 0.017977666 0.018986475 0.00067117944
0.029648216 -0.010284017 0.02311725 0.03287962 0.017402977 -0.041601673 0.0044712997 -0.010992544
-0.0006623951 0.021078618 0.018337527 -0.0050942036 0.054527957 0.0023011947 0.0043328963 0.02866602
0.10064333 -0.004514645 -0.020621859 -0.003176996 0.0052235303 0.003972145 -0.021454982 0.009151939
-0.028659755 0.002818677 -0.012195527 -0.0072069317 0.012581745 -0.0076233633 -0.0145978695 0.0031445883
-0.009911185 -0.00030762638 0.0128232995 0.00609049 -0.00724324 -0.0058193193 -0.01628909 0.017092023
0.010440202 -0.025597965 -0.07198116 0.026296522 -0.03389271 0.059994213 0.041500267 0.011894393
0.06868547 -0.12642977 -0.01660207 -0.010991258 0.009860247 0.10189829 -0.0028305713 0.05238871
-0.014658915 -0.009577096 0.00956018 0.0077182637 -0.041371025 0.017215962 0.027458059 0.0025419977
0.021589557 -0.0065553514 0.016153624 -0.0032526746 0.03146547 -0.041796178 -0.011367978 -0.0005166257
0.030072182 -0.01345969 0.03950866 0.03579153 0.00974994 0.04637503 0.09033741 0.014857226
0.007198662 -0.012781572 0.015821822 0.012328417 -0.012810093 -0.007875301 0.03746217 0.044109214
-0.019434689 -0.03674184 0.020078106 -0.014347929 -0.006727781 0.012737354 -0.022526952 0.016149752
0.03793073 0.04246149 0.009211327 -0.023543011 -0.096395835 -0.02411568 -0.03083146 -0.0022664533
-0.006378069 -0.023530917 -0.060528476 -0.05260173 0.0073372917 0.025907587 -0.0055525866 -0.0050810757
0.04577727 -0.055413336 0.013065738 -0.028179511 0.043426216 0.04890064 -0.008422679 0.008404354
0.018380715 0.00188483 -0.0061962083 0.04758173 -0.05868981 -0.012121867 0.03238325 -0.01129524
-0.009098213 -0.0061490587 0.0014836766 0.011859989 0.027867908 0.021874018 0.010461211 -0.012176808
-0.051875982 -0.0055548893 -0.14749545 -0.06926892 -0.03569541 0.020440385 0.069671705 -0.027963791
-0.3591314 -0.057615463 0.08376639 0.057624906 0.008332481 0.033893514 -0.01522212 0.019867523
0.07540636 -0.2788579 -0.020682214 0.095650166 -0.05551559 0.10923325 -0.06107974 -0.110616855
-0.054302208 -0.031869926 -0.17510282 -0.048346892 0.017549643 0.00072880654 -0.06873032 -0.09525191
-0.004026436 0.124030836 0.207851 -0.058217373 0.0011545838 -0.059595317 0.014596176 0.15132494
0.05825618 -0.0018221799 -0.0558439 0.1776417 0.023203729 -0.07365597 0.00791437 0.08079597
-0.08984181 -0.0019452019 -0.024377773 -0.072043575 0.057955276 0.03433 0.093575664 0.017863214
0.03225452 -0.007638631 0.0064626187 -0.001509416 0.03202971 -0.05586248 -0.01162874 -0.025356943

transformer.layers.0.self_attn.out_proj.bias f4 [64]
00000000: 65a6 9c3b 8f32 e939 5764 d43a 3f3c 043c
00000010: 9649 9b3b 27fb 583b 49ad 553a a5f1 a2bb
00000020: 74f5 25bc b5fc c1bb 77bb 5cbc b366 823a
00000030: 063a 8c3b 7183 0abc 5204 f0b9 2e7d 0fbb
00000040: be5c a9ba b8c1 42bc e917 1b3b 2ad5 873c
00000050: 4088 c2bb 9b3f 64bb 241f c339 e774 e038
00000060: 295b beb9 2a46 8f3a 62c7 81ba 63e3 45bb
00000070: e055 20bb 7024 debb f9c5 003a 025a ccbb
00000080: 6c35 8f3b 93e8 49ba 07fe 21ba 407c 2cbb
00000090: 9d17 493c bfd6 16bb 72df 3c3c c27a 39bc
000000a0: 21bc 093c 15dc 3f3a 5b36 34bc 8dc0 dbb9
000000b0: 7eef 9539 9fbd 9a3c f56e 8c3c ba7e 393b
000000c0: c669 213a d7e5 38bb 1af7 64b9 6b15 693c
000000d0: 9519 173d 2e15 f7bb 6416 80ba 206b 473c
000000e0: 748d 5f3d c3f7 02bb b5f7 4b3a a035 4a3a
000000f0: 58b7 fe3b 5764 8f3c 70f8 993c d54b d03a
0.004780578 0.00044478892 0.001620422 0.008071004 0.0047389967 0.0033108683 0.00081511267 -0.004972654
-0.010129321 -0.0059200176 -0.0134724295 0.000994882 0.004279378 -0.00845419 -0.00045779586 -0.0021894681
-0.0012921316 -0.011887006 0.0023665375 0.016581137 -0.0059366524 -0.003482795 0.000372165 0.00010702927
-0.00036307544 0.0010930945 -0.000990134 -0.0030195347 -0.0024465248 -0.006779246 0.0004912313 -0.0062363157
0.004370382 -0.0007702198 -0.00061795156 -0.0026319176 0.012273696 -0.0023016182 0.011527883 -0.011320772
0.00840667 0.00073188666 -0.0109992875 -0.00041914397 0.0002859793 0.018889247 0.017142752 0.0028304295
0.0006157424 -0.0028213167 -0.00021835827 0.014226298 0.03688963 -0.0075403666 -0.0009772298 0.012171537
0.05457826 -0.0019984103 0.00077807467 0.0007713679 0.007773321 0.0175039 0.018795222 0.001589174

transformer.layers.0.linear1.bias f4 [128]
00000000: 4575 2cbe 1bd5 843c 5ecc 10ba 240a 05be
00000010: 35be c3bd 8fde 13be 1282 17be 16ec f9bd
00000020: 636a 45be 2bbb 87bd 6715 53be 38ad 3ebe
00000030: 766e 46be 143f 12be 20b7 c2bd 2186 28bd
00000040: 4c1e 5c3a ee24 a2bd 293d e0bd fb0d ebbd
00000050: cd07 973c d0af c2bd 8064 88be 9e89 a6bc
00000060: 4449 e9bd c216 a5bd e173 3abd b5cf 0cbe
00000070: 457e d4bd de5a 65be 7dd6 5a3c 4001 0dbb
00000080: ab10 c0bd 95e3 b53b 8033 b4bd 8df4 febd
00000090: a99f 58be 0da5 54be 8efe 54be 1d30 3cbe
000000a0: 9250 0abe 7e89 5bbe dc81 19be 22ca 3cbe
000000b0: 9c4b f0bc 486f 2ebe 1d41 32bd 907b 2dbd
000000c0: c129 3bbe 05ed 3dbe f631 c1bd 1281 29be
000000d0: 4e6d 0dbe 1af7 42be 1606 2a3c 39f8 d4bd
000000e0: 0a10 64be aecd 83bd 64b6 8ebd c83c 85bd
000000f0: 94a0 d3bd 8ef5 72be f0b3 06be de47 aabd
00000100: a700 8ebc c0f5 32be e8d9 fbbc 08ff 27be
00000110: 0cc5 cabd bff5 11be 2f70 9abe ca9b ff3c
00000120: 7e9a 15be 9af3 79be 4638 3abe 0642 1abe
00000130: dbd8 ecbd 5798 21bd fefd 5ebe 00be 59be
00000140: e527 64be e056 e4bd e5cd 40be f2c4 2cbe
00000150: a388 43bd dd55 a8bd f722 30be aed5 8abc
00000160: c122 f6bd d53b a1bd 6e62 0cbc f93b 04bd
00000170: e7fe 37bd 66b6 87bd d0ac 0ebe fffc f6bd
00000180: 5e8b 57be 17f3 94bc e8f7 4fbe f4fa 59bd
00000190: 38d7 0bbe 376b acbd 3109 26bd 3154 ebbd
000001a0: 92a7 f03c 50ac 843c 61eb 94bd 1f69 5bbc
000001b0: 4db2 23bd a1a8 7abd 9128 e0bc a5f3 94bd
000001c0: d510 bbbd a039 51be 6e5d 84bd 5d64 fcbc
000001d0: cee6 5cbe f37e b9bd 6f1a 843d 0982 19bc
000001e0: 84f9 82be 2dac 05be 4cf9 ddbd d51c 13be
000001f0: 6f77 51be d80a 3abe a19d 89bd 47e5 f9bd
-0.1684161 0.016214898 -0.0005523617 -0.1299215 -0.095577635 -0.14440368 -0.14795712 -0.12203233
-0.19278865 -0.06627496 -0.20613633 -0.18620765 -0.19378075 -0.14281875 -0.095075846 -0.04114354
0.00083968486 -0.079172 -0.109491654 -0.11477276 0.018436337 -0.0950619 -0.26639175 -0.020329293
-0.113909274 -0.08060981 -0.045520667 -0.13751109 -0.103756465 -0.22397944 0.013356802 -0.0021515638
-0.09378179 0.0055508115 -0.08798885 -0.12448988 -0.21154656 -0.20766087 -0.2080023 -0.18377729
-0.13507298 -0.21439168 -0.14990944 -0.18436483 -0.029332928 -0.17034638 -0.043519128 -0.042354167
-0.18277647 -0.18547447 -0.094333574 -0.16553143 -0.13811228 -0.19039574 0.010377428 -0.10398907
-0.22271743 -0.06435715 -0.06968382 -0.06505734 -0.10333362 -0.23726484 -0.13154578 -0.08314489
-0.017334295 -0.17476559 -0.030743554 -0.1640588 -0.09900865 -0.14253901 -0.30163714 0.031202216
-0.14609715 -0.24409333 -0.18185529 -0.15064248 -0.115647994 -0.039451923 -0.21776578 -0.21263885
-0.22280844 -0.111493826 -0.18828543 -0.16872004 -0.04773773 -0.08219502 -0.17200838 -0.016947594
-0.120183475 -0.0787274 -0.008568389 -0.032283757 -0.04492083 -0.066265866 -0.1393311 -0.12059974
-0.21049258 -0.01818232 -0.20309412 -0.053217843 -0.13656318 -0.08418887 -0.04053611 -0.114906676
0.029376779 0.016195446 -0.072714575 -0.013391762 -0.039964963 -0.061195973 -0.027363094 -0.07273034
-0.0913407 -0.20432138 -0.06463133 -0.030809576 -0.2157242 -0.09057417 0.06450354 -0.009369382
-0.2558099 -0.13053961 -0.10838565 -0.14366467 -0.20455717 -0.18168199 -0.067195185 -0.12201934

transformer.layers.0.linear2.bias f4 [64]
00000000: f2fb 31bd 9f34 e03c 5a1b ae3c cb5f bc3c
00000010: 84f0 cabc 4d83 153d 3716 903d 572a ed3d
00000020: 6277 003d 64c6 3c3e 430b 0f3d 48d9 533d
00000030: 0bd4 373d b01f 20bc 36a8 5fbd c4f5 30bc
00000040: f000 183e a560 a43d 2160 94bc 563f 4abd
00000050: c057 cb3d 7c3c 073e 4dd1 99ba f30d ffbb
00000060: 3946 89bc 8734 d3bc 2bf7 933d 278f 9bbd
00000070: 56e1 113d be6b 2e3d 44b9 bc3c 86e2 3abe
00000080: db0c 063e 3a1c 153e fa1a 3ebd dcaf bf3b
00000090: 242e 41bd 4b05 893c 4711 3e3c dd5f b9bd
000000a0: 148c 7f3d 9083 91bc 7c8a f53d 5edd 0cbc
000000b0: 37c6 cd3c 5c33 2dbd 6579 68bd 39ba 96bc
000000c0: 2099 2dbc ec9c 43bc b784 a83c e822 95bc
000000d0: eed0 e2bc ff79 b5bd 1c03 0fbd d9b5 99bd
000000e0: 5884 b93d 26f9 b6bd 9ef5 323d d4b8 9ebc
000000f0: ac1a 393e 8fde 15be 6297 7ebc 4f85 01bd
-0.043453164 0.027368842 0.021253277 0.022994896 -0.02477289 0.03650217 0.07035487 0.11580341
0.031363852 0.18435055 0.03492285 0.051720887 0.044879954 -0.00977318 -0.054603778 -0.010800783
0.14844108 0.08026246 -0.018112244 -0.049376808 0.09928846 0.13206667 -0.001173535 -0.0077836453
-0.016757118 -0.025781883 0.07224878 -0.075956635 0.035615288 0.04258322 0.02303756 -0.18250474
0.13090841 0.14561549 -0.046412446 0.0058498215 -0.047163144 0.016726157 0.011600799 -0.090514876
0.06238945 -0.01776293 0.119893044 -0.0085977 0.02511893 -0.04228531 -0.056756396 -0.018399345
-0.01059559 -0.011939269 0.020571096 -0.018205121 -0.027687516 -0.088611595 -0.034915075 -0.07505388
0.09058446 -0.0893424 0.04369127 -0.019375242 0.18076581 -0.1463568 -0.015539022 -0.031621274

transformer.layers.0.norm1.weight f4 [64]
00000000: 627f 313f 532e 0f3f 11d1 143f 27e0 383e
00000010: 59e7 0f3f 3362 ea3e 39ff 5c3f bb2c 6e3e
00000020: d82b fd3e aeaa de3e 2fe5 f53e f98c 573f
00000030: ce21 293f 00df 1c3f c3c5 423f d79a 593f
00000040: 1de8 063f aa41 1f3f 39ac 613f fedf 043f
00000050: 39eb 253f adbb 043f 1b9c 133f ac7a ab3f
00000060: 7e9f a73f 3fff 903f 19b8 1c3f b0e1 2a3f
00000070: d4a1 d63e 8825 2d3f 00b4 863f 5014 223f
00000080: 5464 053f d8dc e83e ad21 6a3f 5849 663f
00000090: d8ba ef3e 2ffa 433f 9d91 e43e 474d 253f
000000a0: 0abe 513f e035 533f d09a b53e 22c4 e53e
000000b0: 1cfd 2c3f f693 fc3e 414e 0f3f cf92 313f
000000c0: 02ce 803f 31c4 4f3f f5c3 7a3f 054a c03e
000000d0: 6a2f 053f eda0 143f 4394 2d3f 1773 103f
000000e0: 5095 bc3e 177e 583f cf27 863f b579 453f
000000f0: df19 fc3e f0ed ec3e 6e70 143f 07fa 253f
0.69334996 0.5593006 0.5813151 0.18054257 0.56212384 0.45778045 0.8632694 0.23259251
0.49447513 0.43489593 0.48026416 0.8419948 0.66067207 0.6127777 0.7608301 0.8500189
0.52697927 0.6220957 0.88153416 0.51904285 0.64812046 0.5184887 0.57660073 1.3396811
1.3095548 1.1327895 0.6121841 0.6675062 0.4192034 0.67635393 1.0523682 0.63312244
0.52106214 0.4548099 0.91457635 0.89955664 0.46822238 0.76553625 0.44642344 0.6457104
0.819306 0.8250408 0.35469675 0.448762 0.67573714 0.49331635 0.5597878 0.6936464
1.0062869 0.8115874 0.97955257 0.37556472 0.52025473 0.58058053 0.67804354 0.56425613
0.36832666 0.845674 1.0480899 0.77138835 0.49238488 0.46275282 0.57984054 0.64834636

transformer.layers.0.norm1.bias f4 [64]
00000000: 8bd1 ac3d a1dd 6abd f1e4 723e ac17 c23d
00000010: e2a7 eb3c 0b1f c13d 9435 e53b 1ad3 ff3d
00000020: 4b3f 01be e6e4 003e c5f7 8cbd 668e 29bd
00000030: d23e b4bb 48ab 89ba 1d3d 9b3d f668 95bc
00000040: 0d97 833d 36a6 25be aba7 403d 6e0d a33c
00000050: 637c ee3d 3885 81be 7e6c 4d3b 1dc5 49bd
00000060: 92e3 063d c0d1 9ebd 5472 8b3d ee09 d2bd
00000070: 9e12 183e 9796 e3bd 0f47 033d b7e2 a6bd
00000080: 30a4 f53d 3bf9 1cbe bd3a 0b3e c208 82bd
00000090: 8d4c 973e 6f6e 70bd 6e8d ce3c 0311 3cbd
000000a0: b8af 9b3d 3e58 aabd d749 433c 4b1c 47be
000000b0: 9b57 c63d d819 a8bd c67e 773e 0761 b0bd
000000c0: 2634 0b3d 237b 05be c817 b73d 522a 0d3d
000000d0: a5b1 663e 0b2b 34be 44b5 833d d04e 9ebd
000000e0: 36a7 503e 4821 8bbd 799b 343c 67ca 42bd
000000f0: 64f5 e33d 13c9 24bd 3e36 2b3e 9c69 34be
0.08438405 -0.057340268 0.23720147 0.09477171 0.028766576 0.09429749 0.0069949124 0.12491436
-0.126218 0.12587318 -0.06883196 -0.041395567 -0.005500653 -0.0010503316 0.07580016 -0.018238526
0.06425295 -0.16176686 0.0470349 0.019903865 0.11644819 -0.2529695 0.0031345184 -0.049260247
0.03293187 -0.077548504 0.06808916 -0.102558 0.14850852 -0.11112707 0.03205019 -0.08148711
0.11994207 -0.15329449 0.13596626 -0.06349327 0.2955059 -0.058699068 0.025213923 -0.04591466
0.07601875 -0.08317612 0.01191946 -0.19444387 0.09684678 -0.08208054 0.24169454 -0.086122565
0.03398528 -0.13035254 0.08940083 0.034464188 0.22528704 -0.17594545 0.06431058 -0.07729876
0.20376286 -0.06793457 0.011023396 -0.047556307 0.11130789 -0.04023082 0.1671991 -0.17618412

transformer.layers.0.norm2.weight f4 [64]
00000000: 8b18 4b3f dd11 4d3f b694 103f 1582 2f3f
00000010: 1d43 433f f92d 113f d9b4 4d3f 9b3f e03e
00000020: c759 2a3f e88e 0a3f 6b70 363f f81b 2c3f
00000030: b48c 083f 9107 243f f276 763f f2ff 493f
00000040: fd4f 4a3f c14d 263f 83e7 4f3f ba8d 403f
00000050: 7f61 3e3f e289 323f 93fd 403f 468d 8b3f
00000060: b19f 8b3f 47ca 7f3f 7f26 2b3f 5533 333f
00000070: 887f 2e3f 8ec5 383f 681c 823f e740 293f
00000080: f4ea 543f c8ce 213f 4a36 4b3f 094b 673f
00000090: 51f3 293f 50e2 3a3f 2d28 1e3f 1db9 3a3f
000000a0: 6c06 413f 02c3 5d3f d5fa c93e 97bb 2f3f
000000b0: ffab 403f 73b5 3c3f 7280 533f 2031 273f
000000c0: 1859 523f b14e 383f cc65 4f3f cbee 2e3f
000000d0: df5f 403f 13c2 183f dc07 313f 3feb 4d3f
000000e0: 2853 313f 3027 483f 6839 5f3f ec6d 553f
000000f0: b8bb 133f 771c 083f 729c 4b3f 4772 053f
0.79334325 0.8010538 0.56476915 0.68557864 0.7627428 0.56710774 0.80354077 0.43798527
0.6654324 0.5412431 0.71265286 0.67230177 0.53339696 0.64074045 0.96275246 0.78906167
0.790283 0.64962393 0.81212634 0.7521626 0.7436752 0.6974164 0.75386924 1.0902488
1.0908109 0.99918026 0.66855615 0.700002 0.6816335 0.72176445 1.0164919 0.6611466
0.8317101 0.6320615 0.79379714 0.9034887 0.66386896 0.73001575 0.61780053 0.7293871
0.75400424 0.86625683 0.39449182 0.68645614 0.75262445 0.7371437 0.82617867 0.65309334
0.82167196 0.71995074 0.81014705 0.6833312 0.7514629 0.59671134 0.6915262 0.8043708
0.6926751 0.78184795 0.8719697 0.8337085 0.5770831 0.53168434 0.7953559 0.521275

transformer.layers.0.norm2.bias f4 [64]
00000000: 3fe8 7bbd 913e 3cbd 6262 c63d 998a 7f3d
00000010: 9689 7b3c aa0b 373e b925 853d f2f5 cfb9
00000020: b000 a5bd a920 fe3d ab31 583d 14f6 f1bc
00000030: 3e9a fabd 42c9 c53d 97f4 c53c d9c0 943c
00000040: 7a15 e63c 1bb6 48bc 306e 113c 00aa 76bd
00000050: 12d9 f13d 2f26 8abe 6226 17bd d683 d5bb
00000060: fbe9 113d 7c68 85bd c986 2c3d ea12 42bd
00000070: d05f 313e 77b6 e2bd 0bb8 0e3c d73f 85bd
00000080: b332 61bc 9772 0abe 48a1 333e 895c a6bc
00000090: 43d2 453d 3174 95bd 8809 503e e218 fabb
000000a0: 3a3f 683c f067 e2bd 9bef 143e 13d4 c2bd
000000b0: 0f73 163e 6321 c4bb c5f3 293e 5d82 90bb
000000c0: 7e42 903c e49c 2cbe 42ac ce3d 127a 133e
000000d0: aaee 043d c03b f0bd ae94 6a3e e6b7 be3d
000000e0: 8ebb e83d bfa2 ff3d eda3 05bc 0286 8abd
000000f0: 0d5b 1a3e 2acb a5bd c757 eebc f986 e4bd
-0.061500784 -0.045958105 0.09686734 0.062388036 0.015352627 0.17875543 0.06501336 -0.0003966536
-0.08056772 0.12408573 0.052781742 -0.029536285 -0.122364506 0.096575275 0.024164481 0.018158363
0.028086413 -0.012250449 0.008876368 -0.06022072 0.11808981 -0.26982257 -0.03690184 -0.00651596
0.03562353 -0.065140694 0.04212073 -0.04738132 0.17321706 -0.11069959 0.008710871 -0.06506317
-0.013744998 -0.13520275 0.17541993 -0.020307796 0.048296224 -0.072975524 0.20316136 -0.007632361
0.014175231 -0.11054981 0.14544527 -0.09513106 0.14692329 -0.0059854253 0.16596897 -0.0044100718
0.017609831 -0.16856724 0.10091449 0.14402035 0.03245417 -0.117301464 0.2290828 0.093124196
0.11363898 0.12482213 -0.008156759 -0.06763841 0.15073796 -0.08095391 -0.02909459 -0.111585565

transformer.layers.1.self_attn.in_proj_bias f4 [192]
00000000: e583 9bbd ff08 3f3d a431 b6bd 9bb1 1ebe
00000010: a868 a53c 7875 fabd 89fd a2bd c2dd 283d
00000020: 9cc6 183e 0492 143d 4b98 eabd e774 04be
00000030: 6541 343e 0fe7 8f3d 1885 313d bedd 3ebd
00000040: ace2 32bd 6cae d23d b7e6 8c3e f84b 3cbd
00000050: 3927 a1bd efbf b5bc 447e 0ebe c98a 03be
00000060: 9f31 62be e5c9 56be 2e37 30be 8d54 47be
00000070: 9120 cabb cb38 36be 7027 e53d 0741 023e
00000080: 34e2 163e 6946 59be dfa0 4fbe a50b f3ba
00000090: 2b10 6dbe c68a 05bd 4a96 0ebe 3396 8dbe
000000a0: 3b91 c5bd 3608 bbbd 68c0 903d 0cfe a8bb
000000b0: 46c3 3e3e a865 7fbe 4ddc 9abe 13ea cbbe
000000c0: 8447 11be 363f 75be fd79 b6bd 5226 50bd
000000d0: ec4e 20be 980a 963c 810c 4cbe ba69 303e
000000e0: 8a25 d9bd f524 9ebc 0df7 733c 8d93 f93d
000000f0: 2ffb 543c 25aa b33d 94fd a03d a0af 7e3d
00000100: 449f fdbb 9008 ed3b 9a9b ccbb b375 efbb
00000110: 48ef 963b b360 81bb 1f44 9b38 ce51 1539
00000120: 5937 893c 2dc7 fb3b 2b4e f2bb 3fd6 d5bc
00000130: 9f8b ae3b be8d 083b 8e6d b83b 2f8f 8fbb
00000140: 6fb1 253c 871a 0b3a 7418 563b adc1 293c
00000150: 0126 d93a 7964 63bb d993 77bb ab11 b2bb
00000160: b07c 59bb fb19 4e3c cd80 6a3b 5e85 15bb
00000170: 2efe b43b 0317 003c 2815 2fbb da55 60bb
00000180: ff82 b7b9 e926 fa3a 282a 3e3b 5a9f 02bb
00000190: fc2b 503c 78b1 7f3b 992a 2f3b 38ab 413c
000001a0: b747 9cbb a562 a33b d1ef 2a3a 12ed 07b9
000001b0: cb63 19bc 5b28 9b3c a3e3 b53c 40c0 323c
000001c0: 1476 093c f102 26bc e353 323c 726e 11bc
000001d0: dfb4 d83b 1de7 c33a fc8e 78bb e76b b33b
000001e0: 756a 7a3a 0d7d 133c 5202 eebb 7057 f23a
000001f0: 9dfc 8cbb c665 fdbb f5a2 843b 131f 76bb
00000200: b8b9 92bd a456 3cba d62b 4f3d 28c3 0dbd
00000210: 83a0 e83c 9487 e0bc f54e 11bc 5f3a 8f3c
00000220: cb94 69bd 5a0c a03d ac8f 44bd a997 01bd
00000230: 4dad 52bc 77a9 863c 5220 0cbc 5fb7 f1bc
00000240: 3825 69bc 99f6 77bc 641d 73bd a800 7abb
00000250: 5e0f 7c3c 4a75 623c 566a 09bd 244f 1bbd
00000260: a920 b53c 1f13 5abc a00e 553c e5b4 f43b
00000270: 564a 16bc 72dc b53c 469a 6e3c 922c 3f3b
00000280: b470 8ebd fb28 05be bd83 81bd 9a83 af3c
00000290: a380 8b3c 18f5 8cbd 624b 4ebd 8f7f 983d
000002a0: ef4a 1abd 36bc 8dbd 84e7 cf3a 1f3c 993d
000002b0: 1b8b 33bd 5db4 383d 80d6 fe3c 7049 eb3c
000002c0: fe48 983c 3ee8 e2bb b6fd 2cbd 4810 79bd
000002d0: f19d a0bb 870e 473c 7d44 773c 5506 5fbc
000002e0: 1eb0 423c 83a6 fcbc 52e4 08bc c206 593c
000002f0: d0cb 52bc 011b 9dbb c795 2f3c 8e97 a63b
-0.07593516 0.04663944 -0.08896187 -0.15497439 0.020191506 -0.12229437 -0.07958514 0.04122711
0.14919513 0.036272064 -0.11454829 -0.1293522 0.17603071 0.07026493 0.04333982 -0.04659819
-0.043673202 0.102871746 0.2751977 -0.045970887 -0.07868809 -0.022186248 -0.13915354 -0.12845911
-0.22089241 -0.20975454 -0.1720855 -0.19465847 -0.006168433 -0.17795102 0.11189163 0.12720118
0.14734727 -0.21218266 -0.20276211 -0.0018542899 -0.23150699 -0.032603048 -0.13924518 -0.27653655
-0.09646841 -0.091324255 0.070679486 -0.005157238 0.18629178 -0.24941123 -0.302462 -0.39827022
-0.14187437 -0.23949894 -0.08909986 -0.050817795 -0.15655106 0.018315598 -0.19926645 0.17227831
-0.10602863 -0.019304732 0.014890444 0.12186346 0.01299934 0.08772687 0.07860866 0.062179208
-0.007739933 0.0072336867 -0.006244135 -0.007307732 0.0046061613 -0.003948295 7.4036645e-05 0.00014240222
0.016750025 0.0076836557 -0.0073945723 -0.026103137 0.0053267027 0.0020836438 0.0056282943 -0.0043810825
0.010113104 0.0005306382 0.0032668384 0.010361117 0.0016567112 -0.0034697338 -0.0037777333 -0.005434235
-0.0033185892 0.012579436 0.0035782338 -0.0022815089 0.0055234646 0.007817986 -0.002671549 -0.003423086
-0.0003500208 0.0019085082 0.0029016826 -0.0019931407 0.012705799 0.0039015692 0.002672827 0.011820607
-0.0047692913 0.0049861246 0.0006520721 -0.00012962919 -0.009362171 0.018940141 0.022203272 0.010910094
0.008389968 -0.010132537 0.010884258 -0.00887643 0.0066133584 0.0014946196 -0.0037927022 0.0054755094
0.00095526065 0.009001982 -0.00726346 0.0018489193 -0.004302575 -0.0077330796 0.0040477463 -0.0037555143
-0.07164329 -0.00071845413 0.050578915 -0.034609944 0.02839685 -0.027408399 -0.0088689225 0.017483888
-0.057026666 0.07814856 -0.04798858 -0.031638775 -0.012858701 0.016438229 -0.008552628 -0.029506383
-0.014230065 -0.015134477 -0.0593542 -0.0038147364 0.015384523 0.013821909 -0.033548675 -0.03791727
0.0221103 -0.013310223 0.013003975 0.0074678534 -0.0091729965 0.022199843 0.014563149 0.0029170853
-0.0695509 -0.13003914 -0.06323955 0.021425057 0.017029112 -0.068826854 -0.05036486 0.07446205
-0.03766912 -0.06920664 0.0015861844 0.0748217 -0.043833833 0.045093883 0.031108141 0.028721541
0.018589493 -0.006924658 -0.042234145 -0.060806543 -0.0049016406 0.01214946 0.0150920125 -0.0136123495
0.01188281 -0.030841118 -0.008355217 0.01324624 -0.0128659755 -0.004794479 0.010716862 0.0050839847

transformer.layers.1.self_attn.out_proj.weight f4 [64, 64]
00000000: 3b45 80bd 2968 8fbd 087b 763c 2745 4cbd
00000010: 7e09 85bd e5e8 d33d cf80 623d 7e44 23bd
00000020: d082 043e 0bcb ccbd 075b df3c 5798 fdbd
00000030: 4fd0 95bc 978e c1bd c990 7d3d 18ee 1c3e
00000040: 0082 053e 536d 873d f706 16be 95c9 0bbb
00000050: 18c8 4fbe a036 0fbb 15b1 a439 d89e 253e
00000060: 9fcc 343c 83e7 fdbb 9cc0 9cbd d8e5 b1bd
00000070: 3d6f 713b 3817 2c3d 62c2 48bd 8c72 e83c
00000080: 7c7f 72bc 47d3 4ebd 3fd7 a3bd 75f7 10bd
00000090: c743 5bbd 0eb1 efbc 24de aabd 1daf 25bd
000000a0: b246 e83b 2a3b 45bd 5786 3c3d be56 cebd
000000b0: 10fc 9abd db3d ed3c bcf7 353e 953f cdbd
000000c0: cc64 53bd 30b8 71bc 7124 863d 5b00 293e
000000d0: d3ae 1e3e e58f 4a3d 8c78 f8bc 7fd1 86bb
000000e0: 1b13 a93d c057 e2bc 1668 ff3c d153 2bbd
000000f0: 7aab 94bd b6ec c53c d462 6f3d 2c60 073d
00000100: ecee 97bd f95f 803d 9417 d43d 132f e43d
00000110: a848 bebd d482 e73b a62a 6cbc 7b45 e73d
00000120: bee6 7f3e de36 1f3e d802 48bc 998f a53d
00000130: 2752 aebd 7f41 a73d 7d7a e7ba 42f9 d9bc
00000140: 86e1 363e 9b37 363d dc53 f4bc 62e2 b8bd
00000150: 4209 8e3d 695f 39bd f451 443d bc98 633a
00000160: 1e04 2dbd 1b78 e03d fe19 13be c7c9 28bd
00000170: a9ce a23c e6a2 04bd 0641 333e 8211 d23d
00000180: 4456 1a3c cca2 1abd cd9f b7bc 5563 9fbd
00000190: 97c5 8a3c 2c86 103d 7ca7 d5bd 823a eebc
000001a0: b154 2cbe 737a 0cbd 6bf5 143e dc4e 05be
000001b0: 9483 aebd a735 89bc 66dc d43b a6d9 8f3a
000001c0: 80ba 223c db82 903d 2bd9 0abe 760a 1cbe
000001d0: b1cd 21be 5260 b63d a7d8 6dbd 31cc f5bd
000001e0: ccb6 44be e623 afbd 76ae 8c3d 4b3f fd3c
000001f0: 56c5 84bc 8bbd e43d 5a3e ca3d 0003 6e3e
00000200: 6571 cc3d efc8 e5bc 2a7e 533e cea8 103d
00000210: 42a1 eabd 5163 213d d0ea 323d 6a77 ea3d
00000220: ddfd d9bb c23f 2f3c 8a98 ccbc 5042 a03d
00000230: 0da7 2b3e 17fe 393d 772f 21be 1132 703d
00000240: 6bd0 13be 875c 1c3d a192 b63d 1fc4 023e
00000250: 4c44 d6bc a4e0 96bc 6255 5bbd f5b7 103e
00000260: 9dbb 3b3d c895 813c 1abf 38be e950 343e
00000270: 684d 10be edad e2bd 0f55 5bbe 8f6c 0ebd
00000280: 0bdb d83d c3fc 943b 0074 15be d20c 84bd
00000290: 2818 afbd 1c67 f5bc 9797 18be 5d01 99bb
000002a0: 1907 a0bd 17e7 2b3e 4e33 3ebe 46c8 e1bd
000002b0: cd06 48ba 8c26 033b 03d6 86bd 3f2f a1bd
000002c0: f615 1c3e 79e7 bebd e68f 01be 0aee 713c
000002d0: f95b 7e3c 989f 813c e2b0 73bd dbec d13d
000002e0: 3e73 83bd 86bd 3b3c ceca acbc b871 423d
000002f0: ce96 8e3e 978f bcbd c566 c93d 9971 89bd
00000300: 8159 61bc 0c0f 33bd 0d06 bc3d fa2a fa3a
00000310: 46ac f1bc fc0b 823d edd3 eb3d 502f 26bc
00000320: 5d92 483d ccef 393d 0059 57be 5167 28be
00000330: 91a2 16be 871f 5fbe 25cd 4f3d 2c1a b3bc
00000340: 1a63 fabc 0442 b9bd 8c51 d3bd abe3 8fbd
00000350: 66cb f93b e10a 87bb c5a9 f0b9 fffe 793c
00000360: ff36 11be 4b73 53be 4179 023d f6e9 6d3d
00000370: 1f3c a03d 0076 11be 84c2 ad3d 2ffd 78be
00000380: c7e7 c13c 04dc 943d ba0d b43c 2c33 ebbd
00000390: e7e3 3cbd 7601 02bd c3ff fb3c 629a bd3d
000003a0: d8c1 e4bc ee4e 463e eb5c 073d ab4a 8bbc
000003b0: 9202 0e3e 1fae 8abd f54f 84bd 4e4c 17be
000003c0: f0da b6bd 8bc1 4f3d 2489 1abe 72d3 27be
000003d0: 8a38 af3d ea0d 3e3d e9fc 49be 7906 a3bd
000003e0: 6b8b f8bd 018f ca3a e0f3 cf3d f5b9 033e
000003f0: e639 893b d5b2 2ebd a324 d5bd 3f0f 00bd
-0.06263205 -0.07002289 0.015043981 -0.049870636 -0.06495951 0.103471555 0.055298623 -0.03986024
0.12940526 -0.09999665 0.027265085 -0.12382572 -0.018287806 -0.09451025 0.061905656 0.153252
0.13037872 0.06612649 -0.14651094 -0.002132987 -0.20291173 -0.0021852627 0.00031412454 0.16173875
0.011035114 -0.0077485456 -0.07653925 -0.08686417 0.0036839985 0.04201433 -0.049013503 0.028374933
-0.014800902 -0.05049446 -0.08000039 -0.035392243 -0.053531434 -0.029259231 -0.08343151 -0.040450204
0.0070885057 -0.048152126 0.046026554 -0.100751385 -0.07567608 0.028960159 0.17770284 -0.10021893
-0.0516098 -0.014753386 0.065499194 0.16504042 0.15496378 0.049453635 -0.030330919 -0.0041143293
0.08255597 -0.027629733 0.031177562 -0.04182798 -0.07259269 0.024160724 0.05844386 0.0330507
-0.074186176 0.06268305 0.1035606 0.11141791 -0.09291202 0.0070651565 -0.014414465 0.11292549
0.24990365 0.15548274 -0.012207709 0.0808403 -0.08511763 0.08166789 -0.0017660406 -0.026608113
0.17859468 0.044486623 -0.029825144 -0.09027554 0.069353595 -0.045257006 0.04792972 0.0008682122
-0.042240255 0.10960408 -0.14365384 -0.041208055 0.019873934 -0.032381915 0.17505273 0.102572456
0.009419981 -0.03775291 -0.022415066 -0.07782618 0.016939921 0.035284206 -0.10432336 -0.029080633
-0.16829182 -0.034296464 0.14546745 -0.13018364 -0.0852119 -0.016749216 0.006496 0.0010974898
0.00993216 0.07056209 -0.13559406 -0.15238366 -0.15801121 0.089050904 -0.058067944 -0.12001837
-0.19210356 -0.08551769 0.06869213 0.03091397 -0.016207378 0.11168965 0.09875174 0.23243332
0.09982566 -0.028049914 0.20653597 0.035317235 -0.11456539 0.039401356 0.043680966 0.11448558
-0.0066525773 0.010696353 -0.02497508 0.07825148 0.16762944 0.045408335 -0.15740763 0.058641497
-0.14434974 0.03817418 0.08914686 0.12770127 -0.026155613 -0.018417664 -0.053548224 0.14132674
0.04583322 0.015818492 -0.1804165 0.1760899 -0.14092028 -0.1106833 -0.21419166 -0.0347715
0.10588654 0.004546733 -0.14595032 -0.06447758 -0.08549529 -0.029956393 -0.14901577 -0.004669352
-0.07813854 0.16787373 -0.18574259 -0.11024527 -0.0007630408 0.002001199 -0.06583788 -0.078703396
0.15242752 -0.09321494 -0.12652549 0.014766226 0.015524858 0.01582317 -0.05949486 0.10250255
-0.06418465 0.01145876 -0.021092799 0.047471732 0.2784943 -0.09207075 0.09834055 -0.0671112
-0.01375425 -0.04371552 0.091808416 0.0019086294 -0.029501092 0.06349942 0.11515031 -0.010143116
0.048967708 0.045394704 -0.21030045 -0.16445662 -0.14710452 -0.2178937 0.05073275 -0.021863066
-0.030564833 -0.090457946 -0.10318288 -0.07025846 0.007623124 -0.00412117 -0.00045902855 0.01525855
-0.14181136 -0.2064945 0.031853918 0.05808445 0.07823967 -0.1420517 0.084843665 -0.24315332
0.02367009 0.07268527 0.021979202 -0.1148437 -0.046115782 -0.031739675 0.030761605 0.09257962
-0.027924463 0.19366047 0.033047598 -0.017003378 0.13868168 -0.06771492 -0.06460563 -0.14775202
-0.08928478 0.050721686 -0.15091377 -0.16389254 0.08555706 0.04639999 -0.19725384 -0.07960219
-0.12135967 0.0015453995 0.10153937 0.12863906 0.0041878102 -0.042651016 -0.104073785 -0.03126454

transformer.layers.1.self_attn.out_proj.bias f4 [64]
00000000: 52cf 3dbd b5b0 f73d ecd9 a23d 19ee eb3a
00000010: 352a 3a3b bdd4 403d 6acd 4dbc 585f 87bd
00000020: 8660 2fbd 352a 8cbd b4e9 f5bd 66b6 e7bc
00000030: 64cc dbbd 4450 45bd 21cf 18bc 1740 a7bc
00000040: 9b02 2e3d 9a43 babd c7bb c23c 230e 513b
00000050: c866 e1bc bf96 92bd f23a 743d f3f4 74bc
00000060: 5240 dabc c168 32bd 3403 adbc 08f3 82bd
00000070: e2bd c63d 8c88 393d 80a6 1c3c 5fc0 c0bc
00000080: 21f3 8e3b 8631 3c3d 66fd 53bc 9b32 99bc
00000090: 6919 d43d aecf 33bd b6c9 d0bc a004 703d
000000a0: 17ad 6e3d 7ab8 2d3c 179c a0bd 550d 373d
000000b0: 8a88 453d 2591 313d a43c 97bc a78b 9cbd
000000c0: f2b1 233c 30ca f53b c8a4 27bc db39 a83d
000000d0: c6f1 0a3d 2d02 bb3d 14da 633d 94d7 bc3b
000000e0: d8c7 20bd 7c6e 343d cb86 e93c 8f28 c73a
000000f0: 491b a7bd 18c5 be3c c29b be3d 69f7 e7bc
-0.046340294 0.12094251 0.079517215 0.0018000036 0.0028406505 0.047077883 -0.012561182 -0.06609982
-0.04281666 -0.06843988 -0.12007466 -0.028285217 -0.10732344 -0.04817225 -0.009326727 -0.020416303
0.042482954 -0.09094925 0.02377118 0.0031899295 -0.02751483 -0.07157659 0.059626527 -0.014950979
-0.026641998 -0.043556932 -0.021119691 -0.06394011 0.09704186 0.045296237 0.009561181 -0.02352923
0.0043624793 0.045945667 -0.012938833 -0.018700888 0.10356409 -0.04389923 -0.025486808 0.05859816
0.05827054 0.010603065 -0.07842272 0.04469045 0.048225917 0.04335131 -0.018461533 -0.07643824
0.009991156 0.0075009093 -0.010232158 0.0821416 0.03392198 0.09131274 0.055627897 0.0057630036
-0.039253086 0.04405068 0.028506657 0.0015194583 -0.08159501 0.023287341 0.09307052 -0.028316217

transformer.layers.1.linear1.bias f4 [128]
00000000: 393c 2dbe 68f9 dfbd 1de8 1bbe ea66 3fbe
00000010: 7c80 57be c84a 46be 78a4 a0bd 2174 09be
00000020: 2184 06be 631f 11bc 156a 55be 01c4 87be
00000030: f761 a1be 5045 dabd f0e7 c9bc 88bb d8bd
00000040: bc1c 91bd 7305 fbbd 7391 aabd 689e 47be
00000050: c11b 41bd 2532 8abe 19ac b4be 1662 0cbe
00000060: b63f 5bbe 7233 2fbe 761b 3ebe 327e babd
00000070: 5f19 05be 5514 11be b770 01bd ea3a 94bc
00000080: 8c74 5cbe 6a68 5abd ee64 23be f4ea 0cbe
00000090: 6fbd 72be fe39 24be daa5 2cbe 0ec1 6abe
000000a0: 6890 5cbe fddd 6dbe eecd 51be df00 46be
000000b0: 757b 53be 66df 15be fd86 04be e4eb 72bc
000000c0: 6d37 50be 5624 26be c4ff c7bd eef3 1bbe
000000d0: 2fee 3fbe 4a2a 6cbe a4fb 9cbd c578 1dbd
000000e0: c383 21be a2d6 82bd 4ff0 19be 960f 16be
000000f0: ec3c f8bd e396 4bbd da13 1cbe 0e55 eabd
00000100: ede9 9fbd 2178 16be 0534 80bc 2fd1 16be
00000110: 73b2 bdbd ceec 0bbe 8622 85be ae11 0abc
00000120: 663c 00be 8d12 01be 8848 73be 8180 e0bd
00000130: 53cf c8bd 014f 0fbe ed5a 77bd 7439 3dbe
00000140: dd6a 0ebe bc30 07be b875 96be 6951 1abe
00000150: 283c 09bd 7cc8 e8bd 342d 22be 662d 2bbe
00000160: f601 7dbe 6317 38bd b514 89bc 38a6 71bd
00000170: e34a a5bd 3ad9 07be 4f3f 38be 64de 20be
00000180: 1d16 94bd 37ae 0fbe f278 bcbd 6171 f1bd
00000190: 560f 58be 011e e9bd a462 34bd b31d 64be
000001a0: eb24 aebd 909b 9fbc 50d7 30be 53a9 a5bd
000001b0: feb3 cbbd 079f e4bc 2df2 8bbd 454a 25bd
000001c0: 93b1 26be 710d 31be 191e 9abd 582d e8bd
000001d0: 0d11 36be 924e eebd 8829 adbd 01a9 95bd
000001e0: 8475 96be c132 dabd 1d20 1dbe 3a30 45be
000001f0: ee0d 57be 681f 3ebe cd01 1cbe fb42 04be
-0.16917504 -0.10936242 -0.15225263 -0.18691602 -0.21045107 -0.19364464 -0.0784387 -0.13423206
-0.1313634 -0.008857581 -0.20841248 -0.26516727 -0.31520054 -0.106577516 -0.02464673 -0.10582644
-0.07085559 -0.12256899 -0.083285235 -0.19494021 -0.04714561 -0.26991382 -0.3528755 -0.13709292
-0.21411023 -0.17109469 -0.18565163 -0.09106101 -0.1299796 -0.14167912 -0.031601634 -0.018094499
-0.21528834 -0.053322233 -0.1595647 -0.13761503 -0.23705076 -0.16037747 -0.16860142 -0.22925207
-0.21539462 -0.23229213 -0.20488712 -0.1933627 -0.20652564 -0.14636001 -0.12942119 -0.0148267485
-0.20333643 -0.16224799 -0.0976558 -0.1522977 -0.18743204 -0.23063007 -0.07665184 -0.038445253
-0.1577292 -0.06388594 -0.15033077 -0.14654383 -0.12120995 -0.049704444 -0.15241948 -0.11442004
-0.0780829 -0.14694263 -0.015649805 -0.14728235 -0.09262552 -0.13664553 -0.26002902 -0.008427067
-0.1252304 -0.12604733 -0.23758137 -0.1096201 -0.09805169 -0.13994981 -0.060389448 -0.18478948
-0.13907953 -0.13202184 -0.29386687 -0.15070118 -0.033504635 -0.11366364 -0.15837556 -0.16716537
-0.2470778 -0.04494418 -0.016733507 -0.05899641 -0.08070924 -0.13266459 -0.179929 -0.15709835
-0.0723078 -0.14031301 -0.09202756 -0.117892034 -0.210996 -0.11382676 -0.044039384 -0.22276954
-0.08503135 -0.019483358 -0.17269635 -0.08088937 -0.0994644 -0.027907861 -0.06833301 -0.040354032
-0.16278677 -0.17290284 -0.07525272 -0.11336774 -0.17779942 -0.1163608 -0.08455187 -0.073076256
-0.29386532 -0.10654212 -0.15344281 -0.19256678 -0.21001408 -0.18566668 -0.15235062 -0.12916176

transformer.layers.1.linear2.bias f4 [64]
00000000: 507e 9c3c 3c5f 9dbd cd46 723d 29bd 7c3d
00000010: 61ab 04bd 0974 183d 3c8e c13d d09a 963d
00000020: 1f72 053c 8ac4 b23d da64 9b3c e69f 183d
00000030: 3a4f 043c 1175 ef3b 32bc 9abd ad4a ab3d
00000040: c26c ac3d c131 a63d decc 95bd 3ba5 853d
00000050: eead 2abc 1fd0 913d 271e 24bc fd94 243e
00000060: 2a5c d93c b736 ccbc 12b0 f83d 28ca 89bd
00000070: 6a10 103d ac55 443d 1c38 98bd da86 c6bb
00000080: 7e65 863d 61b4 db3c 1a17 633c c2ab 933c
00000090: 921d 9dbd 936e 54bd 7f3e efbc 0778 9dbd
000000a0: 7f21 d33d 2d1b e53d 336f f8bd 86e9 93bd
000000b0: e48a b3bd ac8c d8ba 64b1 723d 938e f23c
000000c0: b2b1 0ebd 7d8f 0fbe cd17 35be 620d eb3b
000000d0: 460b a53d 10a9 0cbe e9cd 78bd 7f0c c9bc
000000e0: 6199 5e3c 64ab ea3c 13bd 643c 6119 3fbc
000000f0: ef21 c43c c5ce bbbd fbdf 943d 1ea7 90bd
0.0191032 -0.0768418 0.059149552 0.061703835 -0.032390002 0.037220035 0.09450957 0.07353747
0.008144884 0.08728893 0.018968988 0.037261866 0.00807553 0.0073076566 -0.07555427 0.08363853
0.084191814 0.081149586 -0.07314466 0.06525656 -0.010417445 0.07119774 -0.0100169545 0.1607246
0.026533205 -0.024928434 0.12142958 -0.06728011 0.035171904 0.047933266 -0.07432577 -0.006058556
0.06562327 0.02681941 0.013860488 0.018026236 -0.07671656 -0.051863264 -0.029204605 -0.07688909
0.10309123 0.11186824 -0.121305846 -0.072222754 -0.08766726 -0.0016521416 0.059251204 0.029609
-0.034837432 -0.1401958 -0.1768486 0.007173226 0.08058791 -0.13736367 -0.060743246 -0.024542091
0.013586373 0.028646179 0.013961094 -0.011663766 0.023941962 -0.091702975 0.072692834 -0.07063125

transformer.layers.1.norm1.weight f4 [64]
00000000: 2ec5 5b3f a567 2b3f d6ba 3f3f b273 463f
00000010: 055c 283f e9d4 533f 34c2 603f 8693 1b3f
00000020: a715 363f 5f02 373f 0ce0 323f 8f5e 343f
00000030: 3a77 373f ee4c 313f e307 6d3f b91c 4b3f
00000040: 96e9 6d3f 479a 1a3f 37d9 443f 837b 243f
00000050: 0b7c 133f 7251 0f3f d8b9 153f 189d 443f
00000060: 0df0 913f c58e 223f 3cab 203f a9c5 2b3f
00000070: 9054 203f 134c 6b3f c1c4 8b3f 50a5 173f
00000080: 55e2 393f 1926 293f 3485 0a3f f370 493f
00000090: 0d8f 173f d807 503f b7f2 323f f7ca 4a3f
000000a0: a22d 663f 1266 713f c9ee 193f 284c 153f
000000b0: 11c3 2e3f 837b 243f cade 243f dbe3 3e3f
000000c0: d731 2a3f d9fc 473f 1c9a 383f 1af2 1e3f
000000d0: 3b57 223f e571 2e3f c9af 1c3f 47a0 273f
000000e0: 2546 183f 36d3 393f cc9c 323f 3e43 4e3f
000000f0: 0e4d 173f 708e 1b3f fb27 573f 5aab 153f
0.8584775 0.66955024 0.74894464 0.7752029 0.6576541 0.8274675 0.8779633 0.6077198
0.7112679 0.71487993 0.6987312 0.70456785 0.716663 0.6925801 0.9259016 0.793407
0.9293455 0.6039166 0.76893944 0.64250964 0.5761115 0.5598365 0.584867 0.76802206
1.1401383 0.634991 0.6276128 0.6709848 0.6262903 0.91912955 1.091942 0.5923662
0.7261098 0.6607376 0.541095 0.7868797 0.59202653 0.8126197 0.69901603 0.7921595
0.8991338 0.9429637 0.6012998 0.5831933 0.682664 0.64250964 0.6440245 0.7456643
0.664823 0.7812019 0.7211015 0.6208817 0.63414353 0.6814254 0.61205727 0.6547894
0.5948203 0.7258791 0.69770503 0.80571353 0.5910195 0.6076422 0.8404538 0.58464587
