checkpoints/fingering_transformer_left.pt (torch, 433381 bytes, 41 tensors)

input_proj.weight f4 [64, 5]
00000000: 9143 45be 85c5 b13e fb3b 8fbd 4f68 2e3e
00000010: e31a efbd 112e 623e 0164 213e 151f 5b3c
00000020: c9ec 88be f0ea 30be ccf5 4f3f f4f9 37be
00000030: 1156 b13e 1a19 d53e 33af a33e a000 2b3e
00000040: 139d efbe 4285 313e 728c 0c3e cb33 be3d
00000050: 925b 6a3d d59b 67bf c8d6 94be a597 ef3e
00000060: 1072 503e 9cca 32be 241a e3bd bab4 113d
00000070: 3ee7 043f cd19 803c 202c 0640 f931 033f
00000080: bf62 673e 2258 0ebe 9ffd e93d cf19 81be
00000090: 19f1 56bf adc2 83be eb16 7d3e 9171 c4bd
000000a0: 7368 ee3f e9fb f23e a132 2cbe f33a f9bd
000000b0: 3f1e a4bc d217 80bf 1031 083f 37ef 023e
000000c0: 76fb bd3e cf54 1b3e 8f4a c53f a8b6 e5be
000000d0: 15d3 513d aca4 febe bd71 aabd 8e43 8fbf
000000e0: 2ed1 2cbe cbe3 3abc 4f2c 20be 9fd8 423e
000000f0: fa4c abbf 3260 de3e d66b 883e b521 9dbd
00000100: 9af0 14be 6be1 a43f dde0 1ebf 6c12 253d
00000110: 1f2f 80be 6740 9c3e 70f7 60bf 2769 483c
00000120: 8d3b 9bbd b9f4 23bd 8722 60be ba19 073e
00000130: d958 b03e da1c cb3d 9125 553e 4efb b1bd
00000140: a61b 91bf 4091 5ebe 16ee 733d 2092 d5bd
00000150: 71f6 c0be ce1b 5cbe 1be8 45be 3d67 f8bd
00000160: 5886 44bd 507f 793e 22e4 67bd d36c d9be
00000170: 7785 973e c0af 87be a900 d13d 8cad ebbf
00000180: 523d 48bf 2b15 08be 5c4d bbba 3354 6b3e
00000190: 476b 053f cda1 243f afb6 983d e125 a3bd
000001a0: 0e5d 5c3e 096e 7c3e 7af5 4bc0 e4fe a8be
000001b0: 1b35 683e 4bbd 10be cf01 303f 2705 14bf
000001c0: 9ba2 36be 1e27 b4bc 449a 42bd 3a6e 08bf
000001d0: 1b9b 39bf 9e5e 113e b089 743e 764a 863e
000001e0: da7d b13e 0e11 9d3d ef19 9b3e 2aa1 803e
000001f0: 140c 2abe 45a1 f7bf cbbc 863e 6e79 2cbe
00000200: 59b0 e23d 1f63 e0bd c925 8f3f c5d0 013f
00000210: 96c3 9fbe 83b9 f9bc ca7d 863e caed 08c0
00000220: 1cbc e3be e3dc 50bd a86a 84bd 6b2d 283e
00000230: 483d f7be ad20 69be 6576 1c3e 27d3 94be
00000240: f2fe 693e 04f9 ccbf 6459 5f3f 6cab 39be
00000250: 5e74 dfbe e905 a23e 2039 d2bf d4e9 41bf
00000260: a630 0f3e 4db9 a83d 9725 1abe c14b 86be
00000270: 59fb 5fbf d7da 8a3d 5a8b a6be c49f c53d
00000280: c018 a63e 464c 413f 328d 813e 87da 92be
00000290: 4a0b 3f3e b734 8d3f a801 08bf 773b 3dbe
000002a0: 3714 cfbe 25c1 953d 8d8e 1cbf fa05 ce3e
000002b0: e220 cd3e c1ec 4b3e dfa8 313e e0fb 1140
000002c0: f5d9 1d3f cbff 433c 4df6 093e b6f1 8c3e
000002d0: 92df 853f b35d f63e 910b cfbc 5ee4 b1be
000002e0: 0d4b bebd 6a80 35bf 4612 dabf eb19 29bd
000002f0: 223c 99be 7453 613e f56d 0ec0 3ed1 a13c
00000300: f07f 33be 7779 893e 9d52 243d 648b 263f
00000310: cb9e 1bbf 8351 0e3e dca0 c13d 913a e1bd
00000320: f852 b7bf ca9b a13f b963 0ebe 777f 973e
00000330: f755 c9bc 68fa d23f c2aa 1bbf a3e8 b1be
00000340: 41dc 48be 8b21 24be 9839 64bd 8f23 ae3e
00000350: 7970 6f3e 0a4b 95be a566 cfbd 86b9 293e
00000360: 4afc d2be dee8 e43c c072 fb3d 0970 cd3c
00000370: 74d2 1340 6474 35be 2481 7a3e 9983 32be
00000380: 51d2 63be de0c cfbf 3584 09be 7c24 14be
00000390: d81e 4c3e 28da 263e c06c 98bf 53c6 843e
000003a0: bfa5 623e a9d7 e8bb a279 b2be b010 603f
000003b0: 578f 553f 849c 99bd 14c0 62be 76b9 d83d
000003c0: 9228 8c3f 8904 a83f e132 01be a114 a3bd
000003d0: 64c0 64be 672c 8dbf 2af4 e03e 62de a6be
000003e0: f7a0 88bc df31 11be 7e0c 8fbf d629 dbbe
000003f0: df49 ef3d dded 723e ff94 72bd 9a64 24bf
-0.19264056 0.34721008 -0.06993862 0.17031978 -0.1167505 0.22087885 0.15760805 0.01337411
-0.26743153 -0.17277122 0.8123443 -0.17966443 0.34635976 0.41620713 0.31969604 0.16699457
-0.46799526 0.1733599 0.1372545 0.092872225 0.057216235 -0.90472156 -0.29070115 0.46795383
0.20356011 -0.17460102 -0.1108897 0.035572745 0.5191535 0.015637303 2.0964432 0.5124813
0.22596262 -0.13900807 0.114253275 -0.25215003 -0.83961636 -0.25734463 0.24715774 -0.095919736
1.8625625 0.47457817 -0.16816188 -0.12169447 -0.020033954 -1.0007269 0.53199863 0.12786566
0.37105912 0.1516907 1.5413378 -0.44865918 0.051226694 -0.4973501 -0.08322475 -1.1192491
-0.1687667 -0.011406849 -0.15641902 0.19027947 -1.3382866 0.43432766 0.26644772 -0.07672445
-0.14544907 1.2881292 -0.62061864 0.04030077 -0.2503595 0.30517885 -0.8787756 0.0122321015
-0.07579718 -0.040028308 -0.21888171 0.13193408 0.34442785 0.099176124 0.20815112 -0.08690511
-1.1336563 -0.21735096 0.05955323 -0.10428262 -0.3768802 -0.21494982 -0.19326822 -0.12129066
-0.047979683 0.24364972 -0.05661405 -0.4246584 0.29594013 -0.26501274 0.10205204 -1.8412337
-0.7821857 -0.13289325 -0.0014290023 0.22981338 0.5211682 0.6430939 0.07456719 -0.07966209
0.21519873 0.2465135 -3.1868577 -0.33006966 0.22676508 -0.1413471 0.6875276 -0.5782036
-0.17835467 -0.021991309 -0.0475104 -0.5329319 -0.725023 0.1419625 0.23880649 0.26228684
0.3466633 0.076692685 0.30293223 0.25122958 -0.1660617 -1.934609 0.26315913 -0.16843197
0.11068792 -0.10956406 1.1183406 0.5070918 -0.31203908 -0.030483967 0.26267844 -2.1395135
-0.44479454 -0.050991904 -0.064656556 0.16423576 -0.4828894 -0.22766371 0.15279539 -0.29067346
0.2285116 -1.6013494 0.87245774 -0.18131799 -0.4364347 0.31645134 -1.6423683 -0.7574742
0.13983402 0.08238468 -0.15053402 -0.2622967 -0.874929 0.06780022 -0.32528192 0.096496135
0.32440758 0.7550701 0.25303036 -0.28682348 0.1865665 1.1031712 -0.5312753 -0.18479715
-0.4044511 0.0731223 -0.61155015 0.40238935 0.4006415 0.19914533 0.17349575 2.2809982
0.616607 0.011962841 0.13472863 0.2752816 1.0458853 0.48118362 -0.02527407 -0.34744543
-0.092916586 -0.7089907 -1.7036827 -0.041284483 -0.2992869 0.22004491 -2.2254612 0.019753095
-0.17529273 0.26850483 0.04011785 0.65056443 -0.60789174 0.13898282 0.094545096 -0.10997499
-1.4322195 1.2625668 -0.13905229 0.29589435 -0.024577124 1.6482668 -0.6080743 -0.347478
-0.1961527 -0.1602842 -0.05571899 0.34011504 0.23382749 -0.29158813 -0.10127 0.16574678
-0.41208106 0.027943071 0.12277746 0.025077837 2.30972 -0.17720181 0.24463326 -0.17433013
-0.22248198 -1.6175802 -0.13429339 -0.14467043 0.19933641 0.16294158 -1.1908188 0.2593256
0.2213354 -0.007105787 -0.34858423 0.87525463 0.83421844 -0.07500556 -0.22143584 0.10582249
1.0949881 1.3126384 -0.12617065 -0.07962919 -0.22339016 -1.1029176 0.43936282 -0.3259154
-0.016678317 -0.1417918 -1.1175687 -0.42805356 0.11684012 0.2372355 -0.059224125 -0.64216006

input_proj.bias f4 [64]
00000000: 4e3b 393d 3d0a 063d 105f 97bd c270 79be
00000010: 2169 683e 1895 25be 3a9b 803e dd4b 9d3d
00000020: 9643 f0bd ab75 55be 0d30 95bd 710e 3f3e
00000030: c7c8 3cbe 9af0 14be 4813 32be d2b2 84be
00000040: daf2 6a3d d8f4 9bbe df60 34bc 1597 2dbe
00000050: 10b2 993e 4039 e9be 6dad 263e fde9 a8be
00000060: 1753 4fbe b599 9ebd 9787 2a3e 2372 b0be
00000070: a2cb 743e 9deb 8fbe 8de7 673e 86de bfbe
00000080: 1bb0 433d 2a2b 913b 1e79 a0bd c8d5 87bd
00000090: 7343 953d 901c 503d 110e bdbd d109 9dbe
000000a0: 965c 9c3e 9c81 213b aa41 d4bd fffd 46be
000000b0: 6480 543d 7375 043d 8d3d f7bd 7ba3 3f3d
000000c0: b193 053e e386 393d e83c c4bc 18a0 9abe
000000d0: a2aa 9b3e 60ca 8abe 992b 783e 1b08 f63d
000000e0: a3e7 44be 32d0 9bbe ea71 2c3e 90f1 68be
000000f0: 46be 813e 2ece 17be 6484 683e a559 81be
0.045222573 0.032724608 -0.073911786 -0.2435942 0.22696353 -0.16170156 0.25118428 0.076804854
-0.11731641 -0.20845668 -0.072845556 0.18657853 -0.18435965 -0.14544907 -0.17390168 -0.2591768
0.057360508 -0.30460238 -0.011009424 -0.16952164 0.30018663 -0.4555149 0.16277094 -0.3299102
-0.2024654 -0.07744161 0.16653286 -0.3446208 0.23905805 -0.28109446 0.22646923 -0.3747446
0.04777537 0.0044301944 -0.07835601 -0.066325724 0.072882555 0.05080849 -0.092311986 -0.30671552
0.30539387 0.0024643904 -0.10364087 -0.1943283 0.051880255 0.03233857 -0.12072287 0.046786766
0.13044621 0.045294654 -0.023954824 -0.30200267 0.3040362 -0.27107525 0.24235381 0.12013265
-0.19228987 -0.30432278 0.1684033 -0.22748399 0.2534048 -0.14824745 0.22706753 -0.25263706

pos_encoder.pe f4 [1, 50, 64]
00000000: 0000 0000 0000 803f 0000 0000 0000 803f
00000010: 0000 0000 0000 803f 0000 0000 0000 803f
00000020: 0000 0000 0000 803f 0000 0000 0000 803f
00000030: 0000 0000 0000 803f 0000 0000 0000 803f
00000040: 0000 0000 0000 803f 0000 0000 0000 803f
00000050: 0000 0000 0000 803f 0000 0000 0000 803f
00000060: 0000 0000 0000 803f 0000 0000 0000 803f
00000070: 0000 0000 0000 803f 0000 0000 0000 803f
00000080: 0000 0000 0000 803f 0000 0000 0000 803f
00000090: 0000 0000 0000 803f 0000 0000 0000 803f
000000a0: 0000 0000 0000 803f 0000 0000 0000 803f
000000b0: 0000 0000 0000 803f 0000 0000 0000 803f
000000c0: 0000 0000 0000 803f 0000 0000 0000 803f
000000d0: 0000 0000 0000 803f 0000 0000 0000 803f
000000e0: 0000 0000 0000 803f 0000 0000 0000 803f
000000f0: 0000 0000 0000 803f 0000 0000 0000 803f
00000100: a46a 573f 4151 0a3f ce7a 2e3f b054 3b3f
00000110: ba7d 083f 0e94 583f f090 d13e c792 693f
00000120: 3e39 9f3e 6b4e 733f 258f 703e f1d5 783f
00000130: 3a23 353e 83f6 7b3f f325 083e 28ba 7d3f
00000140: 7675 cc3d 98b8 7e3f 366f 993d d147 7f3f
00000150: ae36 663d 6898 7f3f fbac 2c3d bdc5 7f3f
00000160: 5b81 013d 3cdf 7f3f a53e c23c 93ed 7f3f
00000170: 43ab 913c a3f5 7f3f 497a 5a3c 2cfa 7f3f
00000180: 57d6 233c b9fc 7f3f 16b9 f53b 28fe 7f3f
00000190: 5a44 b83b f7fe 7f3f 5a2e 8a3b 6bff 7f3f
000001a0: 1c3e 4f3b acff 7f3f 0469 1b3b d1ff 7f3f
000001b0: 2015 e93a e6ff 7f3f 8bc9 ae3a f1ff 7f3f
000001c0: 6d12 833a f8ff 7f3f 8994 443a fbff 7f3f
000001d0: 136a 133a feff 7f3f 2217 dd39 ffff 7f3f
000001e0: 60cb a539 ffff 7f3f 0da8 7839 0000 803f
000001f0: 5377 3a39 0000 803f 6dd4 0b39 0000 803f
00000200: b7c7 683f 3311 d5be d95a 7f3f 534d 913d
00000210: 0af2 663f b2e8 dc3e 1135 3f3f 0339 2a3f
00000220: 1b54 173f ec7b 4e3f b5d3 e93e 69be 633f
00000230: f647 b23e a6fa 6f3f 82f0 863e f5f2 763f
00000240: f86f 4b3e a5e5 7a3f d300 193e 4f20 7d3f
00000250: 86d9 e53d f361 7e3f af85 ac3d 0e17 7f3f
00000260: c870 813d f97c 7f3f aa30 423d 4fb6 7f3f
00000270: 5da5 113d 8ed6 7f3f 5075 da3c b1e8 7f3f
00000280: 3ed4 a33c e5f2 7f3f 51b7 753c a1f8 7f3f
00000290: 9b43 383c dbfb 7f3f 0a2e 0a3c abfd 7f3f
000002a0: d83d cf3b b1fe 7f3f e868 9b3b 43ff 7f3f
000002b0: 0815 693b 96ff 7f3f 80c9 2e3b c4ff 7f3f
000002c0: 6812 033b dfff 7f3f 8594 c43a edff 7f3f
000002d0: 126a 933a f5ff 7f3f 2017 5d3a faff 7f3f
000002e0: 5fcb 253a fdff 7f3f 0ca8 f839 feff 7f3f
000002f0: 5377 ba39 ffff 7f3f 6dd4 8b39 0000 803f
00000300: c381 103e 2670 7dbf de3c 473f cebf 20bf
00000310: d745 7e3f ab7f edbd 6421 743f 6318 9a3e
00000320: c209 503f 582f 153f b724 273f a2e7 413f
00000330: 6c2f 023f 296d 5c3f a768 c73e 37c9 6b3f
00000340: 6c4e 973e ef90 743f e26d 643e 928c 793f
00000350: d7ee 2b3e 9e5d 7c3f 2c33 013e 43f4 7d3f
00000360: c0ff c13d 4fd9 7e3f 0693 913d 3a5a 7f3f
00000370: 4f69 5a3d c3a2 7f3f c5d1 233d 90cb 7f3f
00000380: 1fb9 f53c 83e2 7f3f 4747 b83c 6bef 7f3f
00000390: c631 8a3c adf6 7f3f 4644 4f3c c2fa 7f3f
000003a0: 0d6e 1b3c 0dfd 7f3f 141d e93b 58fe 7f3f
000003b0: a8cf ae3b 11ff 7f3f 1317 833b 7aff 7f3f
000003c0: 929b 443b b5ff 7f3f 606f 133b d6ff 7f3f
000003d0: 171f dd3a e8ff 7f3f 57d1 a53a f3ff 7f3f
000003e0: 0eb1 783a f9ff 7f3f 097e 3a3a fcff 7f3f
000003f0: 7ed9 0b3a feff 7f3f a4be d139 ffff 7f3f
0.0 1.0 0.0 1.0 0.0 1.0 0.0 1.0
0.0 1.0 0.0 1.0 0.0 1.0 0.0 1.0
0.0 1.0 0.0 1.0 0.0 1.0 0.0 1.0
0.0 1.0 0.0 1.0 0.0 1.0 0.0 1.0
0.0 1.0 0.0 1.0 0.0 1.0 0.0 1.0
0.0 1.0 0.0 1.0 0.0 1.0 0.0 1.0
0.0 1.0 0.0 1.0 0.0 1.0 0.0 1.0
0.0 1.0 0.0 1.0 0.0 1.0 0.0 1.0
0.84147096 0.54030234 0.68156135 0.731761 0.53316844 0.84600914 0.4093089 0.9123959
0.3109836 0.9504153 0.23492105 0.9720145 0.17689219 0.9842302 0.13295726 0.99112177
0.099833414 0.9950042 0.07491915 0.9971896 0.05620449 0.9984193 0.042157155 0.999111
0.031617504 0.99950004 0.023711512 0.99971884 0.01778186 0.99984187 0.013334819 0.99991107
0.009999833 0.99995 0.0074988706 0.99997187 0.0056233825 0.9999842 0.0042169513 0.9999911
0.0031622713 0.999995 0.0023713717 0.9999972 0.0017782785 0.99999845 0.0013335211 0.9999991
0.0009999998 0.9999995 0.000749894 0.9999997 0.0005623411 0.9999999 0.0004216964 0.99999994
0.0003162278 0.99999994 0.00023713727 1.0 0.00017782794 1.0 0.00013335208 1.0
0.9092974 -0.41614684 0.99748 0.070948265 0.9021307 0.43146282 0.7469035 0.6649324
0.5911271 0.8065784 0.45669332 0.8896242 0.34820527 0.93741834 0.26355368 0.96464473
0.19866931 0.9800666 0.1494172 0.98877424 0.1122313 0.9936821 0.084239356 0.99644554
0.063203394 0.9980007 0.04740969 0.99887556 0.035558093 0.9993676 0.026667267 0.99964434
0.019998666 0.9998 0.014997319 0.9998875 0.011246587 0.99993676 0.008433828 0.9999644
0.006324511 0.99998003 0.0047427304 0.99998873 0.0035565514 0.9999937 0.0026670396 0.9999964
0.0019999985 0.99999803 0.0014997876 0.99999887 0.0011246821 0.99999934 0.0008433927 0.99999964
0.0006324555 0.9999998 0.0004742745 0.9999999 0.00035565588 0.99999994 0.00026670416 1.0
0.14112 -0.9899925 0.7782725 -0.6279267 0.9932532 -0.11596616 0.9536345 0.3009673
0.8126489 0.58275366 0.652904 0.7574407 0.5085361 0.86104065 0.3894703 0.92103904
0.2955202 0.9553365 0.22307542 0.9748012 0.16790329 0.9858035 0.12617177 0.9920084
0.094726086 0.99550337 0.071081206 0.9974705 0.053323086 0.9985773 0.039994974 0.99919987
0.0299955 0.99955004 0.022494925 0.999747 0.016869437 0.9998577 0.012650555 0.99992
0.009486687 0.999955 0.007114062 0.9999747 0.005334813 0.99998575 0.0040005534 0.999992
0.0029999954 0.9999955 0.0022496805 0.9999975 0.0016870227 0.99999857 0.0012650889 0.9999992
0.00094868324 0.9999996 0.00071141176 0.99999976 0.0005334838 0.9999999 0.00040005625 0.99999994

transformer.layers.0.self_attn.in_proj_weight f4 [192, 64]
00000000: 5c90 1b3d f63f 4abe 58ff 2b3e 4e5a cabd
00000010: a76e d13d 0870 fe3d efe0 373d ff09 8f3d
00000020: 0dd2 ecbc 4af0 ba3e fcbd b9be b5e5 ea3d
00000030: 2590 45bd 527c 2ebe 5725 453d 0471 00be
00000040: 4a96 4d3e e6bd aabe ee19 e43d fdea 93bc
00000050: 3ea7 9f3e c4c0 b0be e10a 1f3c 5e00 a6bd
00000060: 9faa 073e c8fe ac3d 1bb1 263e ef1d 0f3e
00000070: 36a8 043e b0fc 8d3e dacd 87bd f669 e7bd
00000080: a323 a73e f307 d63d f899 633e ad46 6fbd
00000090: 8e8b d03c 851a da3c cc03 abbb a081 063b
000000a0: b245 813e 06b8 b0bc f74c b13d 74c3 b13d
000000b0: ed1b dbbd 89c1 403d 1777 4c3d 0c7f 69bc
000000c0: 086c 383c 2937 923d 7788 d63d d6e1 753d
000000d0: 8b7f 9f3c 983a 3b3e da4b 013e de90 0c3e
000000e0: 3530 c53d 679c 433e 6ec3 09be 42ce ca3d
000000f0: 18a7 39be 44bf 923d e381 653d c8bc 05bc
00000100: 0d7a 6fbe 83cc 973d 6de4 c1bd d1ff 513d
00000110: dc37 36be e1a9 15be 8abc d33c b38d b23d
00000120: 8104 3cbd f7d0 44be 2230 a43e 9762 aa3d
00000130: 88a6 633d 9cf5 d63e aaa6 bbbd c250 973b
00000140: f88d 36be 6630 343e 11de 443b 055c 1f3d
00000150: cceb bbbd f55a 6e3e 48bf 18be 3a84 eb3d
00000160: d2e0 00be 90a5 3a3c 5e4c 1bbe 716a 0dbd
00000170: c65c d33d 43e9 01be 7f21 253b a0e0 873e
00000180: 27a6 c13d 0d89 c73d b204 f5bd 3f9b a93d
00000190: ba09 cc3d ddcf 9b3d 68b9 92be 1247 66bd
000001a0: b197 84be 490c e73d 1fad b63d 8d5e 00bd
000001b0: 569e 863e ae21 07be df40 59be d213 57bc
000001c0: e479 e3bd 3268 fabd a7ca 0fbe c197 6abd
000001d0: 1305 403e 374a 04be d0b5 7fbe 6363 3a3e
000001e0: 600d 8bbe e7f5 e8bd 8ba9 f43c 2a25 53bd
000001f0: edb1 6d3e c1dd e53d da5d c23e 7f8a f2bc
00000200: 96b0 443e e7bb 37be 41fb 203e db5d 883d
00000210: 554d 903c d2e6 cc3d 98fb aabd 0883 833e
00000220: 82dd b0bd 2b5c 103d 0276 74be 132a 983c
00000230: f945 573d 5eee 68bc ce37 b63c 46de debd
00000240: 80ed 423d 1d48 6abd 1a0c 3dbe d65c f63c
00000250: 55fb 44bd ceae 84be 5a8c 66bd c872 6cbe
00000260: 3ed8 9dbe 38f1 54bd 010e 143e 088b 76bd
00000270: 48f1 81bc 6949 d13e b8fa 2fbe e55e 8d3d
00000280: ddc9 503d 1b2b 4bbd 617c 36be 6854 153c
00000290: d1fc 7b3e 5287 9ebd 6ca0 893e 490a e53c
000002a0: c657 cc3d d752 9e3d e507 f63d e4a0 36be
000002b0: 3962 11be 96b3 613d a66b 853e 9371 04bd
000002c0: 06d7 763d 9382 1b3c 41e3 e0bd 26b6 c63c
000002d0: 6c21 993c 96d1 e43d 7e9c 953e e350 a33c
000002e0: b8d8 c23d 8664 9c3d 6415 c43d c275 a83d
000002f0: 9aee d0bd e4bb 82bc 1ae3 e3be dba4 93bd
00000300: 9643 9abe 2f4a 1e3d cbee 3bbe aad3 c73d
00000310: ca97 8f3b c9c1 5cbe 6c96 563d 2a6a 55bd
00000320: 7bf0 0d3e 8a71 e6bd 67aa 913e 3ce7 82bd
00000330: a15e fe3d 84e1 cf3e 9d0c c33b c71f 8b3d
00000340: 0843 3abe 82ec 2c3e 0104 da3c 0f0c f93d
00000350: 4d15 37be ae14 913e 6977 98bd a961 d13d
00000360: f68d 00bc 55b9 493d 9491 3dbc 1141 5ebc
00000370: eb4e cc3c bc33 e9bd 1cfa 1ebd 20f3 5e3e
00000380: ef27 2b3d a98c 28bc 7761 e5bd 0a94 013b
00000390: de64 67bd 179c 113d 5aab 17be 4635 123e
000003a0: 4cd8 01be fd97 9c3c 905a 66bd 0296 083e
000003b0: 5de4 3b3e 3d21 e2bc 6f54 b7be cf2e f9bd
000003c0: 0d96 22be 83a1 18be 0280 d13d 7371 33be
000003d0: 2f4f 4f3d 490a bbbd 90a1 25be 8b85 0e3e
000003e0: 9567 9bbe db56 8d3d af05 2ebe 3ae3 da3d
000003f0: 60e0 813e 468f ed3d ce65 c53e e25c 1a3d
0.03797947 -0.19750962 0.16796625 -0.098805055 0.102261834 0.12423712 0.044892248 0.069843285
-0.028908754 0.3651145 -0.3627776 0.114695944 -0.04823317 -0.17039612 0.048131313 -0.12543112
0.20076862 -0.33348006 0.11137758 -0.018056387 0.31182283 -0.34522069 0.009707184 -0.08105539
0.1324868 0.08447033 0.16278498 0.13976263 0.12954792 0.27731848 -0.0663106 -0.11299507
0.32644376 0.10450735 0.22226703 -0.05841701 0.02545717 0.026623974 -0.0052189585 0.002052404
0.25248486 -0.021572124 0.08657258 0.08679858 -0.10698686 0.04705957 0.04991826 -0.014251482
0.011256225 0.07139427 0.10475247 0.060029827 0.019469997 0.1828407 0.12626591 0.13727137
0.096283354 0.19102632 -0.13453457 0.09902622 -0.18130147 0.07165387 0.056032073 -0.008162685
-0.23386402 0.074120544 -0.09467397 0.051269356 -0.17794746 -0.14615585 0.025846738 0.08718433
-0.045902733 -0.19220339 0.32067972 0.08319586 0.05557874 0.4198426 -0.09162648 0.0046177814
-0.17827594 0.17596588 0.0030039588 0.038906116 -0.09175834 0.23276885 -0.14916718 0.114998296
-0.12585762 0.011392012 -0.1516585 -0.03452534 0.103204295 -0.12686639 0.0025196967 0.26538563
0.09455519 0.09742937 -0.11963786 0.08281564 0.09962793 0.07608006 -0.2865708 -0.05622012
-0.2589698 0.1128164 0.08919739 -0.03134017 0.26292676 -0.13196442 -0.21216153 -0.013127284
-0.11107233 -0.12226905 -0.1404215 -0.05727363 0.18751936 -0.12918936 -0.249717 0.18201976
-0.27158642 -0.11375027 0.029866 -0.051549114 0.23212405 0.11223937 0.37962228 -0.029607056
0.19207987 -0.17942773 0.15720846 0.066585265 0.017615 0.10004963 -0.08348769 0.25685906
-0.08635999 0.03524415 -0.23873141 0.01857475 0.052556966 -0.014216987 0.022243407 -0.10882239
0.04758978 -0.05719768 -0.18461648 0.030073564 -0.04809125 -0.25914615 -0.056286193 -0.2309066
-0.30829042 -0.051987857 0.14458467 -0.060191184 -0.015862122 0.4087632 -0.17185485 0.06902865
0.05097376 -0.049601655 -0.17820884 0.009114362 0.2460816 -0.07740654 0.26880205 0.027959006
0.09977679 0.07730644 0.120132245 -0.17834812 -0.14197625 0.055102907 0.26058692 -0.032334875
0.060263656 0.009491581 -0.10980845 0.024256777 0.018692695 0.11172788 0.29220957 0.01993603
0.09513992 0.07636361 0.095743924 0.082255855 -0.1020176 -0.015958734 -0.44509202 -0.07209178
-0.3012969 0.038644966 -0.18352811 0.097571686 0.0043821083 -0.21558298 0.052389547 -0.0521032
0.13861267 -0.112521246 0.2845032 -0.06391761 0.12420393 0.40601742 0.0059524314 0.067931704
-0.18189633 0.16887096 0.026613237 0.12160503 -0.1787922 0.2833609 -0.07444651 0.10223705
-0.007846346 0.049249012 -0.011570353 -0.013565318 0.024939975 -0.11386821 -0.03881274 0.21772432
0.04178613 -0.010287442 -0.112002306 0.0019772076 -0.05649268 0.03554925 -0.14811459 0.14278135
-0.12680167 0.019115442 -0.05623871 0.13338473 0.18348832 -0.02760374 -0.35806605 -0.12167131
-0.15877552 -0.14905362 0.10229494 -0.17523746 0.050612625 -0.09132821 -0.16174912 0.1391813
-0.30352464 0.06901332 -0.16994356 0.10687871 0.25366497 0.11599593 0.38554233 0.037686236

transformer.layers.0.self_attn.in_proj_bias f4 [192]
00000000: 9e7c 4e3d 6ccf 82bc 22a7 92bc 8eca 34bc
00000010: 6e4b 35bd 61d9 3f3d 94a3 e5bd 9266 8b3d
00000020: 6725 0f3c 9474 f63a 43c8 fc3c 9ab9 dfbc
00000030: 6fb9 993c b427 0dbb b078 1c3c 1212 bbbd
00000040: 3bf0 e53d 6318 173d 902d d3bd b51d 04be
00000050: 566d 98bd f6cb aebd 4dcc 9c3c 5698 bbbd
00000060: dda6 b43d 6808 4a3d 129f d1bd 8db7 8dbd
00000070: 4c0f cbbd a24b afbd 33e4 083e ff00 10be
00000080: 91a5 eb3a 29a3 4fbd 9a8c c73c 0781 1cbc
00000090: 39f8 983b 23e7 313c 8889 9cbc 19c6 aa3c
000000a0: a4f5 57bc cea5 853d 9a29 e3bc 6fa9 be3b
000000b0: f3fe 55bc 2060 c43c ca94 cbbc 65e4 583c
000000c0: fc05 c73d 0ee7 11be 824a 1e3e 0116 ab3d
000000d0: 074b 84bc cc0d 683d 5b5b 13be a45c 2cbc
000000e0: fc36 583d db9b a73d b9d8 b8bd 64e5 933c
000000f0: 69bf 98bd f0cc bf3d 0bfa b63d e344 253e
00000100: 1118 543a f86d 3d3a 3536 1cba ae8d e6b9
00000110: 768c 1fba 6287 69b9 037a 3c38 c79d 1a3b
00000120: ce38 1e3b 1b03 653a 7f24 fd39 f7bf f9b9
00000130: 1c83 d6b8 5e37 3ebb 5c11 5139 564f d6bb
00000140: 164a 043c 1e96 143b 16d0 5cb9 662b 703a
00000150: 3088 db3b 7980 91ba 2768 a1b9 4375 0f3a
00000160: 359b 023b 307c 9439 94a7 b8b9 dc58 e0b8
00000170: 7ee7 9bbb 0999 2bbb 3b83 673b bc15 ba3a
00000180: 86a8 80b9 a8c3 613a 91de 313b 2f64 17bb
00000190: 0e1e 1ab9 ae72 a2b9 d6eb 5639 47a3 82ba
000001a0: 0233 a938 465f 84ba fc34 17bb 0981 23ba
000001b0: 3e5c 4fb5 85af 213b 844a 67ba 45c0 b83a
000001c0: 67a1 87b7 8ba9 1abc c66e 0abc cacd 0d3b
000001d0: 855f a13a ce3b 443b 38dd 89b7 6e56 a9ba
000001e0: 7551 a03a d740 303a 230e 55bb 0abf e6ba
000001f0: 362c 08bb d0df e03a 20f8 38bb b91c cf39
00000200: 4c44 c1bc 0a9d 873c d59b 73bc ac1e 533b
00000210: 5145 583c d03b 39bb a1be 84bb c387 37bb
00000220: 0372 d33b 5b5d c13a 8bc0 443b cb33 7cbb
00000230: db34 5e3c 574c 1d3c 2b15 67ba e014 e43c
00000240: 1f9d 113c 60a2 31bb 3c54 21bb e2d0 773b
00000250: 6be0 d8bc b417 cd3b 969e 4c3c 5575 18bb
00000260: 5545 bf3a f32e d53a 975f dabb 0007 343b
00000270: 81c0 5a3c b92b f1bb a668 e6bb 53ba a23c
00000280: d534 80bb 09ee 643c 71b1 af3b 96c3 d93b
00000290: 1638 593b af80 f0bc ac55 a33c 5b48 cfbb
000002a0: bef2 be3b 279a 8abc 271b 603c 7844 24bb
000002b0: 317e 4c3b b93a d9bc 4e68 a93c b65f 3eba
000002c0: 9899 6c3c 3742 713c ca5a a3bb 967b 12bb
000002d0: c11c b03b 3d52 b7bb 6d2e cabb 738a 953c
000002e0: a76b c73b eeb8 9d3c 7641 06bc ec21 433c
000002f0: 60df b63b 43eb 8c3c 9d0b a93b 04bd cd3b
0.050411813 -0.015968047 -0.01790196 -0.011034621 -0.04426139 0.046838168 -0.11212841 0.06806673
0.008736945 0.0018803054 0.030857211 -0.027310181 0.01876518 -0.0021538557 0.0095502585 -0.09134306
0.11227461 0.03688849 -0.10311425 -0.12901957 -0.07442729 -0.08534996 0.019140387 -0.09159915
0.08820889 0.049324423 -0.102354184 -0.06919775 -0.09915027 -0.08559348 0.13368301 -0.1406288
0.001797842 -0.05069271 0.024359036 -0.009552247 0.0046682623 0.01085833 -0.019108549 0.020846413
-0.013181124 0.06525765 -0.027729798 0.005818538 -0.013061273 0.023971617 -0.024851222 0.013238047
0.09717938 -0.14248297 0.1545811 0.08353806 -0.016149057 0.056653783 -0.14390318 -0.010520134
0.052786812 0.08184024 -0.090257116 0.018053718 -0.074583836 0.093652606 0.08934411 0.1613956
0.00080907444 0.00072261645 -0.0005959005 -0.00043974578 -0.0006086299 -0.00022271046 4.4936325e-05 0.0023592578
0.0024142745 0.00087361195 0.00048283112 -0.00047636006 -0.00010228736 -0.00290247 0.0001993826 -0.0065402193
0.008074304 0.0022672485 -0.00021058353 0.00091617403 0.0066995844 -0.001110091 -0.00030785913 0.00054724904
0.0019928936 0.00028321287 -0.0003522007 -0.00010697704 -0.0047578206 -0.0026183745 0.0035326022 0.0014197151
-0.00024539622 0.0008612224 0.0027140717 -0.0023100486 -0.0001469778 -0.0003098449 0.00020496486 -0.0009966873
8.068049e-05 -0.0010099194 -0.0023072353 -0.0006237184 -7.724774e-07 0.0024671268 -0.00088230544 0.0014095387
-1.6168413e-05 -0.009439836 -0.008449262 0.0021637552 0.0012311792 0.0029942873 -1.6434686e-05 -0.0012919435
0.0012231307 0.0006723529 -0.0032509647 -0.0017604541 -0.0020778305 0.0017156545 -0.0028224066 0.00039503517
-0.023592137 0.016554374 -0.014868696 0.0032214327 0.01320012 -0.002826441 -0.004051045 -0.0028004504
0.0064528002 0.0014752554 0.003002199 -0.003848302 0.013562406 0.00960072 -0.0008815105 0.027841985
0.008887558 -0.002710484 -0.0024616858 0.0037813713 -0.026474198 0.006258929 0.012488982 -0.0023263295
0.0014592806 0.0016264602 -0.006664227 0.0027469993 0.013351561 -0.0073599485 -0.007031518 0.019864237
-0.003912548 0.013972768 0.005361729 0.00664563 0.0033145002 -0.029358236 0.019938312 -0.006325764
0.005827277 -0.016919209 0.013678349 -0.0025065225 0.0031203146 -0.026517259 0.02067962 -0.0007262187
0.0144409165 0.0147252595 -0.004985188 -0.0022351495 0.0053745215 -0.0055945204 -0.006170085 0.018254494
0.006085831 0.01925322 -0.008194318 0.011909943 0.0055808276 0.017202025 0.005158855 0.006278636

transformer.layers.0.self_attn.out_proj.weight f4 [64, 64]
00000000: 6526 e2bc db11 523d 023e 3bbc df11 763a
00000010: a96c d2bb 4140 e63c 1470 5dbc 67cd efbb
00000020: d72b 893d cb85 593d 724b b43c 172b 0b3c
00000030: 37b1 59bb ed9e 353d 9fae b43c 92c5 67bc
00000040: 1a3f d23b 38d4 7d3a 4666 f9bc 88dc bcbc
00000050: e6d1 afbb 803c a8b9 f4c8 da3b df0f dbbb
00000060: d2b5 c73c b207 a43c 29a9 a23b 2e8f 26bc
00000070: 95eb ddbb ec14 5a3b d2aa 863a 2816 ba3b
00000080: 9ce2 3a3c ef57 14bb 28f0 6bbc 10b5 87bc
00000090: 1f0e 983c d6f2 7ebc b74e cfbb 6c35 8bbc
000000a0: 5e16 a3bb a630 dc3b 2cd2 813c 4cd4 833d
000000b0: 11f2 713c df08 4bbd 4c76 8bb9 cde0 723d
000000c0: ca70 c7bc ab5d d5bc 24e0 41bd 00d2 b83b
000000d0: 18da 453d 94c9 54bb 9c54 efbb 8cb1 4a3c
000000e0: a3ad 8a3c 96f5 1abd 758d fabc 423a 2fbc
000000f0: cb40 a3bb 46bb 82bc 1c98 a73b 23b6 19bd
00000100: 2ef8 393c 6ee6 13bd 88c8 2abc 4b8a 8f3c
00000110: 3d76 873c 5e5b 5fbc 6ee4 093c 2433 11bd
00000120: 4440 213c a2a8 a1bc c2ef 08bd feec 713b
00000130: f7a0 88bb 0fe6 c9bc 4cd0 0ebb 4adb 1f3c
00000140: b56f 643c bea3 0a3b e429 863b 6795 0c3d
00000150: 1b61 c63c 9c42 2e3d cc8f 983c 88a2 57bb
00000160: a468 60bc 798e 78bc b394 0f3d d8ec babc
00000170: c88c 763c d531 f43c 7880 943c e340 27bc
00000180: c1e0 4d3d 85d3 533b 5f15 02bc 2c5d c7bc
00000190: a168 6c3a ee71 bebc ae91 313d 6987 053d
000001a0: 0026 1c3d b823 5a3d b0be 2a3c ff7e 423b
000001b0: 8554 e5bc d0c6 ce3c a747 1d3d 1967 473c
000001c0: 2b35 aebc e246 78bb 90dd 273d 9a89 653b
000001d0: b781 1abd f202 323b 412c fb3c 28eb 523c
000001e0: 2338 44bc e081 24bd dac4 de3c 606e 2a3d
000001f0: 7896 ecbc 17e1 83bb 8c52 983d edbc 27bd
00000200: 774e e9bc 2ca7 893d 56dc 0dbc 6df5 53bc
00000210: 7dc2 db3d 5ed2 2fbc 7f5d 39bd 3955 463c
00000220: f794 26bd 507f d4bd 9b5e ca3d 6f04 713d
00000230: 57a6 6e3d 3de3 963d 7ff2 31bc 392c ff3c
00000240: 2660 2fbd acb4 a43d 529e 3c3c 9a9f aebb
00000250: 4b73 15ba 9651 90bd 2a7d 2c3c 545f 11bd
00000260: f8f4 823d 987f d7bb 2a47 7a3d 08ec 643c
00000270: 6cc2 dd3c 98eb b5ba fe6e 183c fb6f a2bb
00000280: 4f35 9dbd 57c1 e03c 8ecd 8fbd 7cf3 8ebd
00000290: da6f 9ebc abe8 1c3d 220d 47bd 01bd 9abc
000002a0: 7859 03bd 550e 113d dd8b 023d 67f8 9cbd
000002b0: e854 7c3c e9af 64bd ebc5 dc3a a85f bc3b
000002c0: bf81 323d da0a eeba 372b 83bb 66cf dc3b
000002d0: e09b cb3c f683 213d 3532 f5bd e825 58bd
000002e0: 941e b1bd 474a 26bd e259 e0bc eeb1 703d
000002f0: a660 883d 3ce6 01bd 1209 cd3c da73 90ba
00000300: 296c b2bb 336a eb3c ca56 27bd fcb8 ea3c
00000310: b405 3e38 d6cd 38bc 49a2 0cbd 0c1e c9bd
00000320: 12e6 003e e2a0 3dbd 5962 a8bd 02cd 533d
00000330: f345 713d 9b24 993d 7e0f fa3c 54d5 8abd
00000340: b7bd f0bc 66ca 573c 5438 8a3c 8515 2abc
00000350: a165 133d 01d9 78bd fd7b 02bd 2f04 bd3d
00000360: b9c4 53bd d5e6 ebbc 70de 013d 9d60 1cbc
00000370: 74f9 3e3c e0a3 7e3d 038b 283d e43c 2a3d
00000380: b5dd b13d 7c6d 16bd ab04 80bb fe5b bd3d
00000390: 3f40 20bd b2be 85bb faec 9b3d 23fa 4a3d
000003a0: 16a5 e4bb 20f8 55bd 19d4 5a3c 4d08 ab3d
000003b0: c840 42bb 5eb1 9ebd fb30 443d 5fdc 83bd
000003c0: 7471 083b 4ba7 3abd 3df4 01be b2f1 933d
000003d0: 95b0 053e d119 d33c e639 10be a801 8bbd
000003e0: 536c 98bc e825 9b3d 72bf 69bd fe01 fabc
000003f0: fba1 183e da06 75bc 3d21 d8bd 623e f5bd
-0.027606199 0.05128656 -0.011428358 0.0009386818 -0.0064216447 0.02810681 -0.013515491 -0.007318187
0.06697815 0.05310611 0.022008631 0.00849416 -0.00332172 0.044341017 0.022055922 -0.0141462255
0.0064162137 0.0009682807 -0.030444276 -0.023054376 -0.005365598 -0.00032088533 0.0066767875 -0.0066852416
0.02437869 0.0200232 0.004964013 -0.010165973 -0.0067724683 0.003327663 0.0010274297 0.0056789108
0.011406567 -0.002263542 -0.014400519 -0.01656583 0.018561421 -0.015560826 -0.006326522 -0.016993247
-0.0049770316 0.0067196665 0.015847288 0.06436977 0.014767186 -0.049569007 -0.00026600284 0.059296418
-0.024345774 -0.02604564 -0.047332898 0.0056402683 0.048303694 -0.0032468783 -0.0073037874 0.012371432
0.0169285 -0.037831865 -0.03058503 -0.010695042 -0.004982089 -0.01595844 0.0051145684 -0.037527215
0.011350675 -0.036108427 -0.010423787 0.017521998 0.016535873 -0.0136326235 0.008416278 -0.035449162
0.009841982 -0.01973373 -0.033431776 0.003691494 -0.004169579 -0.024645833 -0.0021791635 0.009756872
0.013942649 0.0021154727 0.004094349 0.03432217 0.024216225 0.042543992 0.018623255 -0.0032903273
-0.013696823 -0.015170687 0.03505392 -0.022818014 0.015048213 0.029808918 0.018127665 -0.010208341
0.05026317 0.003232212 -0.007939666 -0.02433642 0.00090182765 -0.023247685 0.04335182 0.03259984
0.038122177 0.05325672 0.01042144 0.0029677746 -0.027994404 0.025241286 0.03839841 0.0121705765
-0.021265587 -0.0037884046 0.040982783 0.0035024644 -0.037721362 0.00271624 0.03066075 0.012873448
-0.011976275 -0.04016292 0.027193476 0.041609168 -0.028880343 -0.0040246355 0.074376196 -0.040951658
-0.028479798 0.06721339 -0.008658489 -0.012936932 0.10730455 -0.010731308 -0.04525518 0.01210528
-0.040669408 -0.103758454 0.09881326 0.05884212 0.058264103 0.07367561 -0.010861038 0.031149017
-0.042816304 0.08042273 0.011512356 -0.0053290846 -0.0005701079 -0.07046811 0.010527888 -0.035491303
0.0639438 -0.0065764897 0.061103024 0.01397229 0.027070247 -0.0013879417 0.009303806 -0.004957197
-0.076761834 0.027435942 -0.07021628 -0.06980035 -0.019340444 0.038307827 -0.04859651 -0.018888952
-0.032067746 0.03541406 0.031871665 -0.076645665 0.015401103 -0.055831823 0.0016843652 0.005748708
0.043580767 -0.0018161193 -0.0040029543 0.006738591 0.0248546 0.03943249 -0.11972467 -0.052770525
-0.086484104 -0.04059818 -0.02738661 0.058763437 0.06659059 -0.03171371 0.02502874 -0.0011020855
-0.0054450226 0.028737163 -0.040854253 0.02865266 4.530484e-05 -0.011279544 -0.034334455 -0.09820184
0.12587765 -0.046296008 -0.08221883 0.051709183 0.0589046 0.07477685 0.030524965 -0.0677897
-0.029387338 0.013170814 0.016872562 -0.010381107 0.035985593 -0.060753826 -0.031856526 0.092293136
-0.05170128 -0.028796593 0.031706274 -0.009544519 0.011656154 0.062168002 0.041148197 0.041561976
0.086848654 -0.036725506 -0.0039068065 0.09246062 -0.03912377 -0.0040815705 0.07613559 0.049554955
-0.0069776876 -0.052238584 0.013356232 0.083511926 -0.0029640663 -0.07748674 0.047898274 -0.06438517
0.0020819576 -0.0455697 -0.12690826 0.07223834 0.13055642 0.025769146 -0.14084587 -0.06787425
-0.01860634 0.075755894 -0.057067342 -0.030518528 0.1490554 -0.014955247 -0.10553215 -0.11974789

transformer.layers.0.self_attn.out_proj.bias f4 [64]
00000000: fc38 03bb 9ed0 abba 4d82 863c 69ca 573b
00000010: f01f 473a 39b9 383d 653c 933b 47bf 5f3c
00000020: de72 26ba c1cc 863b b3fe feba 8f32 c53b
00000030: 8f06 0a3b 84b5 d6ba 9d5a 973b e083 29bd
00000040: d341 8abb baae d3bb 207e b23c ae9b 27bb
00000050: 13b5 fd3b 5e50 c539 d67a 973b 681f 0c3c
00000060: 0c5b 2ab6 a574 63bb 4036 0136 c73a 8abb
00000070: 6bd1 2b3c 2647 a3bb 025f 813a 7f9d 653c
00000080: d714 583b 2eda 3fbc 94b7 733c 7a0c 0a3a
00000090: 96ba 0a3c b707 febb 367b 013c c9e5 5a3c
000000a0: 83f3 503a ce53 e2ba 5eec 153d e411 57bc
000000b0: eeb7 b53a f329 8abb a836 e33b 2a6f 4239
000000c0: 4673 a63a 8e57 b4bb 903a 573b 0266 9cbb
000000d0: 742e 66bc 4d5d 813b 5a7b a539 dcfa dc3b
000000e0: 2526 c83b 1874 81bb b884 0fb9 b512 83b9
000000f0: da2a 783b 7410 ddba 2ee2 0c39 16de 04bc
-0.002002298 -0.0013108437 0.016419554 0.0032927042 0.00075960066 0.045098517 0.0044932836 0.013656444
-0.0006349514 0.004113764 -0.0019454568 0.00601799 0.0021061038 -0.0016381 0.0046189562 -0.04138553
-0.0042192726 -0.006460038 0.021788657 -0.002557497 0.007742533 0.00037634646 0.0046227975 0.00855241
-2.538497e-06 -0.0034706977 1.9254076e-06 -0.0042184326 0.010486941 -0.004982847 0.0009870233 0.014014601
0.0032971406 -0.011709733 0.014875311 0.00052661414 0.008467337 -0.0077523845 0.007902911 0.013360449
0.00079708564 -0.0017267407 0.03660237 -0.013126824 0.001386402 -0.0042164265 0.0069340058 0.00018542694
0.0012699149 -0.0055036014 0.0032841302 -0.0047729025 -0.014049161 0.00394789 0.00031563157 0.006743772
0.006108063 -0.003950607 -0.00013686984 -0.00025000205 0.0037867338 -0.0016865865 0.00013435699 -0.00810959

transformer.layers.0.linear1.weight f4 [128, 64]
00000000: 813f 0ebe 2b50 a03d 2781 8c3e 3893 0cbd
00000010: 9226 2abe b1ba 423d cf8b aa3d 20f1 adbc
00000020: 63fc b8bb 58a8 be3d c0f3 273e ecc5 70bc
00000030: 8fc4 483e 8709 cc3d 7f6a 1e3e abb0 493d
00000040: 2b7c 913c 5486 35bc 5ba5 c23e 410a cdbd
00000050: 05d7 a8bc ecaa a3be dcc7 5fbc 9c5a 6d3d
00000060: 6d25 c03e a46c e8be ed4f 5bbd a42d a7bc
00000070: c576 b33e 98eb 093d b3ba 4a3e e5d4 933e
00000080: 5d2b 323e d89f cfbd 0ad6 c03e bfe2 ccbd
00000090: ef11 713e 159f 6ebe 1305 183d 0de2 313c
000000a0: c079 5ebe a5ea 08be cc98 223e e385 be3d
000000b0: ad61 5e3e 66e3 a3be cc62 933e bb6e 6bbe
000000c0: 7786 9c3b 73a9 9fbe b3bd 033e 36e8 ccbd
000000d0: 29f8 5e3e 29bc 6ebd 8815 b2be 5628 bcbe
000000e0: 6df7 6c3b 7e85 07be 518a 60bb 6501 5bbe
000000f0: 6c39 dabb cd28 58be 3a40 e63e ed5f 9a3d
00000100: c53a a83e 91a2 1c3e 28b7 99bc e221 8d3e
00000110: 21b8 8fbd 80ba b1bd 5f19 4abe 3664 88bd
00000120: d4b5 3a3d 0bd0 26bd e5a5 8e3d ee65 1a3c
00000130: bfbd bf3c 6217 12bd 9af2 fe3d 7549 503d
00000140: e500 56bd 1124 6ebd fb97 18bc dace c53d
00000150: c6ec 7bbc c0be fa3d f249 993d 820c 99bd
00000160: 7237 97bd 3532 6c3d ae3e 573d 5cba 0f3e
00000170: e451 fd3d 65c1 383e 592e 603e b756 63bd
00000180: 3f99 b23b 3448 ff3c 9e54 3dbd ad98 09be
00000190: 1aae 853d 2f1e b1bd da06 233e 2817 a4bd
000001a0: bc40 86bb 2821 1cbe 7a1f 83bd fd58 cd3d
000001b0: 2559 16be 6198 cfbb 6d03 a33d c7d3 d1bd
000001c0: d5fb cabd 3acc 90bd d1db f33d 7229 cf3c
000001d0: 4dd4 3a3d 5a8f 8dbd 6e70 43be 5185 c83c
000001e0: 8f8e 9d3d 6dde a1bd 12af f2bd 4f57 51be
000001f0: 30f2 b03d 459f 6dbd ab23 c4bc 68c7 203d
00000200: fe83 fc3d 375b 05bc e87d 493e 1d91 26bd
00000210: 053e 0e3e 08ea 163d bb44 8a3d 8d02 823d
00000220: 6ec3 84bd 5860 b2bc 03d0 37bd d201 80bc
00000230: c997 81bd 0ebf a43d 6550 1abe 0df1 c83c
00000240: 830f ffbe 06bd 113e a9a5 59bd b1a6 5dbc
00000250: 91e2 ec3d d815 f1bd d957 b2bc 52cf d53d
00000260: bd5d 683d 62bc 12be f6d4 323e 1530 b03b
00000270: bff1 83bd 312e 753d 684e b4be 9c3e 8d3d
00000280: 48c5 633d 3d8a 3e3d 506d 21bd da5b 173e
00000290: 47b9 c9bc 7482 323d 4903 79bb 3aea 03bd
000002a0: 1ac5 8cbd d951 353d a27f 81bd 4008 0e3c
000002b0: f2ff 48bd 81e6 f5bd 787f e9bd 641a 363d
000002c0: 75bc 72bd 3ab8 11be 0b64 8cbd 35b7 32be
000002d0: db4c 0cbe 9f43 693d eeac 2abd fc2b a23c
000002e0: b335 a9bc b09d 86be f832 67bd e863 c4bc
000002f0: 1449 9a3c 6fed d63d 8178 b03e 93d9 f4bd
00000300: 3979 f0bd 3940 d53d d618 d13c 466e 323e
00000310: 8534 1c3e 27b3 183e b5ba 81be c9e2 1ebe
00000320: 5372 8d3e 47a3 743e cbeb 46bb 697b b63e
00000330: 9e10 edbe 8b2c 37bb f453 bdbe b281 2cbe
00000340: d01a cf3b 0190 72be d632 e43d 736f 45be
00000350: 52eb c33d 5741 1ebd 4cbf 953e 80e5 843b
00000360: 35ad b13d 4a4f e7bd 2c3e d83c 3720 a03d
00000370: a47a ab3e 534d aebd a42a 7d3e 6120 07bc
00000380: 50fb 3d3d db3d b7bc 286e 143e 1c02 d93c
00000390: fe33 1e3d 88ed b33d 47a1 6a3e 9a50 6b3d
000003a0: 33bd 523d aae7 413d e3fe c13d a257 5a3c
000003b0: 5358 3abd 4949 babd c874 a73d 269b 923c
000003c0: 79c3 09bd f0cd 7d3d b173 b23d fda7 dcbd
000003d0: 9ea1 a1bd 56ca 54bd 382c cbbd 2150 94bd
000003e0: 9384 b23d 82ad cebd e3e2 e23d 63cb da3c
000003f0: 1019 283e e7dc c93c 2fc2 6c3b a3d8 04be
-0.13891412 0.07827791 0.27442285 -0.034320086 -0.16616276 0.047541324 0.083274476 -0.021233141
-0.005645321 0.09309453 0.16401577 -0.014695626 0.19606231 0.09962755 0.15470313 0.04924075
0.017759403 -0.01107939 0.3801678 -0.100117214 -0.020610342 -0.3196634 -0.01365849 0.05794774
0.37528554 -0.45395386 -0.05354302 -0.020407505 0.3505155 0.033671945 0.19797783 0.28873363
0.17399354 -0.1013791 0.376633 -0.10004186 0.23541997 -0.23302872 0.037114214 0.010857117
-0.21726131 -0.1337076 0.158786 0.093028806 0.21716948 -0.3200943 0.28786314 -0.22991459
0.0047767716 -0.31183967 0.12865333 -0.10005228 0.21774353 -0.058284912 -0.34782052 -0.36749524
0.003615822 -0.13234517 -0.003426213 -0.2138725 -0.0066596773 -0.21109314 0.44970876 0.07537828
0.32857338 0.15296389 -0.018764094 0.27564913 -0.07017542 -0.0867815 -0.19736241 -0.06659739
0.04558356 -0.04072575 0.069652356 0.009423716 0.023405908 -0.03566683 0.12448616 0.050851304
-0.052246947 -0.058139864 -0.009313579 0.096585944 -0.015376275 0.12243414 0.07484807 -0.07473089
-0.07383622 0.05766507 0.05255001 0.14035934 0.12369135 0.18042524 0.2189268 -0.05550262
0.0054503973 0.031162359 -0.046223275 -0.13437147 0.06527348 -0.08648335 0.15920582 -0.08012229
-0.0040970724 -0.15247023 -0.06402488 0.10026739 -0.14682443 -0.0063353037 0.07959638 -0.102454714
-0.099113144 -0.07070203 0.11907161 0.025288317 0.045612622 -0.06912108 -0.19085857 0.024477633
0.076932065 -0.079037525 -0.11849798 -0.20443462 0.086399436 -0.05801322 -0.023942789 0.03925267
0.12329863 -0.008139423 0.19676936 -0.040665735 0.13890846 0.036844283 0.067513905 0.06348143
-0.06482588 -0.021774456 -0.04487611 -0.015625868 -0.06327779 0.08044253 -0.1506973 0.024529004
-0.49816522 0.14232263 -0.0531365 -0.013528512 0.115666516 -0.117717445 -0.021770405 0.10439934
0.05673002 -0.14329675 0.1746405 0.0053768256 -0.06442594 0.059858505 -0.3521607 0.068967074
0.055608064 0.046518553 -0.03941089 0.14781132 -0.02462448 0.04358144 -0.0037996343 -0.032205798
-0.06873532 0.04426751 -0.06323172 0.008668959 -0.049072213 -0.12006856 -0.11401266 0.04445876
-0.059261758 -0.14230433 -0.06855019 -0.174527 -0.13701193 0.056949254 -0.041668825 0.019796364
-0.020655489 -0.2629218 -0.056445092 -0.02397342 0.018833674 0.104945056 0.34466937 -0.119555615
-0.117418714 0.1041264 0.025524538 0.17424878 0.1525441 0.14912091 -0.2533776 -0.15516199
0.27626285 0.2389041 -0.0030352946 0.3564103 -0.4630174 -0.0027950134 -0.36978114 -0.1684635
0.006320335 -0.23687746 0.11142509 -0.19280796 0.09566368 -0.03863653 0.2924751 0.004055679
0.08675615 -0.1129442 0.026396833 0.078186445 0.33492005 -0.08510842 0.24723297 -0.008247466
0.04638225 -0.022368362 0.14495146 0.026490264 0.038623802 0.0878554 0.22913085 0.057449915
0.051449966 0.047340073 0.09472444 0.013326557 -0.04549439 -0.09096009 0.08176571 0.017896246
-0.033633683 0.061963975 0.08713473 -0.10774229 -0.07892154 -0.051950775 -0.099205434 -0.07241846
0.08716693 -0.10091688 0.110784315 0.02670831 0.1641581 0.024641467 0.0036126485 -0.12973265

transformer.layers.0.linear1.bias f4 [128]
00000000: d7ef 12be 17c6 dabc 65fc 73bd aafe abbd
00000010: 9b58 00be 2afd b1bc a7d2 11be 9679 2dbe
00000020: b16c 1ebe 6fd1 e8bc 786d e6bd b902 b4bd
00000030: 5da3 a1bd 5d08 a8bc 6d3e cabd f8a5 0b3b
00000040: b469 08be c028 ecbd 54f6 243a 74c6 62be
00000050: 9184 babd 8f5c 97bd 3846 70be 72ab 58bd
00000060: 4770 dabd 0e7d 23be 2032 a6ba 9545 47bd
00000070: a6db 3abe cfff b4bc 8d1c 05be bbf6 283c
00000080: 46d9 67bd 54ac 2abd 9b62 6cbd 7244 d63c
00000090: 91b2 b5bd c10c 8ebd 7b8e 64be eb37 9fbd
000000a0: 422a 59bd 4545 87bd e14d 98bd dc61 b2bd
000000b0: 6f8d 05bd d449 57be ab1c 7dbd 7b4c bebd
000000c0: 41da cfbd f49f 96bd 8fc4 1a3d fdce b6bd
000000d0: f760 06bc 3f49 e7bd 1982 10be 0af6 febd
000000e0: 77db f3bc fd16 30be 9eaa 85bd 1ff4 25be
000000f0: 3997 d4bc b523 9cbd 34b3 bebb 58a2 0abe
00000100: 1516 9ebd f116 0a3d 2853 f3bd 5620 e83c
00000110: e16a 383d 855f a0bd 8e1a a1bd 8a62 8dbd
00000120: 1283 29be 25af 1a3b 8a0b a1bd 3121 90bd
00000130: b59b 9c3c 7fa9 c4bd 2e50 53bc 2457 91bd
00000140: 53b4 2fbb 91e6 d4bd 9423 b7bd 35bd dbbd
00000150: 67bd 733d a15c 3ebe 6a87 fc3c 72e8 c4bd
00000160: ba4c 07be 4601 eabd 2f39 fabd c65e e0bd
00000170: 87fc ebbc 9f46 65be e768 d1bd 5119 12be
00000180: 6313 bfbc 7024 e7bd 2549 09bd 2f00 b6bd
00000190: b173 a4bc 1d3b 51bd 659b c7bd 919a debd
000001a0: 5d23 f43c 80e9 82bd 4ff7 2bbd 846e ccbd
000001b0: bc2e 09be b9b3 5dbd 4f1a ddbd 87aa 52bc
000001c0: 597d c5bc 6948 cb3c b8b8 fdbd c912 b5bd
000001d0: 1a9e 37bd b88e ccbc 653b 08bd 21c1 9abd
000001e0: ffda a2bd f9d6 333d 997c 293c dd65 a2bd
000001f0: f613 85bd 5251 e3bd cfbc d6bc 3e07 dbbc
-0.14349304 -0.026705785 -0.059566874 -0.08398183 -0.125338 -0.021727163 -0.14240514 -0.16940913
-0.1547115 -0.028420178 -0.11251348 -0.08789582 -0.07892487 -0.0205118 -0.09875188 0.0021308642
-0.13321573 -0.1153121 0.0006292809 -0.22146016 -0.09107316 -0.07390701 -0.23464286 -0.052897878
-0.106659465 -0.15965673 -0.0012679733 -0.048650343 -0.18247852 -0.022094635 -0.12999173 0.010312731
-0.056603692 -0.04166825 -0.057711225 0.026155684 -0.088719495 -0.06936026 -0.22319977 -0.077743374
-0.053018816 -0.06605009 -0.07436729 -0.087100714 -0.032605585 -0.21024257 -0.061794918 -0.09291931
-0.101490505 -0.073547274 0.03778511 -0.08926199 -0.008201829 -0.112932675 -0.14112128 -0.12449272
-0.029767735 -0.1719627 -0.06526683 -0.16206406 -0.025951015 -0.07623998 -0.0058197025 -0.13538492
-0.077190556 0.033713285 -0.11881095 0.028335731 0.045023803 -0.07830719 -0.07866393 -0.069035605
-0.16553906 0.002360293 -0.07863529 -0.07037581 0.019117216 -0.09602641 -0.012897534 -0.07096699
-0.0026810362 -0.103955396 -0.08942333 -0.10729448 0.0595068 -0.18590023 0.03082629 -0.09614648
-0.13212863 -0.11426024 -0.12217938 -0.109555766 -0.028806938 -0.22390221 -0.10225087 -0.1426747
-0.023324674 -0.11286247 -0.03351702 -0.08886754 -0.020074697 -0.051081765 -0.09746436 -0.10869325
0.029802019 -0.06392193 -0.0419839 -0.09982017 -0.13396734 -0.054126475 -0.107960336 -0.01285804
-0.024107622 0.024814801 -0.12388748 -0.088414736 -0.04482851 -0.024970397 -0.033259768 -0.07556368
-0.079519264 0.043906186 0.010344648 -0.07929585 -0.06497948 -0.11099495 -0.026213078 -0.026736852

transformer.layers.0.linear2.weight f4 [64, 128]
00000000: b560 14be 44c5 a8be 0fb6 e53b 201c b2bd
00000010: 442d 40bd 0d3c 263d 3fb1 c1bd b64e 2d3d
00000020: ca87 093e 976e a03e 9947 9c3d da29 1bbf
00000030: a71c 0ebe f36d c43e 7c3f 0a3d 7a83 a33d
00000040: feac a6bb d9ec e43c a3b3 c5bd 7a0b 20be
00000050: da77 f1bc 4fd3 4c3c 3552 72be c750 bcbe
00000060: e1cd 45bd 7351 d4bd b549 1dbe f238 653d
00000070: bf79 513e b91c eb3d b785 ddbe 8faf 9c3e
00000080: 41ba af3d d294 893d 8b9b bc3d 9025 25be
00000090: 35c7 ef3c cdb2 afbc 22df 823c a39b febc
000000a0: cdd8 663d 856c 143d 8f3a f13d 500b b2be
000000b0: 9306 6ebd fa1b 9ebd f862 8fbd 4cfe 7ebd
000000c0: b9a4 56bd 5429 5f3c 782f 1cbd 8a62 a83d
000000d0: 11f6 3f3e 5cef e3bc 125f e1bd 69ab c0be
000000e0: 58a8 afbd 6b34 eebc a18b 3cbe 8ffb 473d
000000f0: 0770 c3bd b362 803b 2255 cebb fdab 5c3c
00000100: ab04 54be fb97 45be 65b3 febe 9bc8 3d3c
00000110: 5f91 54bb 33e4 1abe 2f5c 60be bab4 1cbd
00000120: db2f 12be d69f 09be 28ec f23c 1802 fb3b
00000130: e7a9 9b3c 16b4 973c 7a7d be3d 221b 6fbe
00000140: 03a4 8cbd 0c8c 4cbd 0796 22ba 7193 c3bd
00000150: 50f8 fa3c d0ed 6bbe efd3 53ba 760d 1fbb
00000160: bfc8 27bd 0d40 02be ade3 5c3d 7325 d43c
00000170: 6e58 143d 3ef6 b5be 5c1e 7a3d 23a7 8c3c
00000180: 4bc9 7ebe 3c8e 4b3e 66fb 3a3c 508a 4c3d
00000190: f17b 723d bf49 0f3d 7ec1 243c abf7 163e
000001a0: 645d 423d eb13 b2ba 5035 82bd 9e5e 0bbe
000001b0: 3aba ab3e 5ce6 11be 30d6 813c b1f7 90bc
000001c0: 57ee c43e 54c5 a63a 6057 d23c 62c4 4e3e
000001d0: 3cd7 813d cb1f 61be 98d0 88bd 432f 2ebe
000001e0: a763 f5bc 7473 2d3d 663e d33e bd34 24be
000001f0: bc67 b2bd 4361 713e f1d3 67be 6198 12bf
00000200: 389c 6e3e fb2b ddbc 358d 553d 738b 84bd
00000210: 5b20 0c3e 4db5 4abd d85b 1a3d 9d18 08be
00000220: 164e 253d e1f9 2dbd 3404 50bd 8e9e 283e
00000230: c034 1e3c 3dbf d63d 6704 0dbe eff5 8e3b
00000240: 3092 c63c f042 2abd 30cf 42be fee9 773e
00000250: 575b 1a3e 1569 003d 3cf0 ba3e c988 d5bd
00000260: c2c4 89ba 1773 063e fe3a f93b bd95 cfbc
00000270: 5b6f f1bd 89dd 6ebd 8d01 183e 2c2b 273d
00000280: 0cfb 0ebc 709c 523d 2360 043e 9915 f23b
00000290: 71f4 453d 0123 5c3d e501 243e b13b 1fbe
000002a0: f8e0 813b 31be c4bd 023e 2dbe e010 143d
000002b0: e907 1fbe 4a5d 9f3e 499e 693c b762 bc3d
000002c0: d424 333a bcfe 3ebe 700d bdbc 090e 0bbe
000002d0: fb1d efbd 2e2c d2bd dab8 12be 5ee4 163e
000002e0: c39f aa3c 8061 863c f07a 613e e06b 6cbd
000002f0: c620 e13c 6bb3 31be 5010 4cbd d7cf e23d
00000300: 0175 24bc 78b7 94be 0a68 573e 8f58 cdbd
00000310: d621 f43c 0f2d 44be becd 653e 7e40 52bd
00000320: 87e5 8a3e 7855 a43d c867 f5bc bf2e ff3c
00000330: a24a 49bb 55b0 52be 0c97 d5bd 8c47 0d3b
00000340: 33f4 193e 5654 c5be 62f9 453d d015 2f3c
00000350: e509 d63c d1f2 71be 44f9 83bd 870f d2bc
00000360: 4cd7 523e 9a4a 7abd 33c9 573d da05 a1bd
00000370: e4f5 553d af8b 57bd e28a 62bd aad6 79bc
00000380: 7b4b 953d a6c1 d1ba b482 0e3c fb79 96bd
00000390: eeee 043d 43d2 403e d264 b8bd e76d d53c
000003a0: a63b aabd 2b9f 643d ae64 123d 84cb 87be
000003b0: 4a03 18be 1d7c 993e 49a5 fd3c f309 7e3d
000003c0: 0941 67bc 2620 8fbd 5af4 db3c 0f98 6cbd
000003d0: ffd6 5a3d 13b0 393b d181 453b dbd2 243e
000003e0: 3600 7a3d 83f4 423d bfbb 183c 505a 0e3e
000003f0: acfa ad3c 7038 c5bc 8f57 9f3d b484 303e
-0.14490016 -0.32963002 0.0070102285 -0.08696771 -0.04691817 0.040584613 -0.09457635 0.042311393
0.13430706 0.31334373 0.07630844 -0.60610735 -0.13878118 0.38365135 0.03375195 0.079840615
-0.0050865402 0.027944969 -0.096534036 -0.15629378 -0.029476095 0.012501552 -0.23664172 -0.36780378
-0.048292045 -0.10367098 -0.15360148 0.05596251 0.20456599 0.11480088 -0.4326608 0.3060269
0.08580447 0.06717838 0.09209355 -0.1612761 0.029269794 -0.021447564 0.015975539 -0.031080073
0.0563591 0.036236305 0.11778747 -0.34774256 -0.05811174 -0.0772018 -0.07001299 -0.062254235
-0.052403186 0.013620693 -0.038131207 0.0822192 0.1874621 -0.027824096 -0.11004461 -0.37630776
-0.08577031 -0.02907773 -0.18412639 0.04882389 -0.09542852 0.003918016 -0.0062967697 0.01346874
-0.20704906 -0.19296257 -0.49746242 0.011583473 -0.003243528 -0.15126114 -0.21910165 -0.03825829
-0.14276068 -0.13439879 0.029653624 0.0076601617 0.019001914 0.018518489 0.093012765 -0.23350194
-0.0686722 -0.049938247 -0.00062021654 -0.095496066 0.030635983 -0.23039937 -0.0008080592 -0.0024269498
-0.04096293 -0.12719746 0.053928066 0.025896763 0.036217146 -0.3553943 0.06106411 0.01716954
-0.24881475 0.19878477 0.011412477 0.049936593 0.05920023 0.03498244 0.010055898 0.14742915
0.047452345 -0.0013586258 -0.06357825 -0.13610312 0.33540517 -0.14248031 0.015849203 -0.017696233
0.3846309 0.0012723603 0.02567643 0.20192102 0.06339881 -0.21984784 -0.06680411 -0.17010216
-0.029954745 0.042346433 0.41258544 -0.16035743 -0.08711192 0.23572259 -0.22639443 -0.5726376
0.2330178 -0.02699851 0.05213662 -0.0647191 0.13684218 -0.04948931 0.037685245 -0.13290639
0.04035767 -0.04247463 -0.05078526 0.16466734 0.009656131 0.104856946 -0.1377121 0.0043628137
0.02423963 -0.041567743 -0.19024348 0.24210355 0.15073906 0.031350214 0.3651141 -0.1042648
-0.0010510909 0.13129841 0.0076059094 -0.025339955 -0.117888175 -0.05831674 0.14844342 0.040812656
-0.008726846 0.05141872 0.12927298 0.0073878285 0.04832882 0.05374432 0.16016348 -0.15550114
0.003963586 -0.09606589 -0.16918185 0.036148906 -0.15530361 0.3112586 0.0142589295 0.09198516
0.0006833796 -0.18651861 -0.023077697 -0.13579573 -0.1167564 -0.10262333 -0.14328328 0.14735553
0.020828133 0.016403913 0.22019553 -0.057720065 0.027481448 -0.17353599 -0.049820244 0.110747986
-0.0100376615 -0.29046226 0.21035782 -0.10026657 0.02980129 -0.19157813 0.22441766 -0.051331036
0.2712824 0.08024114 -0.029956713 0.03115022 -0.003071465 -0.20575078 -0.104292005 0.0021557538
0.15034561 -0.38540906 0.048333533 0.010686353 0.026127765 -0.23627783 -0.06444028 -0.02564217
0.20589942 -0.0611063 0.052682113 -0.07862444 0.052236453 -0.052623447 -0.05530823 -0.015248934
0.072897874 -0.0016003146 0.008698154 -0.07347485 0.032454424 0.18830208 -0.09003605 0.026053382
-0.08312158 0.055815857 0.035740547 -0.26522458 -0.14845005 0.29977503 0.030962603 0.062021207
-0.014114627 -0.06988554 0.026849914 -0.057762202 0.053427693 0.0028333708 0.003013719 0.1609606
0.061035357 0.047596466 0.009322106 0.13901639 0.021237694 -0.024074763 0.07780372 0.17238122

transformer.layers.0.linear2.bias f4 [64]
00000000: 4ec9 46bc dd72 873d f274 153d 21a4 e33d
00000010: f7ac 56bd 2b9a b43d fef9 21bd 19c9 323d
00000020: a911 0cbd 003e c7ba 01c9 413c a0de cb3c
00000030: 22a6 1cbd 97e3 133d bef7 5d3d 80ec 8fbd
00000040: 6047 3dbe 00e1 173e 463f 16be 3f43 66bc
00000050: 0fa2 a63d d6a6 073b 7efd 843d ed62 b73d
00000060: 27d1 21bd b8a1 59bd 3a7a e83c 8e10 71bd
00000070: 7113 143e 9c3a 64bc 093a 7d3b 6cfc 993b
00000080: 5638 6c3c f9fc 6f3b ef73 ef3d e0c7 a93c
00000090: f014 6dbd 08b5 e63c 9ebd 543c ea01 1abd
000000a0: aa3b f7bc aaab 623c c8e2 ae3c dc23 763c
000000b0: c7a9 123c 95d0 82bb 2b96 013c abaf 3dbd
000000c0: cb44 f23b d9ea 0dbd 41af 003e 3d1c 113d
000000d0: 393e c83c f468 81bd 9a0a 3bbb d984 76bd
000000e0: bc1a 693d fef1 83bd 7891 49bd 0db7 59bd
000000f0: e1df a43d a946 54bc 8cd3 1d3c ef20 aa3c
-0.012132956 0.06613705 0.03648848 0.111152895 -0.052411046 0.08818468 -0.03954505 0.043648813
-0.03419653 -0.0015200973 0.011827708 0.02488643 -0.038244374 0.03610572 0.054191343 -0.07027531
-0.18484259 0.14831924 -0.14672574 -0.014054119 0.08136379 0.0020698807 0.06493662 0.089544155
-0.039506104 -0.053132743 0.028378595 -0.05885368 0.14460541 -0.013929989 0.0038639328 0.0046992805
0.014417728 0.003661929 0.116920345 0.02072519 -0.057881296 0.028162494 0.012984661 -0.03759948
-0.030179817 0.013834873 0.021348372 0.015023198 0.008951611 -0.00399215 0.007909338 -0.04631011
0.0073934547 -0.034647796 0.12566854 0.03542732 0.024443733 -0.06318846 -0.0028540255 -0.060185287
0.05691026 -0.06442641 -0.049210995 -0.053153086 0.08050514 -0.0129563 0.009632956 0.020767657
