checkpoints/fingering_transformer_right.pt (torch, 433428 bytes, 41 tensors)

input_proj.weight f4 [64, 5]
0.58516306 -0.037112005 -0.038002614 0.23415175 -0.017110687 1.3124344 -0.7514818 0.05244163
0.013163666 -0.12993863 -0.069355786 -0.40884703 -0.030559823 0.57463247 0.35606536 -0.0054184794
0.40876365 -0.13084468 -0.0864646 0.17701371 -1.1627154 -0.50263983 -0.14885236 0.29316255
-0.10825269 1.2197609 0.38618705 0.018886276 0.008141006 0.43353507 -1.6648588 0.42822453
0.105347775 -0.3490179 0.3288703 -0.23568447 -0.7742817 -0.09305537 0.43310174 0.081460066
1.4695222 -0.5020265 -0.32543632 0.23294333 -0.018700123 0.032775134 0.24640402 0.06495146
0.34655386 0.44854438 0.8595223 0.61167717 -0.22337767 -0.65052307 0.2938735 1.3096987
0.8635858 0.144535 0.34952977 0.23738663 0.7160101 -1.0048788 0.08027079 0.19359358
-0.4226058 0.16909797 -1.8877261 0.1919392 0.1152015 0.11265246 -1.0118037 -0.34625414
0.05222418 -0.4539277 -0.1788 -2.3237379 0.44601405 -0.2757417 -0.17493868 0.09932262
1.0863289 0.19816938 -0.29174212 -0.16509949 -0.15228489 -0.08611836 -1.2148892 -0.03465409
0.02318377 0.14366245 -2.1613371 -0.13687447 0.0917822 -0.11895051 -0.15591139 0.03635936
0.38459173 0.12603155 -0.08934688 0.2611896 0.24903777 1.5120124 0.015092575 -0.36289373
-0.07276129 -0.3329316 -0.33475727 0.019610884 0.34087145 -0.086071596 1.8554273 -0.15345685
0.0757119 0.11134447 0.017309997 -0.5827029 -3.3970802 -0.08204059 -0.25802356 0.29306757
-3.1279976 -0.041621305 0.10172616 0.075728536 -0.11446965 -0.258183 -4.3526454 -0.046090838
0.044633765 0.2300043 1.4506406 -0.8179107 0.145265 -0.21057339 -0.16825338 -1.6189847
0.9721781 0.12140855 0.11447869 0.30062732 -0.36519563 1.255973 -0.051159885 0.0474562
-0.056304272 1.7619606 -0.29383647 -0.3792879 0.25143924 -0.13357191 2.8719237 -0.7498034
0.0879098 0.26805428 -0.31271133 -0.96352047 0.182203 0.08278735 -0.28388476 0.41693074
0.5325134 1.4435202 0.13139877 -0.06336029 0.17014658 1.0585933 0.3446207 -0.11666139
-0.41951093 0.2118962 0.36665124 -2.5481925 0.09678052 0.08812935 -0.007956608 2.3624077
0.5843522 -0.03412012 0.016980615 0.33550453 -0.09570596 -0.9160529 -0.25215653 0.33216918
-0.141061 1.658686 -0.9566692 -0.27359626 0.33937985 -0.2755735 -1.2514006 0.5665433
-0.026514255 0.14026414 0.16946653 -1.7072794 0.14899504 -0.05879869 -0.22233151 -0.13324888
-2.655968 -0.5626686 -0.28751802 -0.062761955 -0.07159173 -2.4214196 0.6430753 -0.19483745
-0.32817912 0.38333696 -0.8190763 -0.17041185 0.0690235 0.27204353 0.18506432 0.8563039
0.38659576 -0.38997903 -0.133243 0.1920933 0.55060875 1.9374052 0.1428214 -0.04453893
-0.0781594 -0.53208387 0.40346164 -0.23342945 -0.07809704 0.24738657 -0.44201446 -0.9187117
-0.09411642 0.41601247 -0.29849324 -0.85681504 1.4795535 -0.14446805 -0.05813976 0.3085547
-1.8678185 0.99191916 0.0003474707 0.022936933 -0.13445191 0.51069874 1.9763286 -0.33422896
0.022535196 -0.12720618 0.4358939 2.5870326 0.092699505 0.25213912 -0.12150297 0.5903974
00000000: 3fcd 153f c202 18bd a1a8 1bbd 7ac5 6f3e
00000010: b62b 8cbc dafd a73f 1c61 40bf 09cd 563d
00000020: 6bac 573c a20e 05be 680a 8ebd 6654 d1be
00000030: 9858 fabc 1d1b 133f 334e b63e 808d b1bb
00000040: 7849 d13e 26fc 05be 5a14 b1bd 1543 353e
00000050: dcd3 94bf 01ad 00bf c16c 18be 6719 963e
00000060: 96b3 ddbd 2021 9c3f 4fba c53e 64b7 9a3c
00000070: db61 053c 4ff8 dd3e 181a d5bf 3f40 db3e
00000080: 93c0 d73d 79b2 b2be b061 a83e 4557 71be
00000090: 5337 46bf d093 bebd 83bf dd3e 89d4 a63d
000000a0: 4e19 bc3f cf84 00bf 979f a6be b288 6e3e
000000b0: 0031 99bc 383f 063d 5651 7c3e 4505 853d
000000c0: 826f b13e 9ca7 e53e a709 5c3f e096 1c3f
000000d0: 1ebd 64be ae88 26bf 9676 963e 35a4 a73f
000000e0: f613 5d3f fc00 143e 91f5 b23e 7b15 733e
000000f0: 704c 373f de9f 80bf 0365 a43d 653d 463e
00000100: ca5f d8be 0528 2d3e 02a1 f1bf b68b 443e
00000110: c4ee eb3d 55b6 e63d c982 81bf 3948 b1be
00000120: 06e9 553d 3669 e8be 5917 37be 1fb8 14c0
00000130: f45b e43e 042e 8dbe 2023 33be a869 cb3d
00000140: d30c 8b3f eaec 4a3e 395f 95be d70f 29be
00000150: 92f0 1bbe d35e b0bd 7d81 9bbf 72f1 0dbd
00000160: e4eb bd3c 401c 133e 5953 0ac0 d228 0cbe
00000170: 4ef8 bb3d 539c f3bd 3ca7 1fbe 8ded 143d
00000180: 35e9 c43e 6a0e 013e 7ffb b6bd a5ba 853e
00000190: c203 7f3e 9f89 c13f d946 773c 35cd b9be
000001a0: df03 95bd 0376 aabe 4e65 abbe 01a7 a03c
000001b0: b486 ae3e 4e46 b0bd a47e ed3f cb23 1dbe
000001c0: d70e 9b3d 9208 e43d b2cd 8d3c 042c 15bf
000001d0: c369 59c0 e604 a8bd aa1b 84be f40c 963e
000001e0: 1d31 48c0 1a7b 2abd ce55 d03d 9017 9b3d
000001f0: 106f eabd 9030 84be df48 8bc0 bfc9 3cbd
00000200: e5d1 363d 3f86 6b3e 97ae b93f 9862 51bf
00000210: 59c0 143e 8da0 57be 9d4a 2cbe e43a cfbf
00000220: aae0 783f 0ca5 f83d ce73 ea3d d3eb 993e
00000230: ecfa babe b9c3 a03f 078d 51bd 6f61 423d
00000240: 4f9f 66bd ed87 e13f bc71 96be 0632 c2be
00000250: a5bc 803e 13c7 08be 99cd 3740 1ef3 3fbf
00000260: 0e0a b43d 693e 893e b31b a0be 47a9 76bf
00000270: 6c93 3a3e 6a8c a93d 5859 91be f277 d53e
00000280: cc52 083f 45c5 b83f 668d 063e 0ac3 81bd
00000290: e83a 2e3e fc7f 873f 2072 b03e 2bec eebd
000002a0: 23ca d6be 51fb 583e b6b9 bb3e 9615 23c0
000002b0: de34 c63d 297d b43d 6f5c 02bc b031 1740
000002c0: 1b98 153f 8ac1 0bbd ee1a 8b3c 40c7 ab3e
000002d0: 7d01 c4bd 7182 6abf a91a 81be 1412 aa3e
000002e0: 4b72 10be d34f d43f 46e8 74bf cf14 8cbe
000002f0: 32c3 ad3e f817 8dbe e52d a0bf fb08 113f
00000300: 6c34 d9bc 67a1 0f3e a288 2d3e 2288 dabf
00000310: 2892 183e e5d6 70bd dfaa 63be 6572 08be
00000320: 61fb 29c0 0d0b 10bf 9035 93be 5789 80bd
00000330: af9e 92bd 8af8 1ac0 95a0 243f 7883 47be
00000340: 1807 a8be be44 c43e fcae 51bf 7280 2ebe
00000350: 315c 8d3d 4a49 8b3e 8081 3d3e bb36 5b3f
00000360: e1ef c53e 55ab c7be da70 08be 1bb4 443e
00000370: b2f4 0c3f e5fc f73f c63f 123e 746e 36bd
00000380: 0912 a0bd a636 08bf 8692 ce3e 2108 6fbe
00000390: 57f1 9fbd e852 7d3e b84f e2be b130 6bbf
000003a0: 1cc0 c0bd 96ff d43e 1bd4 98be 3b58 5bbf
000003b0: 0262 bd3f 6fef 13be f523 6ebd e2fa 9d3e
000003c0: ad14 efbf 6aee 7d3f ba2c b639 3ce6 bb3c
000003d0: c3ad 09be 27bd 023f 56f8 fc3f 0f20 abbe
000003e0: bb9b b83c 5642 02be 7c2d df3e f191 2540
000003f0: 3dd9 bd3d 6118 813e 8dd6 f8bd 4924 173f

input_proj.bias f4 [64]
0.09921624 0.17736697 0.009677451 0.19102101 0.14579876 0.21487342 -0.12267778 -0.09029456
0.11867984 -0.03661562 0.2143272 -0.25834718 -0.28724638 -0.39265904 0.018973134 -0.21337901
-0.19755219 -0.36280265 -0.045305748 -0.4564094 0.074145265 -0.3565075 0.11471932 -0.22038373
0.10278651 -0.2275963 -0.09878269 -0.09578471 -0.15299945 -0.18244709 -0.049705125 -0.1318809
0.20768103 -0.053754278 0.23133123 -0.24754065 -0.007206329 -0.26596367 0.076526225 -0.25734133
0.1401684 0.0104745785 -0.027147315 0.04364688 0.124072984 -0.2340862 -0.18160187 -0.29773682
0.24741887 -0.41102833 0.082948595 -0.43084022 0.18706027 -0.22598478 0.089284554 -0.16940898
-0.11610511 -0.21197283 0.2891567 -0.36632848 0.029110743 -0.23795985 -0.08469819 -0.29338416
00000000: e231 cb3d b09f 353e 2c8e 1e3c 039b 433e
00000010: 454c 153e c707 5c3e 7d3e fbbd 5bec b8bd
00000020: 6a0e f33d 43fa 15bd 9778 5b3e 1546 84be
00000030: f511 93be 9b0a c9be 8c6d 9b3c 0780 5abe
00000040: 1f4b 4abe 45c1 b9be 8592 39bd 7eae e9be
00000050: 79d9 973d 2788 b6be f6f1 ea3d 46ac 61be
00000060: bc81 d23d 010f 69be 944e cabd c62a c4bd
00000070: e3ab 1cbe 69d3 3abe 9a97 4bbd c90b 07be
00000080: 56aa 543e 722d 5cbd 18e2 6c3e 4c7b 7dbe
00000090: 1223 ecbb 642c 88be c8b9 9c3d 3ec2 83be
000000a0: 4e88 0f3e 919d 2b3c 0c64 debc 12c7 323d
000000b0: fa19 fe3d 4bb4 6fbe d7f5 39be f670 98be
000000c0: 5f5b 7d3e 4e72 d2be f4e0 a93d 1797 dcbe
000000d0: ba8c 3f3e 8e68 67be d2da b63d 8c79 2dbe
000000e0: 84c8 edbd 680f 59be 590c 943e 688f bbbe
000000f0: a779 ee3c bfab 73be 3f76 adbd 7336 96be

pos_encoder.pe f4 [1, 50, 64]
0.0 1.0 0.0 1.0 0.0 1.0 0.0 1.0
0.0 1.0 0.0 1.0 0.0 1.0 0.0 1.0
0.0 1.0 0.0 1.0 0.0 1.0 0.0 1.0
0.0 1.0 0.0 1.0 0.0 1.0 0.0 1.0
0.0 1.0 0.0 1.0 0.0 1.0 0.0 1.0
0.0 1.0 0.0 1.0 0.0 1.0 0.0 1.0
0.0 1.0 0.0 1.0 0.0 1.0 0.0 1.0
0.0 1.0 0.0 1.0 0.0 1.0 0.0 1.0
0.84147096 0.54030234 0.68156135 0.731761 0.53316844 0.84600914 0.4093089 0.9123959
0.3109836 0.9504153 0.23492105 0.9720145 0.17689219 0.9842302 0.13295726 0.99112177
0.099833414 0.9950042 0.07491915 0.9971896 0.05620449 0.9984193 0.042157155 0.999111
0.031617504 0.99950004 0.023711512 0.99971884 0.01778186 0.99984187 0.013334819 0.99991107
0.009999833 0.99995 0.0074988706 0.99997187 0.0056233825 0.9999842 0.0042169513 0.9999911
0.0031622713 0.999995 0.0023713717 0.9999972 0.0017782785 0.99999845 0.0013335211 0.9999991
0.0009999998 0.9999995 0.000749894 0.9999997 0.0005623411 0.9999999 0.0004216964 0.99999994
0.0003162278 0.99999994 0.00023713727 1.0 0.00017782794 1.0 0.00013335208 1.0
0.9092974 -0.41614684 0.99748 0.070948265 0.9021307 0.43146282 0.7469035 0.6649324
0.5911271 0.8065784 0.45669332 0.8896242 0.34820527 0.93741834 0.26355368 0.96464473
0.19866931 0.9800666 0.1494172 0.98877424 0.1122313 0.9936821 0.084239356 0.99644554
0.063203394 0.9980007 0.04740969 0.99887556 0.035558093 0.9993676 0.026667267 0.99964434
0.019998666 0.9998 0.014997319 0.9998875 0.011246587 0.99993676 0.008433828 0.9999644
0.006324511 0.99998003 0.0047427304 0.99998873 0.0035565514 0.9999937 0.0026670396 0.9999964
0.0019999985 0.99999803 0.0014997876 0.99999887 0.0011246821 0.99999934 0.0008433927 0.99999964
0.0006324555 0.9999998 0.0004742745 0.9999999 0.00035565588 0.99999994 0.00026670416 1.0
0.14112 -0.9899925 0.7782725 -0.6279267 0.9932532 -0.11596616 0.9536345 0.3009673
0.8126489 0.58275366 0.652904 0.7574407 0.5085361 0.86104065 0.3894703 0.92103904
0.2955202 0.9553365 0.22307542 0.9748012 0.16790329 0.9858035 0.12617177 0.9920084
0.094726086 0.99550337 0.071081206 0.9974705 0.053323086 0.9985773 0.039994974 0.99919987
0.0299955 0.99955004 0.022494925 0.999747 0.016869437 0.9998577 0.012650555 0.99992
0.009486687 0.999955 0.007114062 0.9999747 0.005334813 0.99998575 0.0040005534 0.999992
0.0029999954 0.9999955 0.0022496805 0.9999975 0.0016870227 0.99999857 0.0012650889 0.9999992
0.00094868324 0.9999996 0.00071141176 0.99999976 0.0005334838 0.9999999 0.00040005625 0.99999994
00000000: 0000 0000 0000 803f 0000 0000 0000 803f
00000010: 0000 0000 0000 803f 0000 0000 0000 803f
00000020: 0000 0000 0000 803f 0000 0000 0000 803f
00000030: 0000 0000 0000 803f 0000 0000 0000 803f
00000040: 0000 0000 0000 803f 0000 0000 0000 803f
00000050: 0000 0000 0000 803f 0000 0000 0000 803f
00000060: 0000 0000 0000 803f 0000 0000 0000 803f
00000070: 0000 0000 0000 803f 0000 0000 0000 803f
00000080: 0000 0000 0000 803f 0000 0000 0000 803f
00000090: 0000 0000 0000 803f 0000 0000 0000 803f
000000a0: 0000 0000 0000 803f 0000 0000 0000 803f
000000b0: 0000 0000 0000 803f 0000 0000 0000 803f
000000c0: 0000 0000 0000 803f 0000 0000 0000 803f
000000d0: 0000 0000 0000 803f 0000 0000 0000 803f
000000e0: 0000 0000 0000 803f 0000 0000 0000 803f
000000f0: 0000 0000 0000 803f 0000 0000 0000 803f
00000100: a46a 573f 4151 0a3f ce7a 2e3f b054 3b3f
00000110: ba7d 083f 0e94 583f f090 d13e c792 693f
00000120: 3e39 9f3e 6b4e 733f 258f 703e f1d5 783f
00000130: 3a23 353e 83f6 7b3f f325 083e 28ba 7d3f
00000140: 7675 cc3d 98b8 7e3f 366f 993d d147 7f3f
00000150: ae36 663d 6898 7f3f fbac 2c3d bdc5 7f3f
00000160: 5b81 013d 3cdf 7f3f a53e c23c 93ed 7f3f
00000170: 43ab 913c a3f5 7f3f 497a 5a3c 2cfa 7f3f
00000180: 57d6 233c b9fc 7f3f 16b9 f53b 28fe 7f3f
00000190: 5a44 b83b f7fe 7f3f 5a2e 8a3b 6bff 7f3f
000001a0: 1c3e 4f3b acff 7f3f 0469 1b3b d1ff 7f3f
000001b0: 2015 e93a e6ff 7f3f 8bc9 ae3a f1ff 7f3f
000001c0: 6d12 833a f8ff 7f3f 8994 443a fbff 7f3f
000001d0: 136a 133a feff 7f3f 2217 dd39 ffff 7f3f
000001e0: 60cb a539 ffff 7f3f 0da8 7839 0000 803f
000001f0: 5377 3a39 0000 803f 6dd4 0b39 0000 803f
00000200: b7c7 683f 3311 d5be d95a 7f3f 534d 913d
00000210: 0af2 663f b2e8 dc3e 1135 3f3f 0339 2a3f
00000220: 1b54 173f ec7b 4e3f b5d3 e93e 69be 633f
00000230: f647 b23e a6fa 6f3f 82f0 863e f5f2 763f
00000240: f86f 4b3e a5e5 7a3f d300 193e 4f20 7d3f
00000250: 86d9 e53d f361 7e3f af85 ac3d 0e17 7f3f
00000260: c870 813d f97c 7f3f aa30 423d 4fb6 7f3f
00000270: 5da5 113d 8ed6 7f3f 5075 da3c b1e8 7f3f
00000280: 3ed4 a33c e5f2 7f3f 51b7 753c a1f8 7f3f
00000290: 9b43 383c dbfb 7f3f 0a2e 0a3c abfd 7f3f
000002a0: d83d cf3b b1fe 7f3f e868 9b3b 43ff 7f3f
000002b0: 0815 693b 96ff 7f3f 80c9 2e3b c4ff 7f3f
000002c0: 6812 033b dfff 7f3f 8594 c43a edff 7f3f
000002d0: 126a 933a f5ff 7f3f 2017 5d3a faff 7f3f
000002e0: 5fcb 253a fdff 7f3f 0ca8 f839 feff 7f3f
000002f0: 5377 ba39 ffff 7f3f 6dd4 8b39 0000 803f
00000300: c381 103e 2670 7dbf de3c 473f cebf 20bf
00000310: d745 7e3f ab7f edbd 6421 743f 6318 9a3e
00000320: c209 503f 582f 153f b724 273f a2e7 413f
00000330: 6c2f 023f 296d 5c3f a768 c73e 37c9 6b3f
00000340: 6c4e 973e ef90 743f e26d 643e 928c 793f
00000350: d7ee 2b3e 9e5d 7c3f 2c33 013e 43f4 7d3f
00000360: c0ff c13d 4fd9 7e3f 0693 913d 3a5a 7f3f
00000370: 4f69 5a3d c3a2 7f3f c5d1 233d 90cb 7f3f
00000380: 1fb9 f53c 83e2 7f3f 4747 b83c 6bef 7f3f
00000390: c631 8a3c adf6 7f3f 4644 4f3c c2fa 7f3f
000003a0: 0d6e 1b3c 0dfd 7f3f 141d e93b 58fe 7f3f
000003b0: a8cf ae3b 11ff 7f3f 1317 833b 7aff 7f3f
000003c0: 929b 443b b5ff 7f3f 606f 133b d6ff 7f3f
000003d0: 171f dd3a e8ff 7f3f 57d1 a53a f3ff 7f3f
000003e0: 0eb1 783a f9ff 7f3f 097e 3a3a fcff 7f3f
000003f0: 7ed9 0b3a feff 7f3f a4be d139 ffff 7f3f

transformer.layers.0.self_attn.in_proj_weight f4 [192, 64]
-0.17615543 -0.07623719 0.04845365 -0.16336724 -0.055410814 -0.16234834 0.35043323 -0.17122646
0.13241658 -0.22636129 0.2733745 0.018769199 0.013089977 0.20169228 0.097768016 -0.013100329
-0.08636172 0.22659713 -0.047528714 0.32496142 -0.2549906 -0.03652567 0.11192275 0.3352086
-0.011606141 0.29425246 0.017702885 0.09067084 -0.31978816 -0.14096554 -0.038357917 0.18690802
0.21841075 0.08521677 0.24078062 0.053504467 -0.11824187 -0.08103924 0.2177175 -0.1366259
-0.028016951 0.13093972 0.049645964 -0.09646569 -0.13694416 -0.056801096 -0.43716827 0.0761519
-0.1251019 -0.2348115 -0.14095332 -0.014973307 0.18688841 -0.12783769 -0.18536797 0.06363139
0.05360563 0.24767233 0.010224642 -0.024299419 -0.11274455 -0.039787285 -0.083589464 -0.019119944
-0.0068703527 -0.08452267 0.13014549 -0.108178526 -0.21144609 -0.080260724 0.25100222 -0.2045884
-0.0060737454 0.0038072416 -0.0115525955 -0.10646036 -0.13735107 -0.17133982 -0.1807408 -0.16011482
-0.037144233 -0.13304159 0.118024126 0.004039684 -0.08838133 -0.09958484 -0.011563438 0.03823469
0.13910535 -0.025850318 -0.030472169 0.0073003666 -0.05143503 -0.06143584 -0.10983925 0.06826493
0.049410127 -0.11578097 0.12692463 0.01332223 0.008601476 -0.19448529 0.14019929 -0.09027988
0.13093059 0.034837477 0.25294945 -0.08243195 -0.1711518 -0.012104109 -0.043043405 0.0034125217
-0.11837558 -0.14041089 0.0052092276 -0.055165585 -0.09115126 -0.18376589 -0.31486756 -0.10909891
0.07855606 -0.046832975 -0.1706556 -0.0891147 0.17328191 -0.22396846 -0.12304892 -0.121263094
-0.015477118 0.46718937 -0.2243349 0.31685972 0.05429724 0.24254932 -0.17967543 0.2808489
-0.16303205 0.5920917 -0.42325893 0.3272094 -0.12761365 -0.05551456 -0.2489877 -0.002782417
-0.39766952 -0.22037663 -0.1571986 -0.10403668 0.15645136 0.005446533 -0.044713426 -0.43095493
-0.055042982 -0.2294099 -0.02365668 0.009492068 0.25634754 -0.017651852 0.061046135 -0.1674025
-0.05497002 0.11193824 -0.13699396 -0.16150512 -0.06023573 -0.0403016 -0.1381372 0.037122864
-0.0060966485 -0.09616963 -0.20152941 0.08925617 0.3749282 -0.095126644 0.28436163 -0.10575538
0.23331615 0.10995323 0.15140252 -0.021399625 -0.32583922 0.008117441 0.24680518 -0.12796737
0.23889081 -0.22167389 0.10258609 -0.043423846 0.061736416 -0.027725656 0.18759453 0.060697585
-0.056970157 0.110314064 -0.011928273 0.3212843 0.031766918 0.37992784 0.20497365 0.2632151
-0.31885275 0.48196682 -0.4775185 0.25185382 -0.25164562 0.09258815 -0.073603466 0.25270978
-0.48179287 -0.10338372 0.1613974 0.1007477 -0.011504267 -0.11022679 -0.25349322 -0.057630226
0.1283988 -0.09845256 -0.21325898 0.10742707 0.21420129 -0.21358101 -0.34619212 0.024438934
-0.15271603 -0.100083195 -0.24967755 -0.21466637 -0.3142384 -0.023686325 0.06619705 0.04447142
0.47317842 0.18599574 -0.21126802 -0.16318351 0.025472037 0.016360763 -0.1052821 -0.02240055
0.13331923 0.04492604 -0.04083013 -0.12375088 -0.44216642 -0.048112314 -0.023392862 -0.025503628
-0.23523036 0.22688608 -0.048050445 -0.10761408 -0.11035776 -0.05742986 -0.1593799 -0.07044432
00000000: 1762 34be 3e22 9cbd 5677 463d be49 27be
00000010: 73f6 62bd a53e 26be fc6b b33e fd55 2fbe
00000020: 3698 073e 41cb 67be bef7 8b3e ddc1 993c
00000030: 5877 563c 6c88 4e3e 993a c83d c3a2 56bc
00000040: 6ade b0bd 1409 683e 78ad 42bd 5861 a63e
00000050: 218e 82be f19b 15bd c137 e53d 76a0 ab3e
00000060: af27 3ebc 42a8 963e a405 913c a2b1 b93d
00000070: 46bb a3be 4559 10be 311d 1dbd d164 3f3e
00000080: 11a7 5f3e 2186 ae3d 328f 763e 8027 5b3d
00000090: cb28 f2bd e7f7 a5bd 56f1 5e3e a9e7 0bbe
000000a0: ce83 e5bc 1015 063e 9159 4b3d ce8f c5bd
000000b0: 173b 0cbe 44a8 68bd 85d4 dfbe 87f5 9b3d
000000c0: b61a 00be 6d72 70be 1156 10be 9a52 75bc
000000d0: ad5f 3f3e e2e7 02be 1ad1 3dbe 2d51 823d
000000e0: 9491 5b3d d19d 7d3e 4285 273c 930f c7bc
000000f0: 9de6 e6bd fef7 22bd f430 abbd 6ea1 9cbc
00000100: b220 e1bb 391a adbd dc44 053e b48c ddbd
00000110: 5385 58be bc5f a4bd 5d83 803e 9f7f 51be
00000120: 4506 c7bb ea82 793b 1947 3dbc e407 dabd
00000130: c2a5 0cbe b573 2fbe 1e14 39be 24f5 23be
00000140: 8d24 18bd 0e3c 08be a2b6 f13d 535f 843b
00000150: 4501 b5bd 23f3 cbbd 9374 3dbc fa9b 1c3d
00000160: a271 0e3e 0cc4 d3bc c5a0 f9bc ea37 ef3b
00000170: 8aad 52bd 26a4 7bbd 67f3 e0bd 7cce 8b3d
00000180: 4662 4a3d 931e edbd 88f8 013e 7c45 5a3c
00000190: 35ed 0c3c 2727 47be 6790 0f3e a8e4 b8bd
000001a0: ab12 063e beb1 0e3d 9782 813e 15d2 a8bd
000001b0: 6b42 2fbe 5050 46bc 484e 30bd 9da4 5f3b
000001c0: e56e f2bd dfc7 0fbe 2bb2 aa3b 4ff5 61bd
000001d0: 83ad babd 202d 3cbe 5236 a1be 406f dfbd
000001e0: 00e2 a03d efd3 3fbd 57c0 2ebe c581 b6bd
000001f0: d070 313e fd57 65be 1201 fcbd c958 f8bd
00000200: bd93 7dbc 7233 ef3e 0cb8 65be 703b a23e
00000210: c866 5e3d d95e 783e d6fc 37be 6dcb 8f3e
00000220: e0f1 26be 5293 173f 65b5 d8be fe87 a73e
00000230: 27ad 02be 3c63 63bd a2f6 7ebe 3659 36bb
00000240: 579b cbbe 69aa 61be abf8 20be 2f11 d5bd
00000250: c934 203e d578 b23b 6d25 37bd 20a6 dcbe
00000260: c074 61bd 6eea 6abe a7cb c1bc 9e84 1b3c
00000270: fc3f 833e 9e9a 90bc 830b 7a3d 906b 2bbe
00000280: 3e28 61bd e03f e53d 2548 0cbe 9961 25be
00000290: beb9 76bd 4a13 25bd d773 0dbe 250e 183d
000002a0: 65c6 c7bb 95f4 c4bd ba5d 4ebe f0cb b63d
000002b0: 97f6 bf3e c2d1 c2bd d997 913e 4796 d8bd
000002c0: 6eea 6e3e 292f e13d 4309 1b3e 444e afbc
000002d0: 66d4 a6be 04ff 043c 7fba 7c3e e109 03be
000002e0: cb9f 743e 7bfe 62be a818 d23d 34dd 31bd
000002f0: 53df 7c3d ea20 e3bc c818 403e 089e 783d
00000300: 8a59 69bd 57ec e13d ce6e 43bc 607f a43e
00000310: 071e 023d e785 c23e 9de4 513e 21c4 863e
00000320: ab40 a3be 5bc4 f63e 4e7d f4be fcf2 803e
00000330: b2d7 80be db9e bd3d 6abd 96bd 2d63 813e
00000340: 8ead f6be d8ba d3bd 5c45 253e cf54 ce3d
00000350: 657c 3cbc 95be e1bd ddc9 81be ac0d 6cbd
00000360: fa7a 033e 7fa1 c9bd 9060 5abe b902 dc3d
00000370: 9557 5b3e fbb4 5abe 1840 b1be 2934 c83c
00000380: 9761 1cbe 6bf8 ccbd 79ab 7fbe 80d1 5bbe
00000390: dbe3 a0be d309 c2bc 5292 873d aa27 363d
000003a0: 7144 f23e ab75 3e3e a556 58be 9419 27be
000003b0: bcaa d03c 0207 863c 249e d7bd 5c81 b7bc
000003c0: d684 083e 5e04 383d 7f3d 27bd 1a71 fdbd
000003d0: a363 e2be 6b11 45bd 63a2 bfbc fcec d0bc
000003e0: 3ae0 70be d354 683e 8bd0 44bd c564 dcbd
000003f0: 4003 e2bd 933b 6bbd 7c34 23be 1d45 90bd

transformer.layers.0.self_attn.in_proj_bias f4 [192]
0.0045372043 -0.10848491 0.040959425 0.01388638 -0.05331491 0.106326126 0.011492046 -0.1288662
-0.011812836 0.05085015 0.08313742 -0.08712427 0.05980458 -0.15360704 0.069667414 0.0845537
-0.18296665 0.02617385 0.19786368 -0.046229985 -0.14284898 -0.231043 -0.13473256 -0.10576702
-0.33526403 -0.16028869 -0.16291335 0.07952488 -0.43228325 -0.17713425 -0.12511636 0.12299553
0.03524398 -0.059495542 0.06423601 -0.083948515 0.039338633 0.102430545 0.061179504 -0.030806998
-0.09051071 0.030804787 0.021669062 0.11816117 0.04564383 -0.017596992 -0.071805224 -0.09277459
-0.006849539 -0.028383207 -0.008482247 0.09739855 -0.042901915 -0.08609396 -0.0002675468 0.010823401
0.022396468 -0.04462532 -0.077516034 0.048468333 -0.0231104 -0.024811607 0.009009307 0.018892026
0.0016104984 -0.0053316155 -0.0036237044 0.0043747923 -0.0015712935 0.010126846 -0.00041223987 -0.0045211404
0.0032230038 -0.0007506301 0.0034150903 -0.01016697 0.0024132337 -0.006692302 0.0011910533 0.014881529
-0.018533498 -0.0037526353 0.022598403 -0.007344252 -0.017572716 -0.025500162 -0.0105245905 -0.014777972
-0.037036248 -0.024044074 -0.023032714 0.0060533276 -0.021243328 -0.011902265 -0.017151028 0.011297438
-0.00024624428 -0.0021529512 0.0003450882 0.0013443829 0.00022829123 0.0030943556 -0.0026916908 -0.00049109635
0.0016486873 0.00034835824 0.0015074722 -0.004386554 6.665937e-05 6.638256e-05 0.00073671096 -0.002286055
0.0018695258 0.005067613 -0.0006072073 -0.009185566 0.0017102546 0.0030344115 -0.0007620625 1.7131208e-05
-0.00018662187 5.1489184e-05 -0.0018721198 -0.0018381394 0.0011509772 0.0006352835 0.00013820633 0.0030247513
0.020904249 -0.012283851 0.0060047614 -0.02348996 -0.006113061 -0.011157536 0.01609128 -0.0019142765
-0.011082445 0.008430341 -0.0039711487 -0.020570185 0.0033232002 -0.0017458964 -0.0051365066 -0.0047721895
-0.017456291 -0.003433274 0.010261583 0.008953945 0.018976582 0.009220001 -0.009743394 -0.008803655
0.003943768 0.0034494256 0.015655812 -0.015916605 -0.00075077574 -0.0021204296 0.011601391 -0.01403627
0.0073040007 -0.0053695813 -0.016377255 -0.014716216 0.001749678 -0.013375045 0.005118585 -0.0031432316
0.0025329422 0.014644674 0.0006497822 0.0018890008 0.026722206 0.01205912 -0.013183034 -0.0024384637
-0.00772414 -0.0034825415 0.004202614 0.00022446076 0.0035211747 0.0022764653 -0.014493367 -0.01032909
-0.012676112 -0.0033240807 -0.0053522224 -0.007505393 -0.00736808 0.004314811 0.0031378435 0.002648861
00000000: d4ac 943b 562d debd 12c5 273d b383 633c
00000010: bc60 5abd 83c1 d93d 2249 3c3c 80f5 03be
00000020: a08a 41bc 3f48 503d f443 aa3d 366e b2bd
00000030: a6f5 743d 2a4b 1dbe caad 8e3d 7e2a ad3d
00000040: 9c5b 3bbe 8b6a d63c c79c 4a3e a75b 3dbd
00000050: 0147 12be 8996 6cbe 55f7 09be 619c d8bd
00000060: baa7 abbe b822 24be c2d2 26be f1dd a23d
00000070: 3b54 ddbe ae62 35be 811e 00be 15e5 fb3d
00000080: fe5b 103d 99b1 73bd 2b8e 833d 33ed abbd
00000090: 8c21 213d 1bc7 d13d 5c97 7a3d f55e fcbc
000000a0: ae5d b9bd 525a fc3c 5183 b13c 7cfe f13d
000000b0: 06f5 3a3d 9127 90bc 9e0e 93bd 9b00 bebd
000000c0: 1972 e0bb e683 e8bc 1ff9 0abc e478 c73d
000000d0: ebb9 2fbd 0852 b0bd 8645 8cb9 a254 313c
000000e0: cc78 b73c 0ac9 36bd bac0 9ebd bb86 463d
000000f0: 0652 bdbc b641 cbbc c69b 133c 73c3 9a3c
00000100: 5c17 d33a d5b4 aebb ac7b 6dbb 6b5a 8f3b
00000110: dcf3 cdba 12eb 253c e621 d8b9 1326 94bb
00000120: 0839 533b efc5 44ba b5cf 5f3b 5d93 26bc
00000130: 5827 1e3b 194b dbbb 1e1d 9c3a a8d1 733c
00000140: 90d3 97bc c6ee 75bb 4920 b93c 0da8 f0bb
00000150: a8f4 8fbc b7e5 d0bc 556f 2cbc 4f1f 72bc
00000160: 52b3 17bd 14f8 c4bc 1aaf bcbc fe5a c63b
00000170: 7d06 aebc b801 43bc 5080 8cbc e418 393c
00000180: 591a 81b9 8718 0dbb f4ec b439 0136 b03a
00000190: 7661 6f39 acca 4a3b 1467 30bb ebbc 00ba
000001a0: c418 d83a daa3 b639 6096 c53a 15bd 8fbb
000001b0: 7acb 8b38 de36 8b38 d61f 413a a3d1 15bb
000001c0: e00a f53a 380e a63b fe2c 1fba 0e7f 16bc
000001d0: 9f2a e03a fadc 463b 26c5 47ba fdb4 8f37
000001e0: edaf 43b9 17f6 5738 eb61 f5ba b9ed f0ba
000001f0: 63dc 963a 2789 263a 7beb 1039 e83a 463b
00000200: 633f ab3c 3542 49bc 97c3 c43b 046e c0bc
00000210: 1350 c8bb 19ce 36bc dcd1 833c 76e8 faba
00000220: 2593 35bc 6a1f 0a3c 6920 82bb ce82 a8bc
00000230: 0cca 593b 90d6 e4ba 2450 a8bb 0760 9cbb
00000240: 7f00 8fbc c800 61bb 3320 283c 91b3 123c
00000250: c774 9b3c 7d0f 173c c2a2 1fbc 353d 10bc
00000260: b93a 813b c20f 623b 9e40 803c 8a63 82bc
00000270: b5cf 44ba e8f6 0abb c313 3e3c 62f8 65bc
00000280: 6656 ef3b 50f3 afbb 9829 86bc 491c 71bc
00000290: 7455 e53a 0123 5bbc ceb9 a73b adfe 4dbb
000002a0: b8ff 253b 37f0 6f3c 2556 2a3a 5998 f73a
000002b0: 87e8 da3c 9e93 453c a7fd 57bc a2ce 1fbb
000002c0: c81a fdbb 5a3b 64bb 15b6 893b 3a5d 6b39
000002d0: 82c3 663b c030 153b 9675 6dbc 583b 29bc
000002e0: 78af 4fbc d2d8 59bb b261 afbb cdef f5bb
000002f0: ef6f f1bb 4263 8d3b 47a4 4d3b 8398 2d3b

transformer.layers.0.self_attn.out_proj.weight f4 [64, 64]
-0.031078395 -0.0037762097 -0.032907758 0.00364835 -0.010307348 0.03299736 -0.0143746445 0.04433097
-0.047235977 0.014456297 0.019880403 -0.007430215 0.011614559 -0.009475023 0.012394394 0.02116445
-0.031998973 0.012232059 -0.01471339 0.07002984 0.0055593867 -0.008899503 0.0062086172 -0.00021521025
-0.0052542677 -0.003457523 0.048847906 0.0035889924 0.00016462791 0.0023398355 -0.0033531531 0.025150223
-0.008211929 0.0059229448 0.010265645 -0.003124168 -0.011249665 0.021433804 0.027748978 -0.013115079
0.02705488 0.013650763 -0.014517625 0.02189755 0.014651138 -0.02050813 0.004407838 0.058276333
-0.01189737 -1.2806685e-05 0.007746715 -0.01989279 -0.0297429 0.017977666 0.018986475 0.00067117944
0.029648216 -0.010284017 0.02311725 0.03287962 0.017402977 -0.041601673 0.0044712997 -0.010992544
-0.0006623951 0.021078618 0.018337527 -0.0050942036 0.054527957 0.0023011947 0.0043328963 0.02866602
0.10064333 -0.004514645 -0.020621859 -0.003176996 0.0052235303 0.003972145 -0.021454982 0.009151939
-0.028659755 0.002818677 -0.012195527 -0.0072069317 0.012581745 -0.0076233633 -0.0145978695 0.0031445883
-0.009911185 -0.00030762638 0.0128232995 0.00609049 -0.00724324 -0.0058193193 -0.01628909 0.017092023
0.010440202 -0.025597965 -0.07198116 0.026296522 -0.03389271 0.059994213 0.041500267 0.011894393
0.06868547 -0.12642977 -0.01660207 -0.010991258 0.009860247 0.10189829 -0.0028305713 0.05238871
-0.014658915 -0.009577096 0.00956018 0.0077182637 -0.041371025 0.017215962 0.027458059 0.0025419977
0.021589557 -0.0065553514 0.016153624 -0.0032526746 0.03146547 -0.041796178 -0.011367978 -0.0005166257
0.030072182 -0.01345969 0.03950866 0.03579153 0.00974994 0.04637503 0.09033741 0.014857226
0.007198662 -0.012781572 0.015821822 0.012328417 -0.012810093 -0.007875301 0.03746217 0.044109214
-0.019434689 -0.03674184 0.020078106 -0.014347929 -0.006727781 0.012737354 -0.022526952 0.016149752
0.03793073 0.04246149 0.009211327 -0.023543011 -0.096395835 -0.02411568 -0.03083146 -0.0022664533
-0.006378069 -0.023530917 -0.060528476 -0.05260173 0.0073372917 0.025907587 -0.0055525866 -0.0050810757
0.04577727 -0.055413336 0.013065738 -0.028179511 0.043426216 0.04890064 -0.008422679 0.008404354
0.018380715 0.00188483 -0.0061962083 0.04758173 -0.05868981 -0.012121867 0.03238325 -0.01129524
-0.009098213 -0.0061490587 0.0014836766 0.011859989 0.027867908 0.021874018 0.010461211 -0.012176808
-0.051875982 -0.0055548893 -0.14749545 -0.06926892 -0.03569541 0.020440385 0.069671705 -0.027963791
-0.3591314 -0.057615463 0.08376639 0.057624906 0.008332481 0.033893514 -0.01522212 0.019867523
0.07540636 -0.2788579 -0.020682214 0.095650166 -0.05551559 0.10923325 -0.06107974 -0.110616855
-0.054302208 -0.031869926 -0.17510282 -0.048346892 0.017549643 0.00072880654 -0.06873032 -0.09525191
-0.004026436 0.124030836 0.207851 -0.058217373 0.0011545838 -0.059595317 0.014596176 0.15132494
0.05825618 -0.0018221799 -0.0558439 0.1776417 0.023203729 -0.07365597 0.00791437 0.08079597
-0.08984181 -0.0019452019 -0.024377773 -0.072043575 0.057955276 0.03433 0.093575664 0.017863214
0.03225452 -0.007638631 0.0064626187 -0.001509416 0.03202971 -0.05586248 -0.01162874 -0.025356943
00000000: 1e98 febc 497a 77bb 49ca 06bd 2819 6f3b
00000010: 27e0 28bc 3d28 073d a183 6bbc 6494 353d
00000020: 837a 41bd 1bda 6c3c 3adc a23c 2979 f3bb
00000030: fe4a 3e3c 203d 1bbc db11 4b3c 1261 ad3c
00000040: 5b11 03bd f968 483c 6e10 71bc ce6b 8f3d
00000050: 842b b63b 39cf 11bc a871 cb3b 10aa 61b9
00000060: fe2b acbb 9c97 62bb be14 483d 4d35 6b3b
00000070: f89f 2c39 ed57 193b 93c0 5bbb d707 ce3c
00000080: 548b 06bc 4315 c23b 3c31 283c d7be 4cbb
00000090: 8450 38bc f295 af3c d351 e33c a1e0 56bc
000000a0: 32a2 dd3c 73a7 5f3c 55db 6dbc 7e62 b33c
000000b0: 540b 703c aa00 a8bc a06f 903b 2ab3 6e3d
000000c0: 30ed 42bc 4bdc 56b7 28d8 fd3b 34f6 a2bc
000000d0: 62a7 f3bc e645 933c 8689 9b3c 17f2 2f3a
000000e0: d1e0 f23c 4b7e 28bc 6360 bd3c c8ac 063d
000000f0: b090 8e3c 8466 2abd fb83 923b 121a 34bc
00000100: 95a4 2dba 11ad ac3c 9538 963c 47ed a6bb
00000110: b558 5f3d a4cf 163b f8fa 8d3b 00d5 ea3c
00000120: 171e ce3d 96ef 93bb 2cef a8bc 2635 50bb
00000130: 262a ab3b c428 823b 5cc2 afbc 04f2 153c
00000140: ddc7 eabc 8eb9 383b bfcf 47bc 2028 ecbb
00000150: aa23 4e3c 68cd f9bb e72b 6fbc 7015 4e3b
00000160: 8662 22bc ea48 a1b9 d118 523c bc92 c73b
00000170: b358 edbb fdaf bebb b370 85bc 9204 8c3c
00000180: 620d 2b3c d3b2 d1bc dc6a 93bd ce6b d73c
00000190: 15d3 0abd 7ebc 753d 2ffc 293d b3e0 423c
000001a0: f8aa 8c3d ce76 01be 1001 88bc ad14 34bc
000001b0: e08c 213c 0db0 d03d 1b81 39bb 8b95 563d
000001c0: f22b 70bc 41e9 1cbc 4da2 1c3c 7de9 fc3b
000001d0: aa74 29bd 7d08 8d3c b9ef e03c a597 263b
000001e0: 95dc b03c 46ce d6bb 9b54 843c d32a 55bb
000001f0: f0e1 003d 7832 2bbd c140 3abc 2a6e 07ba
00000200: f059 f63c 0886 5cbc d5d3 213d 249a 123d
00000210: 36be 1f3c bef3 3d3d d202 b93d b96b 733c
00000220: c1e2 eb3b cc69 51bc c49c 813c 21fd 493c
00000230: 6de1 51bc 6807 01bc ef71 193d ddab 343d
00000240: 7f35 9fbc 9d7e 16bd d77a a43c 9313 6bbc
00000250: b874 dcbb 56b0 503c 718a b8bc 7c4c 843c
00000260: 415d 1b3d 19ec 2d3d 1beb 163c 46dd c0bc
00000270: 2e6b c5bd 3f8e c5bc 4292 fcbc c788 14bb
00000280: 1fff d0bb e9c3 c0bc b5ec 77bd e974 57bd
00000290: aa6d f03b 263c d43c 79f2 b5bb 277f a6bb
000002a0: f280 3b3d 18f9 62bd ad11 563c b8d8 e6bc
000002b0: b0df 313d 0a4c 483d 47ff 09bc 6ab2 093c
000002c0: 2793 963c 660c f73a 9009 cbbb 0fe5 423d
000002d0: ba64 70bd cc9a 46bc 4ca4 043d ac0f 39bc
000002e0: ac10 15bc 0b7e c9bb ed77 c23a 6650 423c
000002f0: 3d4b e43c 2431 b33c 8065 2b3c 3c81 47bc
00000300: e97b 54bd ca05 b6bb 0c09 17be dddc 8dbd
00000310: 5a35 12bd 9872 a73c 0ab0 8e3d 5214 e5bc
00000320: 12e0 b7be 31fe 6bbd b78d ab3d 1808 6c3d
00000330: f584 083c edd3 0a3d 3366 79bc 37c1 a23c
00000340: a66e 9a3d 76c6 8ebe bf6d a9bc 3ce4 c33d
00000350: 5164 63bd afb5 df3d c02e 7abd 178b e2bd
00000360: fe6b 5ebd 0a8a 02bd 274e 33be 6407 46bd
00000370: 45c4 8f3c 610d 3f3a 7bc2 8cbd 6f13 c3bd
00000380: 31f0 83bb e103 fe3d e4d6 543e 5775 6ebd
00000390: 6755 973a 381a 74bd cd24 6f3c edf4 1a3e
000003a0: 089e 6e3d 36d6 eeba 93bc 64bd b5e7 353e
000003b0: bf15 be3c f1d8 96bd 46ab 013c 5c78 a53d
000003c0: fcfe b7bd 25f6 feba e5b3 c7bc 958b 93bd
000003d0: 8362 6d3d 9d9d 0c3d 99a4 bf3d e055 923c
000003e0: 511d 043d 7b4d fabb 60c4 d33b 99d7 c5ba
000003f0: 9631 033d 0ed0 64bd 7886 3ebc 5db9 cfbc

transformer.layers.0.self_attn.out_proj.bias f4 [64]
0.004780578 0.00044478892 0.001620422 0.008071004 0.0047389967 0.0033108683 0.00081511267 -0.004972654
-0.010129321 -0.0059200176 -0.0134724295 0.000994882 0.004279378 -0.00845419 -0.00045779586 -0.0021894681
-0.0012921316 -0.011887006 0.0023665375 0.016581137 -0.0059366524 -0.003482795 0.000372165 0.00010702927
-0.00036307544 0.0010930945 -0.000990134 -0.0030195347 -0.0024465248 -0.006779246 0.0004912313 -0.0062363157
0.004370382 -0.0007702198 -0.00061795156 -0.0026319176 0.012273696 -0.0023016182 0.011527883 -0.011320772
0.00840667 0.00073188666 -0.0109992875 -0.00041914397 0.0002859793 0.018889247 0.017142752 0.0028304295
0.0006157424 -0.0028213167 -0.00021835827 0.014226298 0.03688963 -0.0075403666 -0.0009772298 0.012171537
0.05457826 -0.0019984103 0.00077807467 0.0007713679 0.007773321 0.0175039 0.018795222 0.001589174
00000000: 65a6 9c3b 8f32 e939 5764 d43a 3f3c 043c
00000010: 9649 9b3b 27fb 583b 49ad 553a a5f1 a2bb
00000020: 74f5 25bc b5fc c1bb 77bb 5cbc b366 823a
00000030: 063a 8c3b 7183 0abc 5204 f0b9 2e7d 0fbb
00000040: be5c a9ba b8c1 42bc e917 1b3b 2ad5 873c
00000050: 4088 c2bb 9b3f 64bb 241f c339 e774 e038
00000060: 295b beb9 2a46 8f3a 62c7 81ba 63e3 45bb
00000070: e055 20bb 7024 debb f9c5 003a 025a ccbb
00000080: 6c35 8f3b 93e8 49ba 07fe 21ba 407c 2cbb
00000090: 9d17 493c bfd6 16bb 72df 3c3c c27a 39bc
000000a0: 21bc 093c 15dc 3f3a 5b36 34bc 8dc0 dbb9
000000b0: 7eef 9539 9fbd 9a3c f56e 8c3c ba7e 393b
000000c0: c669 213a d7e5 38bb 1af7 64b9 6b15 693c
000000d0: 9519 173d 2e15 f7bb 6416 80ba 206b 473c
000000e0: 748d 5f3d c3f7 02bb b5f7 4b3a a035 4a3a
000000f0: 58b7 fe3b 5764 8f3c 70f8 993c d54b d03a

transformer.layers.0.linear1.weight f4 [128, 64]
0.16315593 -0.18686008 0.07024061 -0.23017357 0.14979593 0.21072215 0.033993874 0.21644144
-0.14856362 -0.13561592 -0.08332101 -0.17087692 -0.019753644 0.000658682 0.1558964 -0.10299947
0.27831313 -0.04554224 0.26039222 -0.116300955 0.2277224 0.01825218 -0.116246216 0.19286475
0.2329403 0.013250488 0.23930569 -0.015639767 0.13560772 -0.16912776 -0.11166352 0.06497779
-0.030812737 -0.60035104 0.22747062 -0.1886201 -0.06157529 -0.2244104 0.47583622 -0.07093004
0.49108633 0.008976558 0.6801694 -0.0032824432 -0.12309243 -0.09092681 0.27823117 -0.03477563
0.23177844 -0.19285856 -0.068231516 -0.040426806 -0.27634478 -0.08956486 -0.32210135 0.21496704
-0.082120866 0.21380249 -0.236083 -0.49016696 0.14918715 -0.29583052 0.13775365 -0.20535895
-0.020974796 0.048401173 0.034956247 0.00039098365 0.020325266 -0.003527259 0.21448568 -0.06626181
-0.008428229 0.10940865 0.05054534 0.12970427 -0.12110183 0.072903395 -0.038190886 0.047372587
-0.063021354 0.014249778 -0.057695616 0.015194497 -0.025548477 -0.10723946 0.13217609 0.16995476
-0.16350585 0.02244031 -0.021962974 0.0009958376 -0.048798233 0.057551634 0.03700758 -0.0021346451
0.009515609 0.09616469 0.109302305 0.08830527 0.047968745 0.019120598 0.07032973 -0.07586189
0.073613666 0.048615947 0.03584416 0.03769354 -0.041897696 -0.101443045 -0.1303486 0.057095814
-0.22844857 -0.1616712 -0.03390725 0.1617074 0.122936934 -0.0046323817 -0.052849885 -0.18252276
-0.14265667 0.24320742 0.043409344 0.070412576 0.0639793 0.04196815 -0.10651123 0.028483288
0.028938137 -0.10775587 0.06897788 -0.02433449 0.023261145 -0.034305044 -0.07025717 0.00863964
-0.013168705 0.11220858 -0.13404602 -0.039194465 -0.012351813 0.26546872 -0.06876821 -0.10880755
-0.026089482 0.009928961 -0.012131594 0.045183893 -0.22524402 0.08377776 -0.11016782 0.5505113
0.017829144 0.48950455 0.11348495 -0.09614177 0.010348604 0.065963544 0.18829548 -0.047625314
-0.117356196 -0.098238625 0.25872666 -0.21855466 0.11424751 0.12679926 -0.0001209941 -0.07275058
0.10366708 -0.24065354 0.12644255 -0.089670084 -0.29363447 0.018478068 0.08364223 -0.14751339
-0.17193119 -0.21427615 -0.2964771 -0.13893153 -0.037143603 -0.0423058 -0.035811547 -0.006949049
-0.10012833 -0.24200924 -0.035653166 -0.18128559 0.08191313 -0.045799144 0.1942179 -0.16838412
-0.22254865 -0.044708055 0.29662055 -0.044981584 -0.016032528 0.065624475 0.39140224 -0.31607792
0.41710815 0.6717883 -0.36000323 0.728043 -0.75148696 -0.04616354 -0.6043206 -0.28774953
-0.050094068 -0.33768985 0.24397333 -0.28876776 0.33509856 -0.51065695 0.12137745 -0.10558683
0.2905548 -0.021249281 0.21512641 -0.095493056 0.28532347 0.056181557 0.25056028 -0.3108771
0.08296954 0.08968941 -0.042587023 -0.10136599 0.12458885 0.08490268 0.032131955 0.16312969
0.1398828 -0.0005276807 -0.03412333 -0.016953792 0.10693272 0.116897166 0.031668693 0.02582245
0.059838243 -0.039521877 0.07540259 0.019160591 0.3114954 0.029876512 0.16344677 -0.022932008
-0.10028455 -0.06147215 -0.0071973484 -0.18480569 0.053966526 0.016046792 0.04559807 0.09969729
00000000: 5912 273e 4058 3fbe 4fda 8f3d 9fb2 6bbe
00000010: 1b64 193e 8cc7 573e 293d 0b3d d3a2 5d3e
00000020: 1021 18be e6de 0abe 35a4 aabd 5cfa 2ebe
00000030: 65d2 a1bc 67ab 2c3a 4ea3 1f3e 63f1 d2bd
00000040: 0f7f 8e3e 808a 3abd 2152 853e 322f eebd
00000050: 1030 693e 9985 953c 7f12 eebd 567e 453e
00000060: e787 6e3e 9318 593c 8d0c 753e f81e 80bc
00000070: c0dc 0a3e d42f 2dbe d8af e4bd 1313 853d
00000080: fe6a fcbc 9bb0 19bf 0fee 683e a125 41be
00000090: 5f36 7cbd d7cb 65be cea0 f33e c543 91bd
000000a0: ab6f fb3e 6a12 133c 951f 2e3f 421e 57bb
000000b0: e217 fcbd d637 babd 5174 8e3e e470 0ebd
000000c0: 5457 6d3e b77c 45be f7bc 8bbd 9496 25bd
000000d0: 107d 8dbe c86d b7bd 78ea a4be 5220 5c3e
000000e0: fc2e a8bd 0aef 5a3e bebf 71be 2af7 fabe
000000f0: 84c4 183e 1977 97be 4b0f 0d3e 9e49 52be
00000100: 56d3 abbc 4f40 463d 482e 0f3d f0fc cc39
00000110: 2c81 a63c 9629 67bb 22a2 5b3e 46b4 87bd
00000120: 8e16 0abc a411 e03d a108 4f3d 32d1 043e
00000130: 3c04 f8bd 604e 953d 0c6e 1cbd c209 423d
00000140: 5711 81bd e777 693c 3d52 6cbd 57f2 783c
00000150: 0a4b d1bc 5da0 dbbd 2b59 073e 9f08 2e3e
00000160: 146e 27be bed4 b73c b2eb b3bc c486 823a
00000170: a8e0 47bd 43bb 6b3d 4395 173d 67e5 0bbb
00000180: 5be7 1b3c fef1 c43d e3d9 df3d 65d9 b43d
00000190: e07a 443d cda2 9c3c 0909 903d 7b5d 9bbd
000001a0: c3c2 963d 8421 473d 53d1 123d 8b64 1a3d
000001b0: eb9c 2bbd 5fc1 cfbd 1a7a 05be 4ddd 693d
000001c0: 6cee 69be 238d 25be 54e2 0abd a096 253e
000001d0: 5cc6 fb3d 3ccb 97bb 1f79 58bd 3fe7 3abe
000001e0: 9714 12be 5e0b 793e ffcd 313d 7834 903d
000001f0: 9407 833d cbe6 2b3d 8f22 dabd c955 e93c
00000200: ac0f ed3c 1caf dcbd 4644 8d3d 2059 c7bc
00000210: 288e be3c 7283 0cbd fee2 8fbd 478d 0d3c
00000220: 8dc1 57bc 9dcd e53d 5c43 09be 608a 20bd
00000230: 425f 4abc 84eb 873e 59d6 8cbd 7ed6 debd
00000240: 9cb9 d5bc 15ad 223c 98c3 46bc bf12 393d
00000250: 5ea6 66be ad93 ab3d aa9f e1bd 4fee 0c3f
00000260: 6d0e 923c 57a0 fa3e cc6a e83d fae5 c4bd
00000270: 318d 293c e517 873d 88d0 403e c312 43bd
00000280: 7258 f0bd 5531 c9bd d277 843e cbcc 5fbe
00000290: 99fa e93d aad7 013e 36be fdb8 42fe 94bd
000002a0: 684f d43d e26d 76be 287a 013e f3a4 b7bd
000002b0: 4257 96be 515f 973c 9e4c ab3d c00d 17be
000002c0: bb0e 30be 356b 5bbe d9cb 97be 1144 0ebe
000002d0: e423 18bd d948 2dbd 21af 12bd d9b4 e3bb
000002e0: 1510 cdbd 45d1 77be 0e09 12bd eea2 39be
000002f0: 12c2 a73d e297 3bbd 0fe1 463e e36c 2cbe
00000300: cbe3 63be cb1f 37bd a6de 973e 9c3e 38bd
00000310: a656 83bc 2066 863d e065 c83e f7d4 a1be
00000320: 338f d53e 51fa 2b3f 5852 b8be 0761 3a3f
00000330: 7361 40bf fb15 3dbd c1b4 1abf e853 93be
00000340: 702f 4dbd afe5 acbe 25d4 793e 5ed9 93be
00000350: 0a92 ab3e 6aba 02bf be94 f83d e83d d8bd
00000360: 99c3 943e f912 aebc 194a 5c3e dd91 c3bd
00000370: eb15 923e a21e 663d 7049 803e 492b 9fbe
00000380: efeb a93d 15af b73d bb6f 2ebd f998 cfbd
00000390: 7028 ff3d 75e1 ad3d cc9c 033d 780b 273e
000003a0: 703d 0f3e 0d54 0aba e8c4 0bbd aee2 8abc
000003b0: 8bff da3d c867 ef3d 08b7 013d 9a89 d33c
000003c0: f218 753d b1e1 21bd ac6c 9a3d acf6 9c3c
000003d0: 537c 9f3e 96bf f43c 975e 273e e8db bbbc
000003e0: fc61 cdbd 39ca 7bbd bcd7 ebbb b43d 3dbe
000003f0: 010c 5d3d 9074 833c 0bc5 3a3d 182e cc3d

transformer.layers.0.linear1.bias f4 [128]
-0.1684161 0.016214898 -0.0005523617 -0.1299215 -0.095577635 -0.14440368 -0.14795712 -0.12203233
-0.19278865 -0.06627496 -0.20613633 -0.18620765 -0.19378075 -0.14281875 -0.095075846 -0.04114354
0.00083968486 -0.079172 -0.109491654 -0.11477276 0.018436337 -0.0950619 -0.26639175 -0.020329293
-0.113909274 -0.08060981 -0.045520667 -0.13751109 -0.103756465 -0.22397944 0.013356802 -0.0021515638
-0.09378179 0.0055508115 -0.08798885 -0.12448988 -0.21154656 -0.20766087 -0.2080023 -0.18377729
-0.13507298 -0.21439168 -0.14990944 -0.18436483 -0.029332928 -0.17034638 -0.043519128 -0.042354167
-0.18277647 -0.18547447 -0.094333574 -0.16553143 -0.13811228 -0.19039574 0.010377428 -0.10398907
-0.22271743 -0.06435715 -0.06968382 -0.06505734 -0.10333362 -0.23726484 -0.13154578 -0.08314489
-0.017334295 -0.17476559 -0.030743554 -0.1640588 -0.09900865 -0.14253901 -0.30163714 0.031202216
-0.14609715 -0.24409333 -0.18185529 -0.15064248 -0.115647994 -0.039451923 -0.21776578 -0.21263885
-0.22280844 -0.111493826 -0.18828543 -0.16872004 -0.04773773 -0.08219502 -0.17200838 -0.016947594
-0.120183475 -0.0787274 -0.008568389 -0.032283757 -0.04492083 -0.066265866 -0.1393311 -0.12059974
-0.21049258 -0.01818232 -0.20309412 -0.053217843 -0.13656318 -0.08418887 -0.04053611 -0.114906676
0.029376779 0.016195446 -0.072714575 -0.013391762 -0.039964963 -0.061195973 -0.027363094 -0.07273034
-0.0913407 -0.20432138 -0.06463133 -0.030809576 -0.2157242 -0.09057417 0.06450354 -0.009369382
-0.2558099 -0.13053961 -0.10838565 -0.14366467 -0.20455717 -0.18168199 -0.067195185 -0.12201934
00000000: 4575 2cbe 1bd5 843c 5ecc 10ba 240a 05be
00000010: 35be c3bd 8fde 13be 1282 17be 16ec f9bd
00000020: 636a 45be 2bbb 87bd 6715 53be 38ad 3ebe
00000030: 766e 46be 143f 12be 20b7 c2bd 2186 28bd
00000040: 4c1e 5c3a ee24 a2bd 293d e0bd fb0d ebbd
00000050: cd07 973c d0af c2bd 8064 88be 9e89 a6bc
00000060: 4449 e9bd c216 a5bd e173 3abd b5cf 0cbe
00000070: 457e d4bd de5a 65be 7dd6 5a3c 4001 0dbb
00000080: ab10 c0bd 95e3 b53b 8033 b4bd 8df4 febd
00000090: a99f 58be 0da5 54be 8efe 54be 1d30 3cbe
000000a0: 9250 0abe 7e89 5bbe dc81 19be 22ca 3cbe
000000b0: 9c4b f0bc 486f 2ebe 1d41 32bd 907b 2dbd
000000c0: c129 3bbe 05ed 3dbe f631 c1bd 1281 29be
000000d0: 4e6d 0dbe 1af7 42be 1606 2a3c 39f8 d4bd
000000e0: 0a10 64be aecd 83bd 64b6 8ebd c83c 85bd
000000f0: 94a0 d3bd 8ef5 72be f0b3 06be de47 aabd
00000100: a700 8ebc c0f5 32be e8d9 fbbc 08ff 27be
00000110: 0cc5 cabd bff5 11be 2f70 9abe ca9b ff3c
00000120: 7e9a 15be 9af3 79be 4638 3abe 0642 1abe
00000130: dbd8 ecbd 5798 21bd fefd 5ebe 00be 59be
00000140: e527 64be e056 e4bd e5cd 40be f2c4 2cbe
00000150: a388 43bd dd55 a8bd f722 30be aed5 8abc
00000160: c122 f6bd d53b a1bd 6e62 0cbc f93b 04bd
00000170: e7fe 37bd 66b6 87bd d0ac 0ebe fffc f6bd
00000180: 5e8b 57be 17f3 94bc e8f7 4fbe f4fa 59bd
00000190: 38d7 0bbe 376b acbd 3109 26bd 3154 ebbd
000001a0: 92a7 f03c 50ac 843c 61eb 94bd 1f69 5bbc
000001b0: 4db2 23bd a1a8 7abd 9128 e0bc a5f3 94bd
000001c0: d510 bbbd a039 51be 6e5d 84bd 5d64 fcbc
000001d0: cee6 5cbe f37e b9bd 6f1a 843d 0982 19bc
000001e0: 84f9 82be 2dac 05be 4cf9 ddbd d51c 13be
000001f0: 6f77 51be d80a 3abe a19d 89bd 47e5 f9bd

transformer.layers.0.linear2.weight f4 [64, 128]
-0.10943862 0.16218092 -0.004620412 -0.06639097 0.11762378 -0.0701945 -0.012597095 0.0074963057
0.12188125 -0.31230387 0.33636937 0.11191212 -0.022486128 0.029073868 -0.062399648 0.11668102
-0.6055207 -0.008797684 -0.014778762 0.17487518 -0.067509316 0.023266949 -0.044576492 -0.063054025
0.19267926 -0.041063853 -0.07457404 -0.18412502 -0.26509625 0.18968485 -0.04079176 0.059860747
-0.005733206 0.0995136 0.066455565 -0.045653567 -0.1411967 -0.003799283 -0.068977945 0.096814305
0.658936 0.07782976 0.1183352 -0.038216762 -0.049446207 -0.3405273 -0.13163497 0.027109351
0.07723826 0.10742631 -0.13049464 -0.16889277 -0.0966017 -0.031874005 0.042129636 0.1584408
-0.3146076 -0.011368678 0.1234314 -0.001673825 0.16032693 0.3803754 0.14679801 0.00020776174
-0.033067737 0.0042867423 -0.0046776007 0.07920799 -0.13896176 0.10790499 0.025066167 0.06778862
-0.37639233 0.39039212 0.07392625 -0.07727927 0.09256549 -0.03539923 0.25505307 0.021058079
-0.1657193 0.06443343 0.04723936 -0.0678734 -0.04624 0.17131132 0.1244918 0.16545601
0.0060643144 0.2047254 -0.035090834 0.17190172 -0.10405322 -0.07262349 -0.3132612 0.06600647
0.22087735 0.10501197 0.03136034 -0.10218967 0.069738075 -0.047214203 0.014393513 -0.2931386
0.061433658 0.033362053 -0.03816718 -0.5164888 0.17206247 0.016986525 -0.09561446 0.087437734
0.22738893 -0.003282721 -0.07583484 -0.11675405 0.141476 0.051422447 0.071227044 0.0733033
0.031549793 0.16303194 0.038749132 0.12161088 0.1822765 0.077183485 -0.030490037 0.058566045
-0.06440643 -0.029871494 0.07243633 0.018868688 0.026967013 -0.13341859 0.020762326 -0.04907232
0.08385241 0.22556032 -0.13236697 0.08833909 -0.16574076 0.090262264 0.2692451 -0.049290042
0.07504735 -0.13268222 -0.026034774 -0.15507466 0.12930481 -0.017175935 -0.11542804 0.019444998
-0.12336172 0.018865833 0.07186019 -0.2162447 0.2536289 -0.10741659 0.006266372 0.19161798
-0.061953977 0.03754073 -0.082088016 0.26456168 -0.16367784 0.03171132 0.21796644 -0.040601917
-0.101703264 0.23945187 -0.14248347 -0.091703914 -0.058265287 0.1767711 0.06926239 -0.10677171
-0.049743816 -0.028538687 0.029119167 0.103369616 0.06036632 0.42895883 0.0076906667 -0.18039058
0.20778622 0.03376256 -0.2286952 0.10250031 -0.23570889 0.18659359 0.027877063 0.43261865
-0.19830613 -0.020837083 -0.043229867 0.11184853 -0.16208841 -0.008264468 -0.16536437 -0.057224713
0.09603108 0.24300578 -0.29908463 0.2339309 0.35539782 0.08853619 0.18754262 0.1925879
0.035399895 -0.032591272 -0.013427308 0.08056823 0.058420107 -0.046162535 -0.12506649 -0.0067834132
-0.06971587 -0.08836522 -0.15250334 -0.043846868 -0.02087843 -0.17049529 -0.2635559 0.12232795
0.20074986 0.030553635 0.06546967 -0.18627591 0.018444717 -0.0033253613 -0.05669707 -0.08671029
-0.017880676 -0.04274229 -0.021244254 -0.20224686 0.12956047 0.49671176 0.051800217 -0.22376013
0.35577422 0.10513891 0.050279062 0.113532536 0.0028027901 -0.19568129 -0.03210783 -0.088220984
0.3189103 -0.2629833 -0.009000757 -0.13368568 -0.12225094 0.008811185 -0.04428703 0.062336758
00000000: 5b21 e0bd c112 263e d366 97bb fdf7 87bd
00000010: bde4 f03d 22c2 8fbd 0c64 4ebc 92a3 f53b
00000020: e09c f93d 4be6 9fbe 9b38 ac3e 2e32 e53d
00000030: d434 b8bc 522c ee3c c696 7fbd 75f6 ee3d
00000040: 6803 1bbf 2924 10bc 9f22 72bc 7b12 333e
00000050: 5342 8abd 549a be3c d795 36bd 7822 81bd
00000060: b64d 453e 9232 28bd 46ba 98bd 458b 3cbe
00000070: b2ba 87be bf3c 423e 4315 27bd 8b30 753d
00000080: 9edd bbbb c9cd cb3d db19 883d 3cff 3abd
00000090: de95 10be 64fd 78bb 4f44 8dbd 9446 c63d
000000a0: 08b0 283f 3665 9f3d ba59 f23d 2e89 1cbd
000000b0: 1b88 4abd 9859 aebe 51cb 06be 6e14 de3c
000000c0: 182f 9e3d 5302 dc3d 63a0 05be 3af2 2cbe
000000d0: 1dd7 c5bd 518e 02bd 2090 2c3d 4e3e 223e
000000e0: 3f14 a1be b143 3abc 9ac9 fc3d 3f64 dbba
000000f0: be2c 243e 90c0 c23e 3852 163e 9eda 5939
00000100: 0972 07bd cd77 8c3b 8f46 99bb cc37 a23d
00000110: fe4b 0ebe 4bfd dc3d 9057 cd3c c3d4 8a3d
00000120: 7fb6 c0be 7ae1 c73e a566 973d 9844 9ebd
00000130: fa92 bd3d c8fe 10bd 5196 823e fe81 ac3c
00000140: 52b2 29be adf5 833d 0f7e 413d 3601 8bbd
00000150: 2766 3dbd 3c6c 2f3e 8ff5 fe3d 4d6d 293e
00000160: 28b7 c63b 89a3 513e 68bb 0fbd 0107 303e
00000170: db19 d5bd a0bb 94bd c663 a0be 662e 873d
00000180: ac2d 623e 8410 d73d b373 003d d148 d1bd
00000190: d6d2 8e3d ae63 41bd c5d2 6b3c 4316 96be
000001a0: dca1 7b3d a6a6 083d 3055 1cbd 9c38 04bf
000001b0: 2531 303e 5327 8b3c 84d1 c3bd 8e12 b33d
000001c0: a5d8 683e eb22 57bb 4c4f 9bbd bf1c efbd
000001d0: 16df 103e 58a0 523d 7cdf 913d 0a20 963d
000001e0: 5b3a 013d d8f1 263e 69b7 1e3d 200f f93d
000001f0: b1a6 3a3e 6012 9e3d 3ec6 f9bc f3e2 6f3d
00000200: 85e7 83bd 10b5 f4bc 8059 943d 8292 9a3c
00000210: ede9 dc3c e29e 08be c115 aa3c 0f00 49bd
00000220: d0ba ab3d 49f9 663e 358b 07be 20eb b43d
00000230: f2b7 29be 6cdb b83d 7eda 893e 5be4 49bd
00000240: 6db2 993d d9dd 07be e146 d5bc e4cb 1ebe
00000250: 7b68 043e 8cb4 8cbc 8965 ecbd 1e4b 9f3c
00000260: 12a5 fcbd 858c 9a3c 6f2b 933d 406f 5dbe
00000270: a6db 813e 3bfd dbbd 2356 cd3b 8137 443e
00000280: 74c3 7dbd 4fc4 193d c31d a8bd a174 873e
00000290: 2a9b 27be bbe3 013d 9832 5f3e 324e 26bd
000002a0: cd49 d0bd df32 753e 30e7 11be 43cf bbbd
000002b0: 95a7 6ebd 7c03 353e 71d9 8d3d 20ab dabd
000002c0: 2cc0 4bbd f7c9 e9bc 528b ee3c 73b3 d33d
000002d0: ad42 773d 7ea0 db3e fd01 fc3b 4fb8 38be
000002e0: e9c5 543e 9c4a 0a3d 132f 6abe afeb d13d
000002f0: ac5d 71be 6412 3f3e 705e e43c 3180 dd3e
00000300: c310 4bbe 88b2 aabc cd11 31bd d810 e53d
00000310: 81fa 25be b167 07bc 4755 29be 7664 6abd
00000320: f1ab c43d 82d6 783e 9f21 99be 958b 6f3e
00000330: b4f6 b53e 7652 b53d 2c0b 403e c335 453e
00000340: 7bff 103d 6d7e 05bd 36fe 5bbc f500 a53d
00000350: ec49 6f3d ed14 3dbd 6e11 00be 6547 debb
00000360: 32c7 8ebd d3f8 b4bd d629 1cbe c698 33bd
00000370: 3e09 abbc 5196 2ebe cdf0 86be 1487 fa3d
00000380: 5f91 4d3e 9e4b fa3c f614 863d 1dbf 3ebe
00000390: 6019 973c 4eee 59bb 303b 68bd 2a95 b1bd
000003a0: 7f7a 92bc 8a12 2fbd 6e08 aebc cd19 4fbe
000003b0: 80ab 043e 0151 fe3e 772c 543d 6021 65be
000003c0: 0a28 b63e 1253 d73d 6bf1 4d3d bf83 e83d
000003d0: 04af 373b ad60 48be 8083 03bd 34ad b4bd
000003e0: 3648 a33e bfa5 86be e977 13bc e6e4 08be
000003f0: b35e fabd ca5c 103c 5166 35bd d454 7f3d

transformer.layers.0.linear2.bias f4 [64]
-0.043453164 0.027368842 0.021253277 0.022994896 -0.02477289 0.03650217 0.07035487 0.11580341
0.031363852 0.18435055 0.03492285 0.051720887 0.044879954 -0.00977318 -0.054603778 -0.010800783
0.14844108 0.08026246 -0.018112244 -0.049376808 0.09928846 0.13206667 -0.001173535 -0.0077836453
-0.016757118 -0.025781883 0.07224878 -0.075956635 0.035615288 0.04258322 0.02303756 -0.18250474
0.13090841 0.14561549 -0.046412446 0.0058498215 -0.047163144 0.016726157 0.011600799 -0.090514876
0.06238945 -0.01776293 0.119893044 -0.0085977 0.02511893 -0.04228531 -0.056756396 -0.018399345
-0.01059559 -0.011939269 0.020571096 -0.018205121 -0.027687516 -0.088611595 -0.034915075 -0.07505388
0.09058446 -0.0893424 0.04369127 -0.019375242 0.18076581 -0.1463568 -0.015539022 -0.031621274
00000000: f2fb 31bd 9f34 e03c 5a1b ae3c cb5f bc3c
00000010: 84f0 cabc 4d83 153d 3716 903d 572a ed3d
00000020: 6277 003d 64c6 3c3e 430b 0f3d 48d9 533d
00000030: 0bd4 373d b01f 20bc 36a8 5fbd c4f5 30bc
00000040: f000 183e a560 a43d 2160 94bc 563f 4abd
00000050: c057 cb3d 7c3c 073e 4dd1 99ba f30d ffbb
00000060: 3946 89bc 8734 d3bc 2bf7 933d 278f 9bbd
00000070: 56e1 113d be6b 2e3d 44b9 bc3c 86e2 3abe
00000080: db0c 063e 3a1c 153e fa1a 3ebd dcaf bf3b
00000090: 242e 41bd 4b05 893c 4711 3e3c dd5f b9bd
000000a0: 148c 7f3d 9083 91bc 7c8a f53d 5edd 0cbc
000000b0: 37c6 cd3c 5c33 2dbd 6579 68bd 39ba 96bc
000000c0: 2099 2dbc ec9c 43bc b784 a83c e822 95bc
000000d0: eed0 e2bc ff79 b5bd 1c03 0fbd d9b5 99bd
000000e0: 5884 b93d 26f9 b6bd 9ef5 323d d4b8 9ebc
000000f0: ac1a 393e 8fde 15be 6297 7ebc 4f85 01bd
